{"keras_version": "2.2.4", "class_name": "Model", "backend": "tensorflow", "config": {"output_layers": [["concatenate_11", 0, 0]], "name": "model_24", "layers": [{"name": "input_34", "class_name": "InputLayer", "inbound_nodes": [], "config": {"batch_input_shape": [null, 224, 224, 3], "name": "input_34", "dtype": "float32", "sparse": false}}, {"name": "Conv1_pad", "class_name": "ZeroPadding2D", "inbound_nodes": [[["input_34", 0, 0, {}]]], "config": {"trainable": false, "padding": [[0, 1], [0, 1]], "name": "Conv1_pad", "data_format": "channels_last"}}, {"name": "Conv1", "class_name": "Conv2D", "inbound_nodes": [[["Conv1_pad", 0, 0, {}]]], "config": {"use_bias": false, "name": "Conv1", "filters": 32, "bias_initializer": {"class_name": "Zeros", "config": {}}, "kernel_constraint": null, "kernel_size": [3, 3], "bias_constraint": null, "trainable": false, "data_format": "channels_last", "kernel_initializer": {"class_name": "VarianceScaling", "config": {"mode": "fan_avg", "distribution": "uniform", "scale": 1.0, "seed": null}}, "activation": "linear", "strides": [2, 2], "kernel_regularizer": null, "dilation_rate": [1, 1], "padding": "valid", "bias_regularizer": null, "activity_regularizer": null}}, {"name": "bn_Conv1", "class_name": "BatchNormalization", "inbound_nodes": [[["Conv1", 0, 0, {}]]], "config": {"axis": -1, "name": "bn_Conv1", "gamma_regularizer": null, "beta_regularizer": null, "trainable": false, "center": true, "moving_mean_initializer": {"class_name": "Zeros", "config": {}}, "moving_variance_initializer": {"class_name": "Ones", "config": {}}, "beta_constraint": null, "momentum": 0.999, "gamma_initializer": {"class_name": "Ones", "config": {}}, "gamma_constraint": null, "epsilon": 0.001, "scale": true, "beta_initializer": {"class_name": "Zeros", "config": {}}}}, {"name": "Conv1_relu", "class_name": "ReLU", "inbound_nodes": [[["bn_Conv1", 0, 0, {}]]], "config": {"trainable": false, "max_value": 6.0, "name": "Conv1_relu", "threshold": 0.0, "negative_slope": 0.0}}, {"name": "expanded_conv_depthwise", "class_name": "DepthwiseConv2D", "inbound_nodes": [[["Conv1_relu", 0, 0, {}]]], "config": {"use_bias": false, "name": "expanded_conv_depthwise", "activity_regularizer": null, "bias_initializer": {"class_name": "Zeros", "config": {}}, "kernel_size": [3, 3], "bias_constraint": null, "trainable": false, "data_format": "channels_last", "dilation_rate": [1, 1], "depthwise_constraint": null, "activation": "linear", "strides": [1, 1], "depthwise_initializer": {"class_name": "VarianceScaling", "config": {"mode": "fan_avg", "distribution": "uniform", "scale": 1.0, "seed": null}}, "depth_multiplier": 1, "padding": "same", "bias_regularizer": null, "depthwise_regularizer": null}}, {"name": "expanded_conv_depthwise_BN", "class_name": "BatchNormalization", "inbound_nodes": [[["expanded_conv_depthwise", 0, 0, {}]]], "config": {"axis": -1, "name": "expanded_conv_depthwise_BN", "gamma_regularizer": null, "beta_regularizer": null, "trainable": false, "center": true, "moving_mean_initializer": {"class_name": "Zeros", "config": {}}, "moving_variance_initializer": {"class_name": "Ones", "config": {}}, "beta_constraint": null, "momentum": 0.999, "gamma_initializer": {"class_name": "Ones", "config": {}}, "gamma_constraint": null, "epsilon": 0.001, "scale": true, "beta_initializer": {"class_name": "Zeros", "config": {}}}}, {"name": "expanded_conv_depthwise_relu", "class_name": "ReLU", "inbound_nodes": [[["expanded_conv_depthwise_BN", 0, 0, {}]]], "config": {"trainable": false, "max_value": 6.0, "name": "expanded_conv_depthwise_relu", "threshold": 0.0, "negative_slope": 0.0}}, {"name": "expanded_conv_project", "class_name": "Conv2D", "inbound_nodes": [[["expanded_conv_depthwise_relu", 0, 0, {}]]], "config": {"use_bias": false, "name": "expanded_conv_project", "filters": 16, "bias_initializer": {"class_name": "Zeros", "config": {}}, "kernel_constraint": null, "kernel_size": [1, 1], "bias_constraint": null, "trainable": false, "data_format": "channels_last", "kernel_initializer": {"class_name": "VarianceScaling", "config": {"mode": "fan_avg", "distribution": "uniform", "scale": 1.0, "seed": null}}, "activation": "linear", "strides": [1, 1], "kernel_regularizer": null, "dilation_rate": [1, 1], "padding": "same", "bias_regularizer": null, "activity_regularizer": null}}, {"name": "expanded_conv_project_BN", "class_name": "BatchNormalization", "inbound_nodes": [[["expanded_conv_project", 0, 0, {}]]], "config": {"axis": -1, "name": "expanded_conv_project_BN", "gamma_regularizer": null, "beta_regularizer": null, "trainable": false, "center": true, "moving_mean_initializer": {"class_name": "Zeros", "config": {}}, "moving_variance_initializer": {"class_name": "Ones", "config": {}}, "beta_constraint": null, "momentum": 0.999, "gamma_initializer": {"class_name": "Ones", "config": {}}, "gamma_constraint": null, "epsilon": 0.001, "scale": true, "beta_initializer": {"class_name": "Zeros", "config": {}}}}, {"name": "block_1_expand", "class_name": "Conv2D", "inbound_nodes": [[["expanded_conv_project_BN", 0, 0, {}]]], "config": {"use_bias": false, "name": "block_1_expand", "filters": 96, "bias_initializer": {"class_name": "Zeros", "config": {}}, "kernel_constraint": null, "kernel_size": [1, 1], "bias_constraint": null, "trainable": false, "data_format": "channels_last", "kernel_initializer": {"class_name": "VarianceScaling", "config": {"mode": "fan_avg", "distribution": "uniform", "scale": 1.0, "seed": null}}, "activation": "linear", "strides": [1, 1], "kernel_regularizer": null, "dilation_rate": [1, 1], "padding": "same", "bias_regularizer": null, "activity_regularizer": null}}, {"name": "block_1_expand_BN", "class_name": "BatchNormalization", "inbound_nodes": [[["block_1_expand", 0, 0, {}]]], "config": {"axis": -1, "name": "block_1_expand_BN", "gamma_regularizer": null, "beta_regularizer": null, "trainable": false, "center": true, "moving_mean_initializer": {"class_name": "Zeros", "config": {}}, "moving_variance_initializer": {"class_name": "Ones", "config": {}}, "beta_constraint": null, "momentum": 0.999, "gamma_initializer": {"class_name": "Ones", "config": {}}, "gamma_constraint": null, "epsilon": 0.001, "scale": true, "beta_initializer": {"class_name": "Zeros", "config": {}}}}, {"name": "block_1_expand_relu", "class_name": "ReLU", "inbound_nodes": [[["block_1_expand_BN", 0, 0, {}]]], "config": {"trainable": false, "max_value": 6.0, "name": "block_1_expand_relu", "threshold": 0.0, "negative_slope": 0.0}}, {"name": "block_1_pad", "class_name": "ZeroPadding2D", "inbound_nodes": [[["block_1_expand_relu", 0, 0, {}]]], "config": {"trainable": false, "padding": [[0, 1], [0, 1]], "name": "block_1_pad", "data_format": "channels_last"}}, {"name": "block_1_depthwise", "class_name": "DepthwiseConv2D", "inbound_nodes": [[["block_1_pad", 0, 0, {}]]], "config": {"use_bias": false, "name": "block_1_depthwise", "activity_regularizer": null, "bias_initializer": {"class_name": "Zeros", "config": {}}, "kernel_size": [3, 3], "bias_constraint": null, "trainable": false, "data_format": "channels_last", "dilation_rate": [1, 1], "depthwise_constraint": null, "activation": "linear", "strides": [2, 2], "depthwise_initializer": {"class_name": "VarianceScaling", "config": {"mode": "fan_avg", "distribution": "uniform", "scale": 1.0, "seed": null}}, "depth_multiplier": 1, "padding": "valid", "bias_regularizer": null, "depthwise_regularizer": null}}, {"name": "block_1_depthwise_BN", "class_name": "BatchNormalization", "inbound_nodes": [[["block_1_depthwise", 0, 0, {}]]], "config": {"axis": -1, "name": "block_1_depthwise_BN", "gamma_regularizer": null, "beta_regularizer": null, "trainable": false, "center": true, "moving_mean_initializer": {"class_name": "Zeros", "config": {}}, "moving_variance_initializer": {"class_name": "Ones", "config": {}}, "beta_constraint": null, "momentum": 0.999, "gamma_initializer": {"class_name": "Ones", "config": {}}, "gamma_constraint": null, "epsilon": 0.001, "scale": true, "beta_initializer": {"class_name": "Zeros", "config": {}}}}, {"name": "block_1_depthwise_relu", "class_name": "ReLU", "inbound_nodes": [[["block_1_depthwise_BN", 0, 0, {}]]], "config": {"trainable": false, "max_value": 6.0, "name": "block_1_depthwise_relu", "threshold": 0.0, "negative_slope": 0.0}}, {"name": "block_1_project", "class_name": "Conv2D", "inbound_nodes": [[["block_1_depthwise_relu", 0, 0, {}]]], "config": {"use_bias": false, "name": "block_1_project", "filters": 24, "bias_initializer": {"class_name": "Zeros", "config": {}}, "kernel_constraint": null, "kernel_size": [1, 1], "bias_constraint": null, "trainable": false, "data_format": "channels_last", "kernel_initializer": {"class_name": "VarianceScaling", "config": {"mode": "fan_avg", "distribution": "uniform", "scale": 1.0, "seed": null}}, "activation": "linear", "strides": [1, 1], "kernel_regularizer": null, "dilation_rate": [1, 1], "padding": "same", "bias_regularizer": null, "activity_regularizer": null}}, {"name": "block_1_project_BN", "class_name": "BatchNormalization", "inbound_nodes": [[["block_1_project", 0, 0, {}]]], "config": {"axis": -1, "name": "block_1_project_BN", "gamma_regularizer": null, "beta_regularizer": null, "trainable": false, "center": true, "moving_mean_initializer": {"class_name": "Zeros", "config": {}}, "moving_variance_initializer": {"class_name": "Ones", "config": {}}, "beta_constraint": null, "momentum": 0.999, "gamma_initializer": {"class_name": "Ones", "config": {}}, "gamma_constraint": null, "epsilon": 0.001, "scale": true, "beta_initializer": {"class_name": "Zeros", "config": {}}}}, {"name": "block_2_expand", "class_name": "Conv2D", "inbound_nodes": [[["block_1_project_BN", 0, 0, {}]]], "config": {"use_bias": false, "name": "block_2_expand", "filters": 144, "bias_initializer": {"class_name": "Zeros", "config": {}}, "kernel_constraint": null, "kernel_size": [1, 1], "bias_constraint": null, "trainable": false, "data_format": "channels_last", "kernel_initializer": {"class_name": "VarianceScaling", "config": {"mode": "fan_avg", "distribution": "uniform", "scale": 1.0, "seed": null}}, "activation": "linear", "strides": [1, 1], "kernel_regularizer": null, "dilation_rate": [1, 1], "padding": "same", "bias_regularizer": null, "activity_regularizer": null}}, {"name": "block_2_expand_BN", "class_name": "BatchNormalization", "inbound_nodes": [[["block_2_expand", 0, 0, {}]]], "config": {"axis": -1, "name": "block_2_expand_BN", "gamma_regularizer": null, "beta_regularizer": null, "trainable": false, "center": true, "moving_mean_initializer": {"class_name": "Zeros", "config": {}}, "moving_variance_initializer": {"class_name": "Ones", "config": {}}, "beta_constraint": null, "momentum": 0.999, "gamma_initializer": {"class_name": "Ones", "config": {}}, "gamma_constraint": null, "epsilon": 0.001, "scale": true, "beta_initializer": {"class_name": "Zeros", "config": {}}}}, {"name": "block_2_expand_relu", "class_name": "ReLU", "inbound_nodes": [[["block_2_expand_BN", 0, 0, {}]]], "config": {"trainable": false, "max_value": 6.0, "name": "block_2_expand_relu", "threshold": 0.0, "negative_slope": 0.0}}, {"name": "block_2_depthwise", "class_name": "DepthwiseConv2D", "inbound_nodes": [[["block_2_expand_relu", 0, 0, {}]]], "config": {"use_bias": false, "name": "block_2_depthwise", "activity_regularizer": null, "bias_initializer": {"class_name": "Zeros", "config": {}}, "kernel_size": [3, 3], "bias_constraint": null, "trainable": false, "data_format": "channels_last", "dilation_rate": [1, 1], "depthwise_constraint": null, "activation": "linear", "strides": [1, 1], "depthwise_initializer": {"class_name": "VarianceScaling", "config": {"mode": "fan_avg", "distribution": "uniform", "scale": 1.0, "seed": null}}, "depth_multiplier": 1, "padding": "same", "bias_regularizer": null, "depthwise_regularizer": null}}, {"name": "block_2_depthwise_BN", "class_name": "BatchNormalization", "inbound_nodes": [[["block_2_depthwise", 0, 0, {}]]], "config": {"axis": -1, "name": "block_2_depthwise_BN", "gamma_regularizer": null, "beta_regularizer": null, "trainable": false, "center": true, "moving_mean_initializer": {"class_name": "Zeros", "config": {}}, "moving_variance_initializer": {"class_name": "Ones", "config": {}}, "beta_constraint": null, "momentum": 0.999, "gamma_initializer": {"class_name": "Ones", "config": {}}, "gamma_constraint": null, "epsilon": 0.001, "scale": true, "beta_initializer": {"class_name": "Zeros", "config": {}}}}, {"name": "block_2_depthwise_relu", "class_name": "ReLU", "inbound_nodes": [[["block_2_depthwise_BN", 0, 0, {}]]], "config": {"trainable": false, "max_value": 6.0, "name": "block_2_depthwise_relu", "threshold": 0.0, "negative_slope": 0.0}}, {"name": "block_2_project", "class_name": "Conv2D", "inbound_nodes": [[["block_2_depthwise_relu", 0, 0, {}]]], "config": {"use_bias": false, "name": "block_2_project", "filters": 24, "bias_initializer": {"class_name": "Zeros", "config": {}}, "kernel_constraint": null, "kernel_size": [1, 1], "bias_constraint": null, "trainable": false, "data_format": "channels_last", "kernel_initializer": {"class_name": "VarianceScaling", "config": {"mode": "fan_avg", "distribution": "uniform", "scale": 1.0, "seed": null}}, "activation": "linear", "strides": [1, 1], "kernel_regularizer": null, "dilation_rate": [1, 1], "padding": "same", "bias_regularizer": null, "activity_regularizer": null}}, {"name": "block_2_project_BN", "class_name": "BatchNormalization", "inbound_nodes": [[["block_2_project", 0, 0, {}]]], "config": {"axis": -1, "name": "block_2_project_BN", "gamma_regularizer": null, "beta_regularizer": null, "trainable": false, "center": true, "moving_mean_initializer": {"class_name": "Zeros", "config": {}}, "moving_variance_initializer": {"class_name": "Ones", "config": {}}, "beta_constraint": null, "momentum": 0.999, "gamma_initializer": {"class_name": "Ones", "config": {}}, "gamma_constraint": null, "epsilon": 0.001, "scale": true, "beta_initializer": {"class_name": "Zeros", "config": {}}}}, {"name": "block_2_add", "class_name": "Add", "inbound_nodes": [[["block_1_project_BN", 0, 0, {}], ["block_2_project_BN", 0, 0, {}]]], "config": {"trainable": false, "name": "block_2_add"}}, {"name": "block_3_expand", "class_name": "Conv2D", "inbound_nodes": [[["block_2_add", 0, 0, {}]]], "config": {"use_bias": false, "name": "block_3_expand", "filters": 144, "bias_initializer": {"class_name": "Zeros", "config": {}}, "kernel_constraint": null, "kernel_size": [1, 1], "bias_constraint": null, "trainable": false, "data_format": "channels_last", "kernel_initializer": {"class_name": "VarianceScaling", "config": {"mode": "fan_avg", "distribution": "uniform", "scale": 1.0, "seed": null}}, "activation": "linear", "strides": [1, 1], "kernel_regularizer": null, "dilation_rate": [1, 1], "padding": "same", "bias_regularizer": null, "activity_regularizer": null}}, {"name": "block_3_expand_BN", "class_name": "BatchNormalization", "inbound_nodes": [[["block_3_expand", 0, 0, {}]]], "config": {"axis": -1, "name": "block_3_expand_BN", "gamma_regularizer": null, "beta_regularizer": null, "trainable": false, "center": true, "moving_mean_initializer": {"class_name": "Zeros", "config": {}}, "moving_variance_initializer": {"class_name": "Ones", "config": {}}, "beta_constraint": null, "momentum": 0.999, "gamma_initializer": {"class_name": "Ones", "config": {}}, "gamma_constraint": null, "epsilon": 0.001, "scale": true, "beta_initializer": {"class_name": "Zeros", "config": {}}}}, {"name": "block_3_expand_relu", "class_name": "ReLU", "inbound_nodes": [[["block_3_expand_BN", 0, 0, {}]]], "config": {"trainable": false, "max_value": 6.0, "name": "block_3_expand_relu", "threshold": 0.0, "negative_slope": 0.0}}, {"name": "block_3_pad", "class_name": "ZeroPadding2D", "inbound_nodes": [[["block_3_expand_relu", 0, 0, {}]]], "config": {"trainable": false, "padding": [[0, 1], [0, 1]], "name": "block_3_pad", "data_format": "channels_last"}}, {"name": "block_3_depthwise", "class_name": "DepthwiseConv2D", "inbound_nodes": [[["block_3_pad", 0, 0, {}]]], "config": {"use_bias": false, "name": "block_3_depthwise", "activity_regularizer": null, "bias_initializer": {"class_name": "Zeros", "config": {}}, "kernel_size": [3, 3], "bias_constraint": null, "trainable": false, "data_format": "channels_last", "dilation_rate": [1, 1], "depthwise_constraint": null, "activation": "linear", "strides": [2, 2], "depthwise_initializer": {"class_name": "VarianceScaling", "config": {"mode": "fan_avg", "distribution": "uniform", "scale": 1.0, "seed": null}}, "depth_multiplier": 1, "padding": "valid", "bias_regularizer": null, "depthwise_regularizer": null}}, {"name": "block_3_depthwise_BN", "class_name": "BatchNormalization", "inbound_nodes": [[["block_3_depthwise", 0, 0, {}]]], "config": {"axis": -1, "name": "block_3_depthwise_BN", "gamma_regularizer": null, "beta_regularizer": null, "trainable": false, "center": true, "moving_mean_initializer": {"class_name": "Zeros", "config": {}}, "moving_variance_initializer": {"class_name": "Ones", "config": {}}, "beta_constraint": null, "momentum": 0.999, "gamma_initializer": {"class_name": "Ones", "config": {}}, "gamma_constraint": null, "epsilon": 0.001, "scale": true, "beta_initializer": {"class_name": "Zeros", "config": {}}}}, {"name": "block_3_depthwise_relu", "class_name": "ReLU", "inbound_nodes": [[["block_3_depthwise_BN", 0, 0, {}]]], "config": {"trainable": false, "max_value": 6.0, "name": "block_3_depthwise_relu", "threshold": 0.0, "negative_slope": 0.0}}, {"name": "block_3_project", "class_name": "Conv2D", "inbound_nodes": [[["block_3_depthwise_relu", 0, 0, {}]]], "config": {"use_bias": false, "name": "block_3_project", "filters": 32, "bias_initializer": {"class_name": "Zeros", "config": {}}, "kernel_constraint": null, "kernel_size": [1, 1], "bias_constraint": null, "trainable": false, "data_format": "channels_last", "kernel_initializer": {"class_name": "VarianceScaling", "config": {"mode": "fan_avg", "distribution": "uniform", "scale": 1.0, "seed": null}}, "activation": "linear", "strides": [1, 1], "kernel_regularizer": null, "dilation_rate": [1, 1], "padding": "same", "bias_regularizer": null, "activity_regularizer": null}}, {"name": "block_3_project_BN", "class_name": "BatchNormalization", "inbound_nodes": [[["block_3_project", 0, 0, {}]]], "config": {"axis": -1, "name": "block_3_project_BN", "gamma_regularizer": null, "beta_regularizer": null, "trainable": false, "center": true, "moving_mean_initializer": {"class_name": "Zeros", "config": {}}, "moving_variance_initializer": {"class_name": "Ones", "config": {}}, "beta_constraint": null, "momentum": 0.999, "gamma_initializer": {"class_name": "Ones", "config": {}}, "gamma_constraint": null, "epsilon": 0.001, "scale": true, "beta_initializer": {"class_name": "Zeros", "config": {}}}}, {"name": "block_4_expand", "class_name": "Conv2D", "inbound_nodes": [[["block_3_project_BN", 0, 0, {}]]], "config": {"use_bias": false, "name": "block_4_expand", "filters": 192, "bias_initializer": {"class_name": "Zeros", "config": {}}, "kernel_constraint": null, "kernel_size": [1, 1], "bias_constraint": null, "trainable": false, "data_format": "channels_last", "kernel_initializer": {"class_name": "VarianceScaling", "config": {"mode": "fan_avg", "distribution": "uniform", "scale": 1.0, "seed": null}}, "activation": "linear", "strides": [1, 1], "kernel_regularizer": null, "dilation_rate": [1, 1], "padding": "same", "bias_regularizer": null, "activity_regularizer": null}}, {"name": "block_4_expand_BN", "class_name": "BatchNormalization", "inbound_nodes": [[["block_4_expand", 0, 0, {}]]], "config": {"axis": -1, "name": "block_4_expand_BN", "gamma_regularizer": null, "beta_regularizer": null, "trainable": false, "center": true, "moving_mean_initializer": {"class_name": "Zeros", "config": {}}, "moving_variance_initializer": {"class_name": "Ones", "config": {}}, "beta_constraint": null, "momentum": 0.999, "gamma_initializer": {"class_name": "Ones", "config": {}}, "gamma_constraint": null, "epsilon": 0.001, "scale": true, "beta_initializer": {"class_name": "Zeros", "config": {}}}}, {"name": "block_4_expand_relu", "class_name": "ReLU", "inbound_nodes": [[["block_4_expand_BN", 0, 0, {}]]], "config": {"trainable": false, "max_value": 6.0, "name": "block_4_expand_relu", "threshold": 0.0, "negative_slope": 0.0}}, {"name": "block_4_depthwise", "class_name": "DepthwiseConv2D", "inbound_nodes": [[["block_4_expand_relu", 0, 0, {}]]], "config": {"use_bias": false, "name": "block_4_depthwise", "activity_regularizer": null, "bias_initializer": {"class_name": "Zeros", "config": {}}, "kernel_size": [3, 3], "bias_constraint": null, "trainable": false, "data_format": "channels_last", "dilation_rate": [1, 1], "depthwise_constraint": null, "activation": "linear", "strides": [1, 1], "depthwise_initializer": {"class_name": "VarianceScaling", "config": {"mode": "fan_avg", "distribution": "uniform", "scale": 1.0, "seed": null}}, "depth_multiplier": 1, "padding": "same", "bias_regularizer": null, "depthwise_regularizer": null}}, {"name": "block_4_depthwise_BN", "class_name": "BatchNormalization", "inbound_nodes": [[["block_4_depthwise", 0, 0, {}]]], "config": {"axis": -1, "name": "block_4_depthwise_BN", "gamma_regularizer": null, "beta_regularizer": null, "trainable": false, "center": true, "moving_mean_initializer": {"class_name": "Zeros", "config": {}}, "moving_variance_initializer": {"class_name": "Ones", "config": {}}, "beta_constraint": null, "momentum": 0.999, "gamma_initializer": {"class_name": "Ones", "config": {}}, "gamma_constraint": null, "epsilon": 0.001, "scale": true, "beta_initializer": {"class_name": "Zeros", "config": {}}}}, {"name": "block_4_depthwise_relu", "class_name": "ReLU", "inbound_nodes": [[["block_4_depthwise_BN", 0, 0, {}]]], "config": {"trainable": false, "max_value": 6.0, "name": "block_4_depthwise_relu", "threshold": 0.0, "negative_slope": 0.0}}, {"name": "block_4_project", "class_name": "Conv2D", "inbound_nodes": [[["block_4_depthwise_relu", 0, 0, {}]]], "config": {"use_bias": false, "name": "block_4_project", "filters": 32, "bias_initializer": {"class_name": "Zeros", "config": {}}, "kernel_constraint": null, "kernel_size": [1, 1], "bias_constraint": null, "trainable": false, "data_format": "channels_last", "kernel_initializer": {"class_name": "VarianceScaling", "config": {"mode": "fan_avg", "distribution": "uniform", "scale": 1.0, "seed": null}}, "activation": "linear", "strides": [1, 1], "kernel_regularizer": null, "dilation_rate": [1, 1], "padding": "same", "bias_regularizer": null, "activity_regularizer": null}}, {"name": "block_4_project_BN", "class_name": "BatchNormalization", "inbound_nodes": [[["block_4_project", 0, 0, {}]]], "config": {"axis": -1, "name": "block_4_project_BN", "gamma_regularizer": null, "beta_regularizer": null, "trainable": false, "center": true, "moving_mean_initializer": {"class_name": "Zeros", "config": {}}, "moving_variance_initializer": {"class_name": "Ones", "config": {}}, "beta_constraint": null, "momentum": 0.999, "gamma_initializer": {"class_name": "Ones", "config": {}}, "gamma_constraint": null, "epsilon": 0.001, "scale": true, "beta_initializer": {"class_name": "Zeros", "config": {}}}}, {"name": "block_4_add", "class_name": "Add", "inbound_nodes": [[["block_3_project_BN", 0, 0, {}], ["block_4_project_BN", 0, 0, {}]]], "config": {"trainable": false, "name": "block_4_add"}}, {"name": "block_5_expand", "class_name": "Conv2D", "inbound_nodes": [[["block_4_add", 0, 0, {}]]], "config": {"use_bias": false, "name": "block_5_expand", "filters": 192, "bias_initializer": {"class_name": "Zeros", "config": {}}, "kernel_constraint": null, "kernel_size": [1, 1], "bias_constraint": null, "trainable": false, "data_format": "channels_last", "kernel_initializer": {"class_name": "VarianceScaling", "config": {"mode": "fan_avg", "distribution": "uniform", "scale": 1.0, "seed": null}}, "activation": "linear", "strides": [1, 1], "kernel_regularizer": null, "dilation_rate": [1, 1], "padding": "same", "bias_regularizer": null, "activity_regularizer": null}}, {"name": "block_5_expand_BN", "class_name": "BatchNormalization", "inbound_nodes": [[["block_5_expand", 0, 0, {}]]], "config": {"axis": -1, "name": "block_5_expand_BN", "gamma_regularizer": null, "beta_regularizer": null, "trainable": false, "center": true, "moving_mean_initializer": {"class_name": "Zeros", "config": {}}, "moving_variance_initializer": {"class_name": "Ones", "config": {}}, "beta_constraint": null, "momentum": 0.999, "gamma_initializer": {"class_name": "Ones", "config": {}}, "gamma_constraint": null, "epsilon": 0.001, "scale": true, "beta_initializer": {"class_name": "Zeros", "config": {}}}}, {"name": "block_5_expand_relu", "class_name": "ReLU", "inbound_nodes": [[["block_5_expand_BN", 0, 0, {}]]], "config": {"trainable": false, "max_value": 6.0, "name": "block_5_expand_relu", "threshold": 0.0, "negative_slope": 0.0}}, {"name": "block_5_depthwise", "class_name": "DepthwiseConv2D", "inbound_nodes": [[["block_5_expand_relu", 0, 0, {}]]], "config": {"use_bias": false, "name": "block_5_depthwise", "activity_regularizer": null, "bias_initializer": {"class_name": "Zeros", "config": {}}, "kernel_size": [3, 3], "bias_constraint": null, "trainable": false, "data_format": "channels_last", "dilation_rate": [1, 1], "depthwise_constraint": null, "activation": "linear", "strides": [1, 1], "depthwise_initializer": {"class_name": "VarianceScaling", "config": {"mode": "fan_avg", "distribution": "uniform", "scale": 1.0, "seed": null}}, "depth_multiplier": 1, "padding": "same", "bias_regularizer": null, "depthwise_regularizer": null}}, {"name": "block_5_depthwise_BN", "class_name": "BatchNormalization", "inbound_nodes": [[["block_5_depthwise", 0, 0, {}]]], "config": {"axis": -1, "name": "block_5_depthwise_BN", "gamma_regularizer": null, "beta_regularizer": null, "trainable": false, "center": true, "moving_mean_initializer": {"class_name": "Zeros", "config": {}}, "moving_variance_initializer": {"class_name": "Ones", "config": {}}, "beta_constraint": null, "momentum": 0.999, "gamma_initializer": {"class_name": "Ones", "config": {}}, "gamma_constraint": null, "epsilon": 0.001, "scale": true, "beta_initializer": {"class_name": "Zeros", "config": {}}}}, {"name": "block_5_depthwise_relu", "class_name": "ReLU", "inbound_nodes": [[["block_5_depthwise_BN", 0, 0, {}]]], "config": {"trainable": false, "max_value": 6.0, "name": "block_5_depthwise_relu", "threshold": 0.0, "negative_slope": 0.0}}, {"name": "block_5_project", "class_name": "Conv2D", "inbound_nodes": [[["block_5_depthwise_relu", 0, 0, {}]]], "config": {"use_bias": false, "name": "block_5_project", "filters": 32, "bias_initializer": {"class_name": "Zeros", "config": {}}, "kernel_constraint": null, "kernel_size": [1, 1], "bias_constraint": null, "trainable": false, "data_format": "channels_last", "kernel_initializer": {"class_name": "VarianceScaling", "config": {"mode": "fan_avg", "distribution": "uniform", "scale": 1.0, "seed": null}}, "activation": "linear", "strides": [1, 1], "kernel_regularizer": null, "dilation_rate": [1, 1], "padding": "same", "bias_regularizer": null, "activity_regularizer": null}}, {"name": "block_5_project_BN", "class_name": "BatchNormalization", "inbound_nodes": [[["block_5_project", 0, 0, {}]]], "config": {"axis": -1, "name": "block_5_project_BN", "gamma_regularizer": null, "beta_regularizer": null, "trainable": false, "center": true, "moving_mean_initializer": {"class_name": "Zeros", "config": {}}, "moving_variance_initializer": {"class_name": "Ones", "config": {}}, "beta_constraint": null, "momentum": 0.999, "gamma_initializer": {"class_name": "Ones", "config": {}}, "gamma_constraint": null, "epsilon": 0.001, "scale": true, "beta_initializer": {"class_name": "Zeros", "config": {}}}}, {"name": "block_5_add", "class_name": "Add", "inbound_nodes": [[["block_4_add", 0, 0, {}], ["block_5_project_BN", 0, 0, {}]]], "config": {"trainable": false, "name": "block_5_add"}}, {"name": "block_6_expand", "class_name": "Conv2D", "inbound_nodes": [[["block_5_add", 0, 0, {}]]], "config": {"use_bias": false, "name": "block_6_expand", "filters": 192, "bias_initializer": {"class_name": "Zeros", "config": {}}, "kernel_constraint": null, "kernel_size": [1, 1], "bias_constraint": null, "trainable": false, "data_format": "channels_last", "kernel_initializer": {"class_name": "VarianceScaling", "config": {"mode": "fan_avg", "distribution": "uniform", "scale": 1.0, "seed": null}}, "activation": "linear", "strides": [1, 1], "kernel_regularizer": null, "dilation_rate": [1, 1], "padding": "same", "bias_regularizer": null, "activity_regularizer": null}}, {"name": "block_6_expand_BN", "class_name": "BatchNormalization", "inbound_nodes": [[["block_6_expand", 0, 0, {}]]], "config": {"axis": -1, "name": "block_6_expand_BN", "gamma_regularizer": null, "beta_regularizer": null, "trainable": false, "center": true, "moving_mean_initializer": {"class_name": "Zeros", "config": {}}, "moving_variance_initializer": {"class_name": "Ones", "config": {}}, "beta_constraint": null, "momentum": 0.999, "gamma_initializer": {"class_name": "Ones", "config": {}}, "gamma_constraint": null, "epsilon": 0.001, "scale": true, "beta_initializer": {"class_name": "Zeros", "config": {}}}}, {"name": "block_6_expand_relu", "class_name": "ReLU", "inbound_nodes": [[["block_6_expand_BN", 0, 0, {}]]], "config": {"trainable": false, "max_value": 6.0, "name": "block_6_expand_relu", "threshold": 0.0, "negative_slope": 0.0}}, {"name": "block_6_pad", "class_name": "ZeroPadding2D", "inbound_nodes": [[["block_6_expand_relu", 0, 0, {}]]], "config": {"trainable": false, "padding": [[0, 1], [0, 1]], "name": "block_6_pad", "data_format": "channels_last"}}, {"name": "block_6_depthwise", "class_name": "DepthwiseConv2D", "inbound_nodes": [[["block_6_pad", 0, 0, {}]]], "config": {"use_bias": false, "name": "block_6_depthwise", "activity_regularizer": null, "bias_initializer": {"class_name": "Zeros", "config": {}}, "kernel_size": [3, 3], "bias_constraint": null, "trainable": false, "data_format": "channels_last", "dilation_rate": [1, 1], "depthwise_constraint": null, "activation": "linear", "strides": [2, 2], "depthwise_initializer": {"class_name": "VarianceScaling", "config": {"mode": "fan_avg", "distribution": "uniform", "scale": 1.0, "seed": null}}, "depth_multiplier": 1, "padding": "valid", "bias_regularizer": null, "depthwise_regularizer": null}}, {"name": "block_6_depthwise_BN", "class_name": "BatchNormalization", "inbound_nodes": [[["block_6_depthwise", 0, 0, {}]]], "config": {"axis": -1, "name": "block_6_depthwise_BN", "gamma_regularizer": null, "beta_regularizer": null, "trainable": false, "center": true, "moving_mean_initializer": {"class_name": "Zeros", "config": {}}, "moving_variance_initializer": {"class_name": "Ones", "config": {}}, "beta_constraint": null, "momentum": 0.999, "gamma_initializer": {"class_name": "Ones", "config": {}}, "gamma_constraint": null, "epsilon": 0.001, "scale": true, "beta_initializer": {"class_name": "Zeros", "config": {}}}}, {"name": "block_6_depthwise_relu", "class_name": "ReLU", "inbound_nodes": [[["block_6_depthwise_BN", 0, 0, {}]]], "config": {"trainable": false, "max_value": 6.0, "name": "block_6_depthwise_relu", "threshold": 0.0, "negative_slope": 0.0}}, {"name": "block_6_project", "class_name": "Conv2D", "inbound_nodes": [[["block_6_depthwise_relu", 0, 0, {}]]], "config": {"use_bias": false, "name": "block_6_project", "filters": 64, "bias_initializer": {"class_name": "Zeros", "config": {}}, "kernel_constraint": null, "kernel_size": [1, 1], "bias_constraint": null, "trainable": false, "data_format": "channels_last", "kernel_initializer": {"class_name": "VarianceScaling", "config": {"mode": "fan_avg", "distribution": "uniform", "scale": 1.0, "seed": null}}, "activation": "linear", "strides": [1, 1], "kernel_regularizer": null, "dilation_rate": [1, 1], "padding": "same", "bias_regularizer": null, "activity_regularizer": null}}, {"name": "block_6_project_BN", "class_name": "BatchNormalization", "inbound_nodes": [[["block_6_project", 0, 0, {}]]], "config": {"axis": -1, "name": "block_6_project_BN", "gamma_regularizer": null, "beta_regularizer": null, "trainable": false, "center": true, "moving_mean_initializer": {"class_name": "Zeros", "config": {}}, "moving_variance_initializer": {"class_name": "Ones", "config": {}}, "beta_constraint": null, "momentum": 0.999, "gamma_initializer": {"class_name": "Ones", "config": {}}, "gamma_constraint": null, "epsilon": 0.001, "scale": true, "beta_initializer": {"class_name": "Zeros", "config": {}}}}, {"name": "block_7_expand", "class_name": "Conv2D", "inbound_nodes": [[["block_6_project_BN", 0, 0, {}]]], "config": {"use_bias": false, "name": "block_7_expand", "filters": 384, "bias_initializer": {"class_name": "Zeros", "config": {}}, "kernel_constraint": null, "kernel_size": [1, 1], "bias_constraint": null, "trainable": false, "data_format": "channels_last", "kernel_initializer": {"class_name": "VarianceScaling", "config": {"mode": "fan_avg", "distribution": "uniform", "scale": 1.0, "seed": null}}, "activation": "linear", "strides": [1, 1], "kernel_regularizer": null, "dilation_rate": [1, 1], "padding": "same", "bias_regularizer": null, "activity_regularizer": null}}, {"name": "block_7_expand_BN", "class_name": "BatchNormalization", "inbound_nodes": [[["block_7_expand", 0, 0, {}]]], "config": {"axis": -1, "name": "block_7_expand_BN", "gamma_regularizer": null, "beta_regularizer": null, "trainable": false, "center": true, "moving_mean_initializer": {"class_name": "Zeros", "config": {}}, "moving_variance_initializer": {"class_name": "Ones", "config": {}}, "beta_constraint": null, "momentum": 0.999, "gamma_initializer": {"class_name": "Ones", "config": {}}, "gamma_constraint": null, "epsilon": 0.001, "scale": true, "beta_initializer": {"class_name": "Zeros", "config": {}}}}, {"name": "block_7_expand_relu", "class_name": "ReLU", "inbound_nodes": [[["block_7_expand_BN", 0, 0, {}]]], "config": {"trainable": false, "max_value": 6.0, "name": "block_7_expand_relu", "threshold": 0.0, "negative_slope": 0.0}}, {"name": "block_7_depthwise", "class_name": "DepthwiseConv2D", "inbound_nodes": [[["block_7_expand_relu", 0, 0, {}]]], "config": {"use_bias": false, "name": "block_7_depthwise", "activity_regularizer": null, "bias_initializer": {"class_name": "Zeros", "config": {}}, "kernel_size": [3, 3], "bias_constraint": null, "trainable": false, "data_format": "channels_last", "dilation_rate": [1, 1], "depthwise_constraint": null, "activation": "linear", "strides": [1, 1], "depthwise_initializer": {"class_name": "VarianceScaling", "config": {"mode": "fan_avg", "distribution": "uniform", "scale": 1.0, "seed": null}}, "depth_multiplier": 1, "padding": "same", "bias_regularizer": null, "depthwise_regularizer": null}}, {"name": "block_7_depthwise_BN", "class_name": "BatchNormalization", "inbound_nodes": [[["block_7_depthwise", 0, 0, {}]]], "config": {"axis": -1, "name": "block_7_depthwise_BN", "gamma_regularizer": null, "beta_regularizer": null, "trainable": false, "center": true, "moving_mean_initializer": {"class_name": "Zeros", "config": {}}, "moving_variance_initializer": {"class_name": "Ones", "config": {}}, "beta_constraint": null, "momentum": 0.999, "gamma_initializer": {"class_name": "Ones", "config": {}}, "gamma_constraint": null, "epsilon": 0.001, "scale": true, "beta_initializer": {"class_name": "Zeros", "config": {}}}}, {"name": "block_7_depthwise_relu", "class_name": "ReLU", "inbound_nodes": [[["block_7_depthwise_BN", 0, 0, {}]]], "config": {"trainable": false, "max_value": 6.0, "name": "block_7_depthwise_relu", "threshold": 0.0, "negative_slope": 0.0}}, {"name": "block_7_project", "class_name": "Conv2D", "inbound_nodes": [[["block_7_depthwise_relu", 0, 0, {}]]], "config": {"use_bias": false, "name": "block_7_project", "filters": 64, "bias_initializer": {"class_name": "Zeros", "config": {}}, "kernel_constraint": null, "kernel_size": [1, 1], "bias_constraint": null, "trainable": false, "data_format": "channels_last", "kernel_initializer": {"class_name": "VarianceScaling", "config": {"mode": "fan_avg", "distribution": "uniform", "scale": 1.0, "seed": null}}, "activation": "linear", "strides": [1, 1], "kernel_regularizer": null, "dilation_rate": [1, 1], "padding": "same", "bias_regularizer": null, "activity_regularizer": null}}, {"name": "block_7_project_BN", "class_name": "BatchNormalization", "inbound_nodes": [[["block_7_project", 0, 0, {}]]], "config": {"axis": -1, "name": "block_7_project_BN", "gamma_regularizer": null, "beta_regularizer": null, "trainable": false, "center": true, "moving_mean_initializer": {"class_name": "Zeros", "config": {}}, "moving_variance_initializer": {"class_name": "Ones", "config": {}}, "beta_constraint": null, "momentum": 0.999, "gamma_initializer": {"class_name": "Ones", "config": {}}, "gamma_constraint": null, "epsilon": 0.001, "scale": true, "beta_initializer": {"class_name": "Zeros", "config": {}}}}, {"name": "block_7_add", "class_name": "Add", "inbound_nodes": [[["block_6_project_BN", 0, 0, {}], ["block_7_project_BN", 0, 0, {}]]], "config": {"trainable": false, "name": "block_7_add"}}, {"name": "block_8_expand", "class_name": "Conv2D", "inbound_nodes": [[["block_7_add", 0, 0, {}]]], "config": {"use_bias": false, "name": "block_8_expand", "filters": 384, "bias_initializer": {"class_name": "Zeros", "config": {}}, "kernel_constraint": null, "kernel_size": [1, 1], "bias_constraint": null, "trainable": false, "data_format": "channels_last", "kernel_initializer": {"class_name": "VarianceScaling", "config": {"mode": "fan_avg", "distribution": "uniform", "scale": 1.0, "seed": null}}, "activation": "linear", "strides": [1, 1], "kernel_regularizer": null, "dilation_rate": [1, 1], "padding": "same", "bias_regularizer": null, "activity_regularizer": null}}, {"name": "block_8_expand_BN", "class_name": "BatchNormalization", "inbound_nodes": [[["block_8_expand", 0, 0, {}]]], "config": {"axis": -1, "name": "block_8_expand_BN", "gamma_regularizer": null, "beta_regularizer": null, "trainable": false, "center": true, "moving_mean_initializer": {"class_name": "Zeros", "config": {}}, "moving_variance_initializer": {"class_name": "Ones", "config": {}}, "beta_constraint": null, "momentum": 0.999, "gamma_initializer": {"class_name": "Ones", "config": {}}, "gamma_constraint": null, "epsilon": 0.001, "scale": true, "beta_initializer": {"class_name": "Zeros", "config": {}}}}, {"name": "block_8_expand_relu", "class_name": "ReLU", "inbound_nodes": [[["block_8_expand_BN", 0, 0, {}]]], "config": {"trainable": false, "max_value": 6.0, "name": "block_8_expand_relu", "threshold": 0.0, "negative_slope": 0.0}}, {"name": "block_8_depthwise", "class_name": "DepthwiseConv2D", "inbound_nodes": [[["block_8_expand_relu", 0, 0, {}]]], "config": {"use_bias": false, "name": "block_8_depthwise", "activity_regularizer": null, "bias_initializer": {"class_name": "Zeros", "config": {}}, "kernel_size": [3, 3], "bias_constraint": null, "trainable": false, "data_format": "channels_last", "dilation_rate": [1, 1], "depthwise_constraint": null, "activation": "linear", "strides": [1, 1], "depthwise_initializer": {"class_name": "VarianceScaling", "config": {"mode": "fan_avg", "distribution": "uniform", "scale": 1.0, "seed": null}}, "depth_multiplier": 1, "padding": "same", "bias_regularizer": null, "depthwise_regularizer": null}}, {"name": "block_8_depthwise_BN", "class_name": "BatchNormalization", "inbound_nodes": [[["block_8_depthwise", 0, 0, {}]]], "config": {"axis": -1, "name": "block_8_depthwise_BN", "gamma_regularizer": null, "beta_regularizer": null, "trainable": false, "center": true, "moving_mean_initializer": {"class_name": "Zeros", "config": {}}, "moving_variance_initializer": {"class_name": "Ones", "config": {}}, "beta_constraint": null, "momentum": 0.999, "gamma_initializer": {"class_name": "Ones", "config": {}}, "gamma_constraint": null, "epsilon": 0.001, "scale": true, "beta_initializer": {"class_name": "Zeros", "config": {}}}}, {"name": "block_8_depthwise_relu", "class_name": "ReLU", "inbound_nodes": [[["block_8_depthwise_BN", 0, 0, {}]]], "config": {"trainable": false, "max_value": 6.0, "name": "block_8_depthwise_relu", "threshold": 0.0, "negative_slope": 0.0}}, {"name": "block_8_project", "class_name": "Conv2D", "inbound_nodes": [[["block_8_depthwise_relu", 0, 0, {}]]], "config": {"use_bias": false, "name": "block_8_project", "filters": 64, "bias_initializer": {"class_name": "Zeros", "config": {}}, "kernel_constraint": null, "kernel_size": [1, 1], "bias_constraint": null, "trainable": false, "data_format": "channels_last", "kernel_initializer": {"class_name": "VarianceScaling", "config": {"mode": "fan_avg", "distribution": "uniform", "scale": 1.0, "seed": null}}, "activation": "linear", "strides": [1, 1], "kernel_regularizer": null, "dilation_rate": [1, 1], "padding": "same", "bias_regularizer": null, "activity_regularizer": null}}, {"name": "block_8_project_BN", "class_name": "BatchNormalization", "inbound_nodes": [[["block_8_project", 0, 0, {}]]], "config": {"axis": -1, "name": "block_8_project_BN", "gamma_regularizer": null, "beta_regularizer": null, "trainable": false, "center": true, "moving_mean_initializer": {"class_name": "Zeros", "config": {}}, "moving_variance_initializer": {"class_name": "Ones", "config": {}}, "beta_constraint": null, "momentum": 0.999, "gamma_initializer": {"class_name": "Ones", "config": {}}, "gamma_constraint": null, "epsilon": 0.001, "scale": true, "beta_initializer": {"class_name": "Zeros", "config": {}}}}, {"name": "block_8_add", "class_name": "Add", "inbound_nodes": [[["block_7_add", 0, 0, {}], ["block_8_project_BN", 0, 0, {}]]], "config": {"trainable": false, "name": "block_8_add"}}, {"name": "block_9_expand", "class_name": "Conv2D", "inbound_nodes": [[["block_8_add", 0, 0, {}]]], "config": {"use_bias": false, "name": "block_9_expand", "filters": 384, "bias_initializer": {"class_name": "Zeros", "config": {}}, "kernel_constraint": null, "kernel_size": [1, 1], "bias_constraint": null, "trainable": false, "data_format": "channels_last", "kernel_initializer": {"class_name": "VarianceScaling", "config": {"mode": "fan_avg", "distribution": "uniform", "scale": 1.0, "seed": null}}, "activation": "linear", "strides": [1, 1], "kernel_regularizer": null, "dilation_rate": [1, 1], "padding": "same", "bias_regularizer": null, "activity_regularizer": null}}, {"name": "block_9_expand_BN", "class_name": "BatchNormalization", "inbound_nodes": [[["block_9_expand", 0, 0, {}]]], "config": {"axis": -1, "name": "block_9_expand_BN", "gamma_regularizer": null, "beta_regularizer": null, "trainable": false, "center": true, "moving_mean_initializer": {"class_name": "Zeros", "config": {}}, "moving_variance_initializer": {"class_name": "Ones", "config": {}}, "beta_constraint": null, "momentum": 0.999, "gamma_initializer": {"class_name": "Ones", "config": {}}, "gamma_constraint": null, "epsilon": 0.001, "scale": true, "beta_initializer": {"class_name": "Zeros", "config": {}}}}, {"name": "block_9_expand_relu", "class_name": "ReLU", "inbound_nodes": [[["block_9_expand_BN", 0, 0, {}]]], "config": {"trainable": false, "max_value": 6.0, "name": "block_9_expand_relu", "threshold": 0.0, "negative_slope": 0.0}}, {"name": "block_9_depthwise", "class_name": "DepthwiseConv2D", "inbound_nodes": [[["block_9_expand_relu", 0, 0, {}]]], "config": {"use_bias": false, "name": "block_9_depthwise", "activity_regularizer": null, "bias_initializer": {"class_name": "Zeros", "config": {}}, "kernel_size": [3, 3], "bias_constraint": null, "trainable": false, "data_format": "channels_last", "dilation_rate": [1, 1], "depthwise_constraint": null, "activation": "linear", "strides": [1, 1], "depthwise_initializer": {"class_name": "VarianceScaling", "config": {"mode": "fan_avg", "distribution": "uniform", "scale": 1.0, "seed": null}}, "depth_multiplier": 1, "padding": "same", "bias_regularizer": null, "depthwise_regularizer": null}}, {"name": "block_9_depthwise_BN", "class_name": "BatchNormalization", "inbound_nodes": [[["block_9_depthwise", 0, 0, {}]]], "config": {"axis": -1, "name": "block_9_depthwise_BN", "gamma_regularizer": null, "beta_regularizer": null, "trainable": false, "center": true, "moving_mean_initializer": {"class_name": "Zeros", "config": {}}, "moving_variance_initializer": {"class_name": "Ones", "config": {}}, "beta_constraint": null, "momentum": 0.999, "gamma_initializer": {"class_name": "Ones", "config": {}}, "gamma_constraint": null, "epsilon": 0.001, "scale": true, "beta_initializer": {"class_name": "Zeros", "config": {}}}}, {"name": "block_9_depthwise_relu", "class_name": "ReLU", "inbound_nodes": [[["block_9_depthwise_BN", 0, 0, {}]]], "config": {"trainable": false, "max_value": 6.0, "name": "block_9_depthwise_relu", "threshold": 0.0, "negative_slope": 0.0}}, {"name": "block_9_project", "class_name": "Conv2D", "inbound_nodes": [[["block_9_depthwise_relu", 0, 0, {}]]], "config": {"use_bias": false, "name": "block_9_project", "filters": 64, "bias_initializer": {"class_name": "Zeros", "config": {}}, "kernel_constraint": null, "kernel_size": [1, 1], "bias_constraint": null, "trainable": false, "data_format": "channels_last", "kernel_initializer": {"class_name": "VarianceScaling", "config": {"mode": "fan_avg", "distribution": "uniform", "scale": 1.0, "seed": null}}, "activation": "linear", "strides": [1, 1], "kernel_regularizer": null, "dilation_rate": [1, 1], "padding": "same", "bias_regularizer": null, "activity_regularizer": null}}, {"name": "block_9_project_BN", "class_name": "BatchNormalization", "inbound_nodes": [[["block_9_project", 0, 0, {}]]], "config": {"axis": -1, "name": "block_9_project_BN", "gamma_regularizer": null, "beta_regularizer": null, "trainable": false, "center": true, "moving_mean_initializer": {"class_name": "Zeros", "config": {}}, "moving_variance_initializer": {"class_name": "Ones", "config": {}}, "beta_constraint": null, "momentum": 0.999, "gamma_initializer": {"class_name": "Ones", "config": {}}, "gamma_constraint": null, "epsilon": 0.001, "scale": true, "beta_initializer": {"class_name": "Zeros", "config": {}}}}, {"name": "block_9_add", "class_name": "Add", "inbound_nodes": [[["block_8_add", 0, 0, {}], ["block_9_project_BN", 0, 0, {}]]], "config": {"trainable": false, "name": "block_9_add"}}, {"name": "block_10_expand", "class_name": "Conv2D", "inbound_nodes": [[["block_9_add", 0, 0, {}]]], "config": {"use_bias": false, "name": "block_10_expand", "filters": 384, "bias_initializer": {"class_name": "Zeros", "config": {}}, "kernel_constraint": null, "kernel_size": [1, 1], "bias_constraint": null, "trainable": false, "data_format": "channels_last", "kernel_initializer": {"class_name": "VarianceScaling", "config": {"mode": "fan_avg", "distribution": "uniform", "scale": 1.0, "seed": null}}, "activation": "linear", "strides": [1, 1], "kernel_regularizer": null, "dilation_rate": [1, 1], "padding": "same", "bias_regularizer": null, "activity_regularizer": null}}, {"name": "block_10_expand_BN", "class_name": "BatchNormalization", "inbound_nodes": [[["block_10_expand", 0, 0, {}]]], "config": {"axis": -1, "name": "block_10_expand_BN", "gamma_regularizer": null, "beta_regularizer": null, "trainable": false, "center": true, "moving_mean_initializer": {"class_name": "Zeros", "config": {}}, "moving_variance_initializer": {"class_name": "Ones", "config": {}}, "beta_constraint": null, "momentum": 0.999, "gamma_initializer": {"class_name": "Ones", "config": {}}, "gamma_constraint": null, "epsilon": 0.001, "scale": true, "beta_initializer": {"class_name": "Zeros", "config": {}}}}, {"name": "block_10_expand_relu", "class_name": "ReLU", "inbound_nodes": [[["block_10_expand_BN", 0, 0, {}]]], "config": {"trainable": false, "max_value": 6.0, "name": "block_10_expand_relu", "threshold": 0.0, "negative_slope": 0.0}}, {"name": "block_10_depthwise", "class_name": "DepthwiseConv2D", "inbound_nodes": [[["block_10_expand_relu", 0, 0, {}]]], "config": {"use_bias": false, "name": "block_10_depthwise", "activity_regularizer": null, "bias_initializer": {"class_name": "Zeros", "config": {}}, "kernel_size": [3, 3], "bias_constraint": null, "trainable": false, "data_format": "channels_last", "dilation_rate": [1, 1], "depthwise_constraint": null, "activation": "linear", "strides": [1, 1], "depthwise_initializer": {"class_name": "VarianceScaling", "config": {"mode": "fan_avg", "distribution": "uniform", "scale": 1.0, "seed": null}}, "depth_multiplier": 1, "padding": "same", "bias_regularizer": null, "depthwise_regularizer": null}}, {"name": "block_10_depthwise_BN", "class_name": "BatchNormalization", "inbound_nodes": [[["block_10_depthwise", 0, 0, {}]]], "config": {"axis": -1, "name": "block_10_depthwise_BN", "gamma_regularizer": null, "beta_regularizer": null, "trainable": false, "center": true, "moving_mean_initializer": {"class_name": "Zeros", "config": {}}, "moving_variance_initializer": {"class_name": "Ones", "config": {}}, "beta_constraint": null, "momentum": 0.999, "gamma_initializer": {"class_name": "Ones", "config": {}}, "gamma_constraint": null, "epsilon": 0.001, "scale": true, "beta_initializer": {"class_name": "Zeros", "config": {}}}}, {"name": "block_10_depthwise_relu", "class_name": "ReLU", "inbound_nodes": [[["block_10_depthwise_BN", 0, 0, {}]]], "config": {"trainable": false, "max_value": 6.0, "name": "block_10_depthwise_relu", "threshold": 0.0, "negative_slope": 0.0}}, {"name": "block_10_project", "class_name": "Conv2D", "inbound_nodes": [[["block_10_depthwise_relu", 0, 0, {}]]], "config": {"use_bias": false, "name": "block_10_project", "filters": 96, "bias_initializer": {"class_name": "Zeros", "config": {}}, "kernel_constraint": null, "kernel_size": [1, 1], "bias_constraint": null, "trainable": false, "data_format": "channels_last", "kernel_initializer": {"class_name": "VarianceScaling", "config": {"mode": "fan_avg", "distribution": "uniform", "scale": 1.0, "seed": null}}, "activation": "linear", "strides": [1, 1], "kernel_regularizer": null, "dilation_rate": [1, 1], "padding": "same", "bias_regularizer": null, "activity_regularizer": null}}, {"name": "block_10_project_BN", "class_name": "BatchNormalization", "inbound_nodes": [[["block_10_project", 0, 0, {}]]], "config": {"axis": -1, "name": "block_10_project_BN", "gamma_regularizer": null, "beta_regularizer": null, "trainable": false, "center": true, "moving_mean_initializer": {"class_name": "Zeros", "config": {}}, "moving_variance_initializer": {"class_name": "Ones", "config": {}}, "beta_constraint": null, "momentum": 0.999, "gamma_initializer": {"class_name": "Ones", "config": {}}, "gamma_constraint": null, "epsilon": 0.001, "scale": true, "beta_initializer": {"class_name": "Zeros", "config": {}}}}, {"name": "block_11_expand", "class_name": "Conv2D", "inbound_nodes": [[["block_10_project_BN", 0, 0, {}]]], "config": {"use_bias": false, "name": "block_11_expand", "filters": 576, "bias_initializer": {"class_name": "Zeros", "config": {}}, "kernel_constraint": null, "kernel_size": [1, 1], "bias_constraint": null, "trainable": false, "data_format": "channels_last", "kernel_initializer": {"class_name": "VarianceScaling", "config": {"mode": "fan_avg", "distribution": "uniform", "scale": 1.0, "seed": null}}, "activation": "linear", "strides": [1, 1], "kernel_regularizer": null, "dilation_rate": [1, 1], "padding": "same", "bias_regularizer": null, "activity_regularizer": null}}, {"name": "block_11_expand_BN", "class_name": "BatchNormalization", "inbound_nodes": [[["block_11_expand", 0, 0, {}]]], "config": {"axis": -1, "name": "block_11_expand_BN", "gamma_regularizer": null, "beta_regularizer": null, "trainable": false, "center": true, "moving_mean_initializer": {"class_name": "Zeros", "config": {}}, "moving_variance_initializer": {"class_name": "Ones", "config": {}}, "beta_constraint": null, "momentum": 0.999, "gamma_initializer": {"class_name": "Ones", "config": {}}, "gamma_constraint": null, "epsilon": 0.001, "scale": true, "beta_initializer": {"class_name": "Zeros", "config": {}}}}, {"name": "block_11_expand_relu", "class_name": "ReLU", "inbound_nodes": [[["block_11_expand_BN", 0, 0, {}]]], "config": {"trainable": false, "max_value": 6.0, "name": "block_11_expand_relu", "threshold": 0.0, "negative_slope": 0.0}}, {"name": "block_11_depthwise", "class_name": "DepthwiseConv2D", "inbound_nodes": [[["block_11_expand_relu", 0, 0, {}]]], "config": {"use_bias": false, "name": "block_11_depthwise", "activity_regularizer": null, "bias_initializer": {"class_name": "Zeros", "config": {}}, "kernel_size": [3, 3], "bias_constraint": null, "trainable": false, "data_format": "channels_last", "dilation_rate": [1, 1], "depthwise_constraint": null, "activation": "linear", "strides": [1, 1], "depthwise_initializer": {"class_name": "VarianceScaling", "config": {"mode": "fan_avg", "distribution": "uniform", "scale": 1.0, "seed": null}}, "depth_multiplier": 1, "padding": "same", "bias_regularizer": null, "depthwise_regularizer": null}}, {"name": "block_11_depthwise_BN", "class_name": "BatchNormalization", "inbound_nodes": [[["block_11_depthwise", 0, 0, {}]]], "config": {"axis": -1, "name": "block_11_depthwise_BN", "gamma_regularizer": null, "beta_regularizer": null, "trainable": false, "center": true, "moving_mean_initializer": {"class_name": "Zeros", "config": {}}, "moving_variance_initializer": {"class_name": "Ones", "config": {}}, "beta_constraint": null, "momentum": 0.999, "gamma_initializer": {"class_name": "Ones", "config": {}}, "gamma_constraint": null, "epsilon": 0.001, "scale": true, "beta_initializer": {"class_name": "Zeros", "config": {}}}}, {"name": "block_11_depthwise_relu", "class_name": "ReLU", "inbound_nodes": [[["block_11_depthwise_BN", 0, 0, {}]]], "config": {"trainable": false, "max_value": 6.0, "name": "block_11_depthwise_relu", "threshold": 0.0, "negative_slope": 0.0}}, {"name": "block_11_project", "class_name": "Conv2D", "inbound_nodes": [[["block_11_depthwise_relu", 0, 0, {}]]], "config": {"use_bias": false, "name": "block_11_project", "filters": 96, "bias_initializer": {"class_name": "Zeros", "config": {}}, "kernel_constraint": null, "kernel_size": [1, 1], "bias_constraint": null, "trainable": false, "data_format": "channels_last", "kernel_initializer": {"class_name": "VarianceScaling", "config": {"mode": "fan_avg", "distribution": "uniform", "scale": 1.0, "seed": null}}, "activation": "linear", "strides": [1, 1], "kernel_regularizer": null, "dilation_rate": [1, 1], "padding": "same", "bias_regularizer": null, "activity_regularizer": null}}, {"name": "block_11_project_BN", "class_name": "BatchNormalization", "inbound_nodes": [[["block_11_project", 0, 0, {}]]], "config": {"axis": -1, "name": "block_11_project_BN", "gamma_regularizer": null, "beta_regularizer": null, "trainable": false, "center": true, "moving_mean_initializer": {"class_name": "Zeros", "config": {}}, "moving_variance_initializer": {"class_name": "Ones", "config": {}}, "beta_constraint": null, "momentum": 0.999, "gamma_initializer": {"class_name": "Ones", "config": {}}, "gamma_constraint": null, "epsilon": 0.001, "scale": true, "beta_initializer": {"class_name": "Zeros", "config": {}}}}, {"name": "block_11_add", "class_name": "Add", "inbound_nodes": [[["block_10_project_BN", 0, 0, {}], ["block_11_project_BN", 0, 0, {}]]], "config": {"trainable": false, "name": "block_11_add"}}, {"name": "block_12_expand", "class_name": "Conv2D", "inbound_nodes": [[["block_11_add", 0, 0, {}]]], "config": {"use_bias": false, "name": "block_12_expand", "filters": 576, "bias_initializer": {"class_name": "Zeros", "config": {}}, "kernel_constraint": null, "kernel_size": [1, 1], "bias_constraint": null, "trainable": false, "data_format": "channels_last", "kernel_initializer": {"class_name": "VarianceScaling", "config": {"mode": "fan_avg", "distribution": "uniform", "scale": 1.0, "seed": null}}, "activation": "linear", "strides": [1, 1], "kernel_regularizer": null, "dilation_rate": [1, 1], "padding": "same", "bias_regularizer": null, "activity_regularizer": null}}, {"name": "block_12_expand_BN", "class_name": "BatchNormalization", "inbound_nodes": [[["block_12_expand", 0, 0, {}]]], "config": {"axis": -1, "name": "block_12_expand_BN", "gamma_regularizer": null, "beta_regularizer": null, "trainable": false, "center": true, "moving_mean_initializer": {"class_name": "Zeros", "config": {}}, "moving_variance_initializer": {"class_name": "Ones", "config": {}}, "beta_constraint": null, "momentum": 0.999, "gamma_initializer": {"class_name": "Ones", "config": {}}, "gamma_constraint": null, "epsilon": 0.001, "scale": true, "beta_initializer": {"class_name": "Zeros", "config": {}}}}, {"name": "block_12_expand_relu", "class_name": "ReLU", "inbound_nodes": [[["block_12_expand_BN", 0, 0, {}]]], "config": {"trainable": false, "max_value": 6.0, "name": "block_12_expand_relu", "threshold": 0.0, "negative_slope": 0.0}}, {"name": "block_12_depthwise", "class_name": "DepthwiseConv2D", "inbound_nodes": [[["block_12_expand_relu", 0, 0, {}]]], "config": {"use_bias": false, "name": "block_12_depthwise", "activity_regularizer": null, "bias_initializer": {"class_name": "Zeros", "config": {}}, "kernel_size": [3, 3], "bias_constraint": null, "trainable": false, "data_format": "channels_last", "dilation_rate": [1, 1], "depthwise_constraint": null, "activation": "linear", "strides": [1, 1], "depthwise_initializer": {"class_name": "VarianceScaling", "config": {"mode": "fan_avg", "distribution": "uniform", "scale": 1.0, "seed": null}}, "depth_multiplier": 1, "padding": "same", "bias_regularizer": null, "depthwise_regularizer": null}}, {"name": "block_12_depthwise_BN", "class_name": "BatchNormalization", "inbound_nodes": [[["block_12_depthwise", 0, 0, {}]]], "config": {"axis": -1, "name": "block_12_depthwise_BN", "gamma_regularizer": null, "beta_regularizer": null, "trainable": false, "center": true, "moving_mean_initializer": {"class_name": "Zeros", "config": {}}, "moving_variance_initializer": {"class_name": "Ones", "config": {}}, "beta_constraint": null, "momentum": 0.999, "gamma_initializer": {"class_name": "Ones", "config": {}}, "gamma_constraint": null, "epsilon": 0.001, "scale": true, "beta_initializer": {"class_name": "Zeros", "config": {}}}}, {"name": "block_12_depthwise_relu", "class_name": "ReLU", "inbound_nodes": [[["block_12_depthwise_BN", 0, 0, {}]]], "config": {"trainable": false, "max_value": 6.0, "name": "block_12_depthwise_relu", "threshold": 0.0, "negative_slope": 0.0}}, {"name": "block_12_project", "class_name": "Conv2D", "inbound_nodes": [[["block_12_depthwise_relu", 0, 0, {}]]], "config": {"use_bias": false, "name": "block_12_project", "filters": 96, "bias_initializer": {"class_name": "Zeros", "config": {}}, "kernel_constraint": null, "kernel_size": [1, 1], "bias_constraint": null, "trainable": false, "data_format": "channels_last", "kernel_initializer": {"class_name": "VarianceScaling", "config": {"mode": "fan_avg", "distribution": "uniform", "scale": 1.0, "seed": null}}, "activation": "linear", "strides": [1, 1], "kernel_regularizer": null, "dilation_rate": [1, 1], "padding": "same", "bias_regularizer": null, "activity_regularizer": null}}, {"name": "block_12_project_BN", "class_name": "BatchNormalization", "inbound_nodes": [[["block_12_project", 0, 0, {}]]], "config": {"axis": -1, "name": "block_12_project_BN", "gamma_regularizer": null, "beta_regularizer": null, "trainable": false, "center": true, "moving_mean_initializer": {"class_name": "Zeros", "config": {}}, "moving_variance_initializer": {"class_name": "Ones", "config": {}}, "beta_constraint": null, "momentum": 0.999, "gamma_initializer": {"class_name": "Ones", "config": {}}, "gamma_constraint": null, "epsilon": 0.001, "scale": true, "beta_initializer": {"class_name": "Zeros", "config": {}}}}, {"name": "block_12_add", "class_name": "Add", "inbound_nodes": [[["block_11_add", 0, 0, {}], ["block_12_project_BN", 0, 0, {}]]], "config": {"trainable": false, "name": "block_12_add"}}, {"name": "block_13_expand", "class_name": "Conv2D", "inbound_nodes": [[["block_12_add", 0, 0, {}]]], "config": {"use_bias": false, "name": "block_13_expand", "filters": 576, "bias_initializer": {"class_name": "Zeros", "config": {}}, "kernel_constraint": null, "kernel_size": [1, 1], "bias_constraint": null, "trainable": false, "data_format": "channels_last", "kernel_initializer": {"class_name": "VarianceScaling", "config": {"mode": "fan_avg", "distribution": "uniform", "scale": 1.0, "seed": null}}, "activation": "linear", "strides": [1, 1], "kernel_regularizer": null, "dilation_rate": [1, 1], "padding": "same", "bias_regularizer": null, "activity_regularizer": null}}, {"name": "block_13_expand_BN", "class_name": "BatchNormalization", "inbound_nodes": [[["block_13_expand", 0, 0, {}]]], "config": {"axis": -1, "name": "block_13_expand_BN", "gamma_regularizer": null, "beta_regularizer": null, "trainable": false, "center": true, "moving_mean_initializer": {"class_name": "Zeros", "config": {}}, "moving_variance_initializer": {"class_name": "Ones", "config": {}}, "beta_constraint": null, "momentum": 0.999, "gamma_initializer": {"class_name": "Ones", "config": {}}, "gamma_constraint": null, "epsilon": 0.001, "scale": true, "beta_initializer": {"class_name": "Zeros", "config": {}}}}, {"name": "block_13_expand_relu", "class_name": "ReLU", "inbound_nodes": [[["block_13_expand_BN", 0, 0, {}]]], "config": {"trainable": false, "max_value": 6.0, "name": "block_13_expand_relu", "threshold": 0.0, "negative_slope": 0.0}}, {"name": "block_13_pad", "class_name": "ZeroPadding2D", "inbound_nodes": [[["block_13_expand_relu", 0, 0, {}]]], "config": {"trainable": false, "padding": [[0, 1], [0, 1]], "name": "block_13_pad", "data_format": "channels_last"}}, {"name": "block_13_depthwise", "class_name": "DepthwiseConv2D", "inbound_nodes": [[["block_13_pad", 0, 0, {}]]], "config": {"use_bias": false, "name": "block_13_depthwise", "activity_regularizer": null, "bias_initializer": {"class_name": "Zeros", "config": {}}, "kernel_size": [3, 3], "bias_constraint": null, "trainable": true, "data_format": "channels_last", "dilation_rate": [1, 1], "depthwise_constraint": null, "activation": "linear", "strides": [2, 2], "depthwise_initializer": {"class_name": "VarianceScaling", "config": {"mode": "fan_avg", "distribution": "uniform", "scale": 1.0, "seed": null}}, "depth_multiplier": 1, "padding": "valid", "bias_regularizer": null, "depthwise_regularizer": null}}, {"name": "block_13_depthwise_BN", "class_name": "BatchNormalization", "inbound_nodes": [[["block_13_depthwise", 0, 0, {}]]], "config": {"axis": -1, "name": "block_13_depthwise_BN", "gamma_regularizer": null, "beta_regularizer": null, "trainable": true, "center": true, "moving_mean_initializer": {"class_name": "Zeros", "config": {}}, "moving_variance_initializer": {"class_name": "Ones", "config": {}}, "beta_constraint": null, "momentum": 0.999, "gamma_initializer": {"class_name": "Ones", "config": {}}, "gamma_constraint": null, "epsilon": 0.001, "scale": true, "beta_initializer": {"class_name": "Zeros", "config": {}}}}, {"name": "block_13_depthwise_relu", "class_name": "ReLU", "inbound_nodes": [[["block_13_depthwise_BN", 0, 0, {}]]], "config": {"trainable": true, "max_value": 6.0, "name": "block_13_depthwise_relu", "threshold": 0.0, "negative_slope": 0.0}}, {"name": "block_13_project", "class_name": "Conv2D", "inbound_nodes": [[["block_13_depthwise_relu", 0, 0, {}]]], "config": {"use_bias": false, "name": "block_13_project", "filters": 160, "bias_initializer": {"class_name": "Zeros", "config": {}}, "kernel_constraint": null, "kernel_size": [1, 1], "bias_constraint": null, "trainable": true, "data_format": "channels_last", "kernel_initializer": {"class_name": "VarianceScaling", "config": {"mode": "fan_avg", "distribution": "uniform", "scale": 1.0, "seed": null}}, "activation": "linear", "strides": [1, 1], "kernel_regularizer": null, "dilation_rate": [1, 1], "padding": "same", "bias_regularizer": null, "activity_regularizer": null}}, {"name": "block_13_project_BN", "class_name": "BatchNormalization", "inbound_nodes": [[["block_13_project", 0, 0, {}]]], "config": {"axis": -1, "name": "block_13_project_BN", "gamma_regularizer": null, "beta_regularizer": null, "trainable": true, "center": true, "moving_mean_initializer": {"class_name": "Zeros", "config": {}}, "moving_variance_initializer": {"class_name": "Ones", "config": {}}, "beta_constraint": null, "momentum": 0.999, "gamma_initializer": {"class_name": "Ones", "config": {}}, "gamma_constraint": null, "epsilon": 0.001, "scale": true, "beta_initializer": {"class_name": "Zeros", "config": {}}}}, {"name": "block_14_expand", "class_name": "Conv2D", "inbound_nodes": [[["block_13_project_BN", 0, 0, {}]]], "config": {"use_bias": false, "name": "block_14_expand", "filters": 960, "bias_initializer": {"class_name": "Zeros", "config": {}}, "kernel_constraint": null, "kernel_size": [1, 1], "bias_constraint": null, "trainable": true, "data_format": "channels_last", "kernel_initializer": {"class_name": "VarianceScaling", "config": {"mode": "fan_avg", "distribution": "uniform", "scale": 1.0, "seed": null}}, "activation": "linear", "strides": [1, 1], "kernel_regularizer": null, "dilation_rate": [1, 1], "padding": "same", "bias_regularizer": null, "activity_regularizer": null}}, {"name": "block_14_expand_BN", "class_name": "BatchNormalization", "inbound_nodes": [[["block_14_expand", 0, 0, {}]]], "config": {"axis": -1, "name": "block_14_expand_BN", "gamma_regularizer": null, "beta_regularizer": null, "trainable": true, "center": true, "moving_mean_initializer": {"class_name": "Zeros", "config": {}}, "moving_variance_initializer": {"class_name": "Ones", "config": {}}, "beta_constraint": null, "momentum": 0.999, "gamma_initializer": {"class_name": "Ones", "config": {}}, "gamma_constraint": null, "epsilon": 0.001, "scale": true, "beta_initializer": {"class_name": "Zeros", "config": {}}}}, {"name": "block_14_expand_relu", "class_name": "ReLU", "inbound_nodes": [[["block_14_expand_BN", 0, 0, {}]]], "config": {"trainable": true, "max_value": 6.0, "name": "block_14_expand_relu", "threshold": 0.0, "negative_slope": 0.0}}, {"name": "block_14_depthwise", "class_name": "DepthwiseConv2D", "inbound_nodes": [[["block_14_expand_relu", 0, 0, {}]]], "config": {"use_bias": false, "name": "block_14_depthwise", "activity_regularizer": null, "bias_initializer": {"class_name": "Zeros", "config": {}}, "kernel_size": [3, 3], "bias_constraint": null, "trainable": true, "data_format": "channels_last", "dilation_rate": [1, 1], "depthwise_constraint": null, "activation": "linear", "strides": [1, 1], "depthwise_initializer": {"class_name": "VarianceScaling", "config": {"mode": "fan_avg", "distribution": "uniform", "scale": 1.0, "seed": null}}, "depth_multiplier": 1, "padding": "same", "bias_regularizer": null, "depthwise_regularizer": null}}, {"name": "block_14_depthwise_BN", "class_name": "BatchNormalization", "inbound_nodes": [[["block_14_depthwise", 0, 0, {}]]], "config": {"axis": -1, "name": "block_14_depthwise_BN", "gamma_regularizer": null, "beta_regularizer": null, "trainable": true, "center": true, "moving_mean_initializer": {"class_name": "Zeros", "config": {}}, "moving_variance_initializer": {"class_name": "Ones", "config": {}}, "beta_constraint": null, "momentum": 0.999, "gamma_initializer": {"class_name": "Ones", "config": {}}, "gamma_constraint": null, "epsilon": 0.001, "scale": true, "beta_initializer": {"class_name": "Zeros", "config": {}}}}, {"name": "block_14_depthwise_relu", "class_name": "ReLU", "inbound_nodes": [[["block_14_depthwise_BN", 0, 0, {}]]], "config": {"trainable": true, "max_value": 6.0, "name": "block_14_depthwise_relu", "threshold": 0.0, "negative_slope": 0.0}}, {"name": "block_14_project", "class_name": "Conv2D", "inbound_nodes": [[["block_14_depthwise_relu", 0, 0, {}]]], "config": {"use_bias": false, "name": "block_14_project", "filters": 160, "bias_initializer": {"class_name": "Zeros", "config": {}}, "kernel_constraint": null, "kernel_size": [1, 1], "bias_constraint": null, "trainable": true, "data_format": "channels_last", "kernel_initializer": {"class_name": "VarianceScaling", "config": {"mode": "fan_avg", "distribution": "uniform", "scale": 1.0, "seed": null}}, "activation": "linear", "strides": [1, 1], "kernel_regularizer": null, "dilation_rate": [1, 1], "padding": "same", "bias_regularizer": null, "activity_regularizer": null}}, {"name": "block_14_project_BN", "class_name": "BatchNormalization", "inbound_nodes": [[["block_14_project", 0, 0, {}]]], "config": {"axis": -1, "name": "block_14_project_BN", "gamma_regularizer": null, "beta_regularizer": null, "trainable": true, "center": true, "moving_mean_initializer": {"class_name": "Zeros", "config": {}}, "moving_variance_initializer": {"class_name": "Ones", "config": {}}, "beta_constraint": null, "momentum": 0.999, "gamma_initializer": {"class_name": "Ones", "config": {}}, "gamma_constraint": null, "epsilon": 0.001, "scale": true, "beta_initializer": {"class_name": "Zeros", "config": {}}}}, {"name": "block_14_add", "class_name": "Add", "inbound_nodes": [[["block_13_project_BN", 0, 0, {}], ["block_14_project_BN", 0, 0, {}]]], "config": {"trainable": true, "name": "block_14_add"}}, {"name": "block_15_expand", "class_name": "Conv2D", "inbound_nodes": [[["block_14_add", 0, 0, {}]]], "config": {"use_bias": false, "name": "block_15_expand", "filters": 960, "bias_initializer": {"class_name": "Zeros", "config": {}}, "kernel_constraint": null, "kernel_size": [1, 1], "bias_constraint": null, "trainable": true, "data_format": "channels_last", "kernel_initializer": {"class_name": "VarianceScaling", "config": {"mode": "fan_avg", "distribution": "uniform", "scale": 1.0, "seed": null}}, "activation": "linear", "strides": [1, 1], "kernel_regularizer": null, "dilation_rate": [1, 1], "padding": "same", "bias_regularizer": null, "activity_regularizer": null}}, {"name": "block_15_expand_BN", "class_name": "BatchNormalization", "inbound_nodes": [[["block_15_expand", 0, 0, {}]]], "config": {"axis": -1, "name": "block_15_expand_BN", "gamma_regularizer": null, "beta_regularizer": null, "trainable": true, "center": true, "moving_mean_initializer": {"class_name": "Zeros", "config": {}}, "moving_variance_initializer": {"class_name": "Ones", "config": {}}, "beta_constraint": null, "momentum": 0.999, "gamma_initializer": {"class_name": "Ones", "config": {}}, "gamma_constraint": null, "epsilon": 0.001, "scale": true, "beta_initializer": {"class_name": "Zeros", "config": {}}}}, {"name": "block_15_expand_relu", "class_name": "ReLU", "inbound_nodes": [[["block_15_expand_BN", 0, 0, {}]]], "config": {"trainable": true, "max_value": 6.0, "name": "block_15_expand_relu", "threshold": 0.0, "negative_slope": 0.0}}, {"name": "block_15_depthwise", "class_name": "DepthwiseConv2D", "inbound_nodes": [[["block_15_expand_relu", 0, 0, {}]]], "config": {"use_bias": false, "name": "block_15_depthwise", "activity_regularizer": null, "bias_initializer": {"class_name": "Zeros", "config": {}}, "kernel_size": [3, 3], "bias_constraint": null, "trainable": true, "data_format": "channels_last", "dilation_rate": [1, 1], "depthwise_constraint": null, "activation": "linear", "strides": [1, 1], "depthwise_initializer": {"class_name": "VarianceScaling", "config": {"mode": "fan_avg", "distribution": "uniform", "scale": 1.0, "seed": null}}, "depth_multiplier": 1, "padding": "same", "bias_regularizer": null, "depthwise_regularizer": null}}, {"name": "block_15_depthwise_BN", "class_name": "BatchNormalization", "inbound_nodes": [[["block_15_depthwise", 0, 0, {}]]], "config": {"axis": -1, "name": "block_15_depthwise_BN", "gamma_regularizer": null, "beta_regularizer": null, "trainable": true, "center": true, "moving_mean_initializer": {"class_name": "Zeros", "config": {}}, "moving_variance_initializer": {"class_name": "Ones", "config": {}}, "beta_constraint": null, "momentum": 0.999, "gamma_initializer": {"class_name": "Ones", "config": {}}, "gamma_constraint": null, "epsilon": 0.001, "scale": true, "beta_initializer": {"class_name": "Zeros", "config": {}}}}, {"name": "block_15_depthwise_relu", "class_name": "ReLU", "inbound_nodes": [[["block_15_depthwise_BN", 0, 0, {}]]], "config": {"trainable": true, "max_value": 6.0, "name": "block_15_depthwise_relu", "threshold": 0.0, "negative_slope": 0.0}}, {"name": "block_15_project", "class_name": "Conv2D", "inbound_nodes": [[["block_15_depthwise_relu", 0, 0, {}]]], "config": {"use_bias": false, "name": "block_15_project", "filters": 160, "bias_initializer": {"class_name": "Zeros", "config": {}}, "kernel_constraint": null, "kernel_size": [1, 1], "bias_constraint": null, "trainable": true, "data_format": "channels_last", "kernel_initializer": {"class_name": "VarianceScaling", "config": {"mode": "fan_avg", "distribution": "uniform", "scale": 1.0, "seed": null}}, "activation": "linear", "strides": [1, 1], "kernel_regularizer": null, "dilation_rate": [1, 1], "padding": "same", "bias_regularizer": null, "activity_regularizer": null}}, {"name": "block_15_project_BN", "class_name": "BatchNormalization", "inbound_nodes": [[["block_15_project", 0, 0, {}]]], "config": {"axis": -1, "name": "block_15_project_BN", "gamma_regularizer": null, "beta_regularizer": null, "trainable": true, "center": true, "moving_mean_initializer": {"class_name": "Zeros", "config": {}}, "moving_variance_initializer": {"class_name": "Ones", "config": {}}, "beta_constraint": null, "momentum": 0.999, "gamma_initializer": {"class_name": "Ones", "config": {}}, "gamma_constraint": null, "epsilon": 0.001, "scale": true, "beta_initializer": {"class_name": "Zeros", "config": {}}}}, {"name": "block_15_add", "class_name": "Add", "inbound_nodes": [[["block_14_add", 0, 0, {}], ["block_15_project_BN", 0, 0, {}]]], "config": {"trainable": true, "name": "block_15_add"}}, {"name": "block_16_expand", "class_name": "Conv2D", "inbound_nodes": [[["block_15_add", 0, 0, {}]]], "config": {"use_bias": false, "name": "block_16_expand", "filters": 960, "bias_initializer": {"class_name": "Zeros", "config": {}}, "kernel_constraint": null, "kernel_size": [1, 1], "bias_constraint": null, "trainable": true, "data_format": "channels_last", "kernel_initializer": {"class_name": "VarianceScaling", "config": {"mode": "fan_avg", "distribution": "uniform", "scale": 1.0, "seed": null}}, "activation": "linear", "strides": [1, 1], "kernel_regularizer": null, "dilation_rate": [1, 1], "padding": "same", "bias_regularizer": null, "activity_regularizer": null}}, {"name": "block_16_expand_BN", "class_name": "BatchNormalization", "inbound_nodes": [[["block_16_expand", 0, 0, {}]]], "config": {"axis": -1, "name": "block_16_expand_BN", "gamma_regularizer": null, "beta_regularizer": null, "trainable": true, "center": true, "moving_mean_initializer": {"class_name": "Zeros", "config": {}}, "moving_variance_initializer": {"class_name": "Ones", "config": {}}, "beta_constraint": null, "momentum": 0.999, "gamma_initializer": {"class_name": "Ones", "config": {}}, "gamma_constraint": null, "epsilon": 0.001, "scale": true, "beta_initializer": {"class_name": "Zeros", "config": {}}}}, {"name": "block_16_expand_relu", "class_name": "ReLU", "inbound_nodes": [[["block_16_expand_BN", 0, 0, {}]]], "config": {"trainable": true, "max_value": 6.0, "name": "block_16_expand_relu", "threshold": 0.0, "negative_slope": 0.0}}, {"name": "block_16_depthwise", "class_name": "DepthwiseConv2D", "inbound_nodes": [[["block_16_expand_relu", 0, 0, {}]]], "config": {"use_bias": false, "name": "block_16_depthwise", "activity_regularizer": null, "bias_initializer": {"class_name": "Zeros", "config": {}}, "kernel_size": [3, 3], "bias_constraint": null, "trainable": true, "data_format": "channels_last", "dilation_rate": [1, 1], "depthwise_constraint": null, "activation": "linear", "strides": [1, 1], "depthwise_initializer": {"class_name": "VarianceScaling", "config": {"mode": "fan_avg", "distribution": "uniform", "scale": 1.0, "seed": null}}, "depth_multiplier": 1, "padding": "same", "bias_regularizer": null, "depthwise_regularizer": null}}, {"name": "block_16_depthwise_BN", "class_name": "BatchNormalization", "inbound_nodes": [[["block_16_depthwise", 0, 0, {}]]], "config": {"axis": -1, "name": "block_16_depthwise_BN", "gamma_regularizer": null, "beta_regularizer": null, "trainable": true, "center": true, "moving_mean_initializer": {"class_name": "Zeros", "config": {}}, "moving_variance_initializer": {"class_name": "Ones", "config": {}}, "beta_constraint": null, "momentum": 0.999, "gamma_initializer": {"class_name": "Ones", "config": {}}, "gamma_constraint": null, "epsilon": 0.001, "scale": true, "beta_initializer": {"class_name": "Zeros", "config": {}}}}, {"name": "block_16_depthwise_relu", "class_name": "ReLU", "inbound_nodes": [[["block_16_depthwise_BN", 0, 0, {}]]], "config": {"trainable": true, "max_value": 6.0, "name": "block_16_depthwise_relu", "threshold": 0.0, "negative_slope": 0.0}}, {"name": "block_16_project", "class_name": "Conv2D", "inbound_nodes": [[["block_16_depthwise_relu", 0, 0, {}]]], "config": {"use_bias": false, "name": "block_16_project", "filters": 320, "bias_initializer": {"class_name": "Zeros", "config": {}}, "kernel_constraint": null, "kernel_size": [1, 1], "bias_constraint": null, "trainable": true, "data_format": "channels_last", "kernel_initializer": {"class_name": "VarianceScaling", "config": {"mode": "fan_avg", "distribution": "uniform", "scale": 1.0, "seed": null}}, "activation": "linear", "strides": [1, 1], "kernel_regularizer": null, "dilation_rate": [1, 1], "padding": "same", "bias_regularizer": null, "activity_regularizer": null}}, {"name": "block_16_project_BN", "class_name": "BatchNormalization", "inbound_nodes": [[["block_16_project", 0, 0, {}]]], "config": {"axis": -1, "name": "block_16_project_BN", "gamma_regularizer": null, "beta_regularizer": null, "trainable": true, "center": true, "moving_mean_initializer": {"class_name": "Zeros", "config": {}}, "moving_variance_initializer": {"class_name": "Ones", "config": {}}, "beta_constraint": null, "momentum": 0.999, "gamma_initializer": {"class_name": "Ones", "config": {}}, "gamma_constraint": null, "epsilon": 0.001, "scale": true, "beta_initializer": {"class_name": "Zeros", "config": {}}}}, {"name": "Conv_1", "class_name": "Conv2D", "inbound_nodes": [[["block_16_project_BN", 0, 0, {}]]], "config": {"use_bias": false, "name": "Conv_1", "filters": 1280, "bias_initializer": {"class_name": "Zeros", "config": {}}, "kernel_constraint": null, "kernel_size": [1, 1], "bias_constraint": null, "trainable": true, "data_format": "channels_last", "kernel_initializer": {"class_name": "VarianceScaling", "config": {"mode": "fan_avg", "distribution": "uniform", "scale": 1.0, "seed": null}}, "activation": "linear", "strides": [1, 1], "kernel_regularizer": null, "dilation_rate": [1, 1], "padding": "valid", "bias_regularizer": null, "activity_regularizer": null}}, {"name": "Conv_1_bn", "class_name": "BatchNormalization", "inbound_nodes": [[["Conv_1", 0, 0, {}]]], "config": {"axis": -1, "name": "Conv_1_bn", "gamma_regularizer": null, "beta_regularizer": null, "trainable": true, "center": true, "moving_mean_initializer": {"class_name": "Zeros", "config": {}}, "moving_variance_initializer": {"class_name": "Ones", "config": {}}, "beta_constraint": null, "momentum": 0.999, "gamma_initializer": {"class_name": "Ones", "config": {}}, "gamma_constraint": null, "epsilon": 0.001, "scale": true, "beta_initializer": {"class_name": "Zeros", "config": {}}}}, {"name": "out_relu", "class_name": "ReLU", "inbound_nodes": [[["Conv_1_bn", 0, 0, {}]]], "config": {"trainable": true, "max_value": 6.0, "name": "out_relu", "threshold": 0.0, "negative_slope": 0.0}}, {"name": "average_pooling2d_30", "class_name": "AveragePooling2D", "inbound_nodes": [[["out_relu", 0, 0, {}]]], "config": {"trainable": true, "name": "average_pooling2d_30", "strides": [7, 7], "padding": "valid", "data_format": "channels_last", "pool_size": [2, 2]}}, {"name": "average_pooling2d_29", "class_name": "AveragePooling2D", "inbound_nodes": [[["out_relu", 0, 0, {}]]], "config": {"trainable": true, "name": "average_pooling2d_29", "strides": [2, 2], "padding": "valid", "data_format": "channels_last", "pool_size": [2, 2]}}, {"name": "flatten_30", "class_name": "Flatten", "inbound_nodes": [[["average_pooling2d_30", 0, 0, {}]]], "config": {"trainable": true, "name": "flatten_30", "data_format": "channels_last"}}, {"name": "flatten_29", "class_name": "Flatten", "inbound_nodes": [[["average_pooling2d_29", 0, 0, {}]]], "config": {"trainable": true, "name": "flatten_29", "data_format": "channels_last"}}, {"name": "dense_64", "class_name": "Dense", "inbound_nodes": [[["flatten_30", 0, 0, {}]]], "config": {"use_bias": true, "name": "dense_64", "bias_initializer": {"class_name": "Zeros", "config": {}}, "kernel_constraint": null, "bias_constraint": null, "trainable": true, "units": 1000, "kernel_initializer": {"class_name": "VarianceScaling", "config": {"mode": "fan_avg", "distribution": "uniform", "scale": 1.0, "seed": null}}, "activation": "relu", "bias_regularizer": null, "kernel_regularizer": null, "activity_regularizer": null}}, {"name": "dropout_31", "class_name": "Dropout", "inbound_nodes": [[["flatten_29", 0, 0, {}]]], "config": {"trainable": true, "noise_shape": null, "name": "dropout_31", "rate": 0.5, "seed": null}}, {"name": "dropout_32", "class_name": "Dropout", "inbound_nodes": [[["dense_64", 0, 0, {}]]], "config": {"trainable": true, "noise_shape": null, "name": "dropout_32", "rate": 0.3, "seed": null}}, {"name": "dense_62", "class_name": "Dense", "inbound_nodes": [[["dropout_31", 0, 0, {}]]], "config": {"use_bias": true, "name": "dense_62", "bias_initializer": {"class_name": "Zeros", "config": {}}, "kernel_constraint": null, "bias_constraint": null, "trainable": true, "units": 100, "kernel_initializer": {"class_name": "VarianceScaling", "config": {"mode": "fan_avg", "distribution": "uniform", "scale": 1.0, "seed": null}}, "activation": "relu", "bias_regularizer": null, "kernel_regularizer": null, "activity_regularizer": null}}, {"name": "dense_65", "class_name": "Dense", "inbound_nodes": [[["dropout_32", 0, 0, {}]]], "config": {"use_bias": true, "name": "dense_65", "bias_initializer": {"class_name": "Zeros", "config": {}}, "kernel_constraint": null, "bias_constraint": null, "trainable": true, "units": 37, "kernel_initializer": {"class_name": "VarianceScaling", "config": {"mode": "fan_avg", "distribution": "uniform", "scale": 1.0, "seed": null}}, "activation": "softmax", "bias_regularizer": null, "kernel_regularizer": null, "activity_regularizer": null}}, {"name": "dense_63", "class_name": "Dense", "inbound_nodes": [[["dense_62", 0, 0, {}]]], "config": {"use_bias": true, "name": "dense_63", "bias_initializer": {"class_name": "Zeros", "config": {}}, "kernel_constraint": null, "bias_constraint": null, "trainable": true, "units": 4, "kernel_initializer": {"class_name": "VarianceScaling", "config": {"mode": "fan_avg", "distribution": "uniform", "scale": 1.0, "seed": null}}, "activation": "sigmoid", "bias_regularizer": null, "kernel_regularizer": null, "activity_regularizer": null}}, {"name": "concatenate_11", "class_name": "Concatenate", "inbound_nodes": [[["dense_65", 0, 0, {}], ["dense_63", 0, 0, {}]]], "config": {"trainable": true, "axis": -1, "name": "concatenate_11"}}], "input_layers": [["input_34", 0, 0]]}}