{"class_name": "Model", "keras_version": "2.2.4", "config": {"name": "model_2", "layers": [{"class_name": "InputLayer", "name": "input_7", "inbound_nodes": [], "config": {"batch_input_shape": [null, 224, 224, 3], "dtype": "float32", "sparse": false, "name": "input_7"}}, {"class_name": "ZeroPadding2D", "name": "Conv1_pad", "inbound_nodes": [[["input_7", 0, 0, {}]]], "config": {"padding": [[0, 1], [0, 1]], "name": "Conv1_pad", "data_format": "channels_last", "trainable": true}}, {"class_name": "Conv2D", "name": "Conv1", "inbound_nodes": [[["Conv1_pad", 0, 0, {}]]], "config": {"kernel_size": [3, 3], "name": "Conv1", "dilation_rate": [1, 1], "strides": [2, 2], "use_bias": false, "data_format": "channels_last", "activity_regularizer": null, "padding": "valid", "kernel_constraint": null, "bias_constraint": null, "kernel_regularizer": null, "bias_regularizer": null, "filters": 32, "bias_initializer": {"class_name": "Zeros", "config": {}}, "activation": "linear", "trainable": true, "kernel_initializer": {"class_name": "VarianceScaling", "config": {"scale": 1.0, "mode": "fan_avg", "distribution": "uniform", "seed": null}}}}, {"class_name": "BatchNormalization", "name": "bn_Conv1", "inbound_nodes": [[["Conv1", 0, 0, {}]]], "config": {"momentum": 0.999, "epsilon": 0.001, "name": "bn_Conv1", "gamma_regularizer": null, "moving_mean_initializer": {"class_name": "Zeros", "config": {}}, "beta_regularizer": null, "center": true, "axis": -1, "scale": true, "beta_initializer": {"class_name": "Zeros", "config": {}}, "gamma_constraint": null, "moving_variance_initializer": {"class_name": "Ones", "config": {}}, "beta_constraint": null, "trainable": true, "gamma_initializer": {"class_name": "Ones", "config": {}}}}, {"class_name": "ReLU", "name": "Conv1_relu", "inbound_nodes": [[["bn_Conv1", 0, 0, {}]]], "config": {"name": "Conv1_relu", "trainable": true, "negative_slope": 0.0, "max_value": 6.0, "threshold": 0.0}}, {"class_name": "DepthwiseConv2D", "name": "expanded_conv_depthwise", "inbound_nodes": [[["Conv1_relu", 0, 0, {}]]], "config": {"kernel_size": [3, 3], "name": "expanded_conv_depthwise", "strides": [1, 1], "use_bias": false, "data_format": "channels_last", "depth_multiplier": 1, "padding": "same", "depthwise_constraint": null, "bias_constraint": null, "activity_regularizer": null, "bias_regularizer": null, "dilation_rate": [1, 1], "bias_initializer": {"class_name": "Zeros", "config": {}}, "activation": "linear", "depthwise_initializer": {"class_name": "VarianceScaling", "config": {"scale": 1.0, "mode": "fan_avg", "distribution": "uniform", "seed": null}}, "trainable": true, "depthwise_regularizer": null}}, {"class_name": "BatchNormalization", "name": "expanded_conv_depthwise_BN", "inbound_nodes": [[["expanded_conv_depthwise", 0, 0, {}]]], "config": {"momentum": 0.999, "epsilon": 0.001, "name": "expanded_conv_depthwise_BN", "gamma_regularizer": null, "moving_mean_initializer": {"class_name": "Zeros", "config": {}}, "beta_regularizer": null, "center": true, "axis": -1, "scale": true, "beta_initializer": {"class_name": "Zeros", "config": {}}, "gamma_constraint": null, "moving_variance_initializer": {"class_name": "Ones", "config": {}}, "beta_constraint": null, "trainable": true, "gamma_initializer": {"class_name": "Ones", "config": {}}}}, {"class_name": "ReLU", "name": "expanded_conv_depthwise_relu", "inbound_nodes": [[["expanded_conv_depthwise_BN", 0, 0, {}]]], "config": {"name": "expanded_conv_depthwise_relu", "trainable": true, "negative_slope": 0.0, "max_value": 6.0, "threshold": 0.0}}, {"class_name": "Conv2D", "name": "expanded_conv_project", "inbound_nodes": [[["expanded_conv_depthwise_relu", 0, 0, {}]]], "config": {"kernel_size": [1, 1], "name": "expanded_conv_project", "dilation_rate": [1, 1], "strides": [1, 1], "use_bias": false, "data_format": "channels_last", "activity_regularizer": null, "padding": "same", "kernel_constraint": null, "bias_constraint": null, "kernel_regularizer": null, "bias_regularizer": null, "filters": 16, "bias_initializer": {"class_name": "Zeros", "config": {}}, "activation": "linear", "trainable": true, "kernel_initializer": {"class_name": "VarianceScaling", "config": {"scale": 1.0, "mode": "fan_avg", "distribution": "uniform", "seed": null}}}}, {"class_name": "BatchNormalization", "name": "expanded_conv_project_BN", "inbound_nodes": [[["expanded_conv_project", 0, 0, {}]]], "config": {"momentum": 0.999, "epsilon": 0.001, "name": "expanded_conv_project_BN", "gamma_regularizer": null, "moving_mean_initializer": {"class_name": "Zeros", "config": {}}, "beta_regularizer": null, "center": true, "axis": -1, "scale": true, "beta_initializer": {"class_name": "Zeros", "config": {}}, "gamma_constraint": null, "moving_variance_initializer": {"class_name": "Ones", "config": {}}, "beta_constraint": null, "trainable": true, "gamma_initializer": {"class_name": "Ones", "config": {}}}}, {"class_name": "Conv2D", "name": "block_1_expand", "inbound_nodes": [[["expanded_conv_project_BN", 0, 0, {}]]], "config": {"kernel_size": [1, 1], "name": "block_1_expand", "dilation_rate": [1, 1], "strides": [1, 1], "use_bias": false, "data_format": "channels_last", "activity_regularizer": null, "padding": "same", "kernel_constraint": null, "bias_constraint": null, "kernel_regularizer": null, "bias_regularizer": null, "filters": 96, "bias_initializer": {"class_name": "Zeros", "config": {}}, "activation": "linear", "trainable": true, "kernel_initializer": {"class_name": "VarianceScaling", "config": {"scale": 1.0, "mode": "fan_avg", "distribution": "uniform", "seed": null}}}}, {"class_name": "BatchNormalization", "name": "block_1_expand_BN", "inbound_nodes": [[["block_1_expand", 0, 0, {}]]], "config": {"momentum": 0.999, "epsilon": 0.001, "name": "block_1_expand_BN", "gamma_regularizer": null, "moving_mean_initializer": {"class_name": "Zeros", "config": {}}, "beta_regularizer": null, "center": true, "axis": -1, "scale": true, "beta_initializer": {"class_name": "Zeros", "config": {}}, "gamma_constraint": null, "moving_variance_initializer": {"class_name": "Ones", "config": {}}, "beta_constraint": null, "trainable": true, "gamma_initializer": {"class_name": "Ones", "config": {}}}}, {"class_name": "ReLU", "name": "block_1_expand_relu", "inbound_nodes": [[["block_1_expand_BN", 0, 0, {}]]], "config": {"name": "block_1_expand_relu", "trainable": true, "negative_slope": 0.0, "max_value": 6.0, "threshold": 0.0}}, {"class_name": "ZeroPadding2D", "name": "block_1_pad", "inbound_nodes": [[["block_1_expand_relu", 0, 0, {}]]], "config": {"padding": [[0, 1], [0, 1]], "name": "block_1_pad", "data_format": "channels_last", "trainable": true}}, {"class_name": "DepthwiseConv2D", "name": "block_1_depthwise", "inbound_nodes": [[["block_1_pad", 0, 0, {}]]], "config": {"kernel_size": [3, 3], "name": "block_1_depthwise", "strides": [2, 2], "use_bias": false, "data_format": "channels_last", "depth_multiplier": 1, "padding": "valid", "depthwise_constraint": null, "bias_constraint": null, "activity_regularizer": null, "bias_regularizer": null, "dilation_rate": [1, 1], "bias_initializer": {"class_name": "Zeros", "config": {}}, "activation": "linear", "depthwise_initializer": {"class_name": "VarianceScaling", "config": {"scale": 1.0, "mode": "fan_avg", "distribution": "uniform", "seed": null}}, "trainable": true, "depthwise_regularizer": null}}, {"class_name": "BatchNormalization", "name": "block_1_depthwise_BN", "inbound_nodes": [[["block_1_depthwise", 0, 0, {}]]], "config": {"momentum": 0.999, "epsilon": 0.001, "name": "block_1_depthwise_BN", "gamma_regularizer": null, "moving_mean_initializer": {"class_name": "Zeros", "config": {}}, "beta_regularizer": null, "center": true, "axis": -1, "scale": true, "beta_initializer": {"class_name": "Zeros", "config": {}}, "gamma_constraint": null, "moving_variance_initializer": {"class_name": "Ones", "config": {}}, "beta_constraint": null, "trainable": true, "gamma_initializer": {"class_name": "Ones", "config": {}}}}, {"class_name": "ReLU", "name": "block_1_depthwise_relu", "inbound_nodes": [[["block_1_depthwise_BN", 0, 0, {}]]], "config": {"name": "block_1_depthwise_relu", "trainable": true, "negative_slope": 0.0, "max_value": 6.0, "threshold": 0.0}}, {"class_name": "Conv2D", "name": "block_1_project", "inbound_nodes": [[["block_1_depthwise_relu", 0, 0, {}]]], "config": {"kernel_size": [1, 1], "name": "block_1_project", "dilation_rate": [1, 1], "strides": [1, 1], "use_bias": false, "data_format": "channels_last", "activity_regularizer": null, "padding": "same", "kernel_constraint": null, "bias_constraint": null, "kernel_regularizer": null, "bias_regularizer": null, "filters": 24, "bias_initializer": {"class_name": "Zeros", "config": {}}, "activation": "linear", "trainable": true, "kernel_initializer": {"class_name": "VarianceScaling", "config": {"scale": 1.0, "mode": "fan_avg", "distribution": "uniform", "seed": null}}}}, {"class_name": "BatchNormalization", "name": "block_1_project_BN", "inbound_nodes": [[["block_1_project", 0, 0, {}]]], "config": {"momentum": 0.999, "epsilon": 0.001, "name": "block_1_project_BN", "gamma_regularizer": null, "moving_mean_initializer": {"class_name": "Zeros", "config": {}}, "beta_regularizer": null, "center": true, "axis": -1, "scale": true, "beta_initializer": {"class_name": "Zeros", "config": {}}, "gamma_constraint": null, "moving_variance_initializer": {"class_name": "Ones", "config": {}}, "beta_constraint": null, "trainable": true, "gamma_initializer": {"class_name": "Ones", "config": {}}}}, {"class_name": "Conv2D", "name": "block_2_expand", "inbound_nodes": [[["block_1_project_BN", 0, 0, {}]]], "config": {"kernel_size": [1, 1], "name": "block_2_expand", "dilation_rate": [1, 1], "strides": [1, 1], "use_bias": false, "data_format": "channels_last", "activity_regularizer": null, "padding": "same", "kernel_constraint": null, "bias_constraint": null, "kernel_regularizer": null, "bias_regularizer": null, "filters": 144, "bias_initializer": {"class_name": "Zeros", "config": {}}, "activation": "linear", "trainable": true, "kernel_initializer": {"class_name": "VarianceScaling", "config": {"scale": 1.0, "mode": "fan_avg", "distribution": "uniform", "seed": null}}}}, {"class_name": "BatchNormalization", "name": "block_2_expand_BN", "inbound_nodes": [[["block_2_expand", 0, 0, {}]]], "config": {"momentum": 0.999, "epsilon": 0.001, "name": "block_2_expand_BN", "gamma_regularizer": null, "moving_mean_initializer": {"class_name": "Zeros", "config": {}}, "beta_regularizer": null, "center": true, "axis": -1, "scale": true, "beta_initializer": {"class_name": "Zeros", "config": {}}, "gamma_constraint": null, "moving_variance_initializer": {"class_name": "Ones", "config": {}}, "beta_constraint": null, "trainable": true, "gamma_initializer": {"class_name": "Ones", "config": {}}}}, {"class_name": "ReLU", "name": "block_2_expand_relu", "inbound_nodes": [[["block_2_expand_BN", 0, 0, {}]]], "config": {"name": "block_2_expand_relu", "trainable": true, "negative_slope": 0.0, "max_value": 6.0, "threshold": 0.0}}, {"class_name": "DepthwiseConv2D", "name": "block_2_depthwise", "inbound_nodes": [[["block_2_expand_relu", 0, 0, {}]]], "config": {"kernel_size": [3, 3], "name": "block_2_depthwise", "strides": [1, 1], "use_bias": false, "data_format": "channels_last", "depth_multiplier": 1, "padding": "same", "depthwise_constraint": null, "bias_constraint": null, "activity_regularizer": null, "bias_regularizer": null, "dilation_rate": [1, 1], "bias_initializer": {"class_name": "Zeros", "config": {}}, "activation": "linear", "depthwise_initializer": {"class_name": "VarianceScaling", "config": {"scale": 1.0, "mode": "fan_avg", "distribution": "uniform", "seed": null}}, "trainable": true, "depthwise_regularizer": null}}, {"class_name": "BatchNormalization", "name": "block_2_depthwise_BN", "inbound_nodes": [[["block_2_depthwise", 0, 0, {}]]], "config": {"momentum": 0.999, "epsilon": 0.001, "name": "block_2_depthwise_BN", "gamma_regularizer": null, "moving_mean_initializer": {"class_name": "Zeros", "config": {}}, "beta_regularizer": null, "center": true, "axis": -1, "scale": true, "beta_initializer": {"class_name": "Zeros", "config": {}}, "gamma_constraint": null, "moving_variance_initializer": {"class_name": "Ones", "config": {}}, "beta_constraint": null, "trainable": true, "gamma_initializer": {"class_name": "Ones", "config": {}}}}, {"class_name": "ReLU", "name": "block_2_depthwise_relu", "inbound_nodes": [[["block_2_depthwise_BN", 0, 0, {}]]], "config": {"name": "block_2_depthwise_relu", "trainable": true, "negative_slope": 0.0, "max_value": 6.0, "threshold": 0.0}}, {"class_name": "Conv2D", "name": "block_2_project", "inbound_nodes": [[["block_2_depthwise_relu", 0, 0, {}]]], "config": {"kernel_size": [1, 1], "name": "block_2_project", "dilation_rate": [1, 1], "strides": [1, 1], "use_bias": false, "data_format": "channels_last", "activity_regularizer": null, "padding": "same", "kernel_constraint": null, "bias_constraint": null, "kernel_regularizer": null, "bias_regularizer": null, "filters": 24, "bias_initializer": {"class_name": "Zeros", "config": {}}, "activation": "linear", "trainable": true, "kernel_initializer": {"class_name": "VarianceScaling", "config": {"scale": 1.0, "mode": "fan_avg", "distribution": "uniform", "seed": null}}}}, {"class_name": "BatchNormalization", "name": "block_2_project_BN", "inbound_nodes": [[["block_2_project", 0, 0, {}]]], "config": {"momentum": 0.999, "epsilon": 0.001, "name": "block_2_project_BN", "gamma_regularizer": null, "moving_mean_initializer": {"class_name": "Zeros", "config": {}}, "beta_regularizer": null, "center": true, "axis": -1, "scale": true, "beta_initializer": {"class_name": "Zeros", "config": {}}, "gamma_constraint": null, "moving_variance_initializer": {"class_name": "Ones", "config": {}}, "beta_constraint": null, "trainable": true, "gamma_initializer": {"class_name": "Ones", "config": {}}}}, {"class_name": "Add", "name": "block_2_add", "inbound_nodes": [[["block_1_project_BN", 0, 0, {}], ["block_2_project_BN", 0, 0, {}]]], "config": {"name": "block_2_add", "trainable": true}}, {"class_name": "Conv2D", "name": "block_3_expand", "inbound_nodes": [[["block_2_add", 0, 0, {}]]], "config": {"kernel_size": [1, 1], "name": "block_3_expand", "dilation_rate": [1, 1], "strides": [1, 1], "use_bias": false, "data_format": "channels_last", "activity_regularizer": null, "padding": "same", "kernel_constraint": null, "bias_constraint": null, "kernel_regularizer": null, "bias_regularizer": null, "filters": 144, "bias_initializer": {"class_name": "Zeros", "config": {}}, "activation": "linear", "trainable": true, "kernel_initializer": {"class_name": "VarianceScaling", "config": {"scale": 1.0, "mode": "fan_avg", "distribution": "uniform", "seed": null}}}}, {"class_name": "BatchNormalization", "name": "block_3_expand_BN", "inbound_nodes": [[["block_3_expand", 0, 0, {}]]], "config": {"momentum": 0.999, "epsilon": 0.001, "name": "block_3_expand_BN", "gamma_regularizer": null, "moving_mean_initializer": {"class_name": "Zeros", "config": {}}, "beta_regularizer": null, "center": true, "axis": -1, "scale": true, "beta_initializer": {"class_name": "Zeros", "config": {}}, "gamma_constraint": null, "moving_variance_initializer": {"class_name": "Ones", "config": {}}, "beta_constraint": null, "trainable": true, "gamma_initializer": {"class_name": "Ones", "config": {}}}}, {"class_name": "ReLU", "name": "block_3_expand_relu", "inbound_nodes": [[["block_3_expand_BN", 0, 0, {}]]], "config": {"name": "block_3_expand_relu", "trainable": true, "negative_slope": 0.0, "max_value": 6.0, "threshold": 0.0}}, {"class_name": "ZeroPadding2D", "name": "block_3_pad", "inbound_nodes": [[["block_3_expand_relu", 0, 0, {}]]], "config": {"padding": [[0, 1], [0, 1]], "name": "block_3_pad", "data_format": "channels_last", "trainable": true}}, {"class_name": "DepthwiseConv2D", "name": "block_3_depthwise", "inbound_nodes": [[["block_3_pad", 0, 0, {}]]], "config": {"kernel_size": [3, 3], "name": "block_3_depthwise", "strides": [2, 2], "use_bias": false, "data_format": "channels_last", "depth_multiplier": 1, "padding": "valid", "depthwise_constraint": null, "bias_constraint": null, "activity_regularizer": null, "bias_regularizer": null, "dilation_rate": [1, 1], "bias_initializer": {"class_name": "Zeros", "config": {}}, "activation": "linear", "depthwise_initializer": {"class_name": "VarianceScaling", "config": {"scale": 1.0, "mode": "fan_avg", "distribution": "uniform", "seed": null}}, "trainable": true, "depthwise_regularizer": null}}, {"class_name": "BatchNormalization", "name": "block_3_depthwise_BN", "inbound_nodes": [[["block_3_depthwise", 0, 0, {}]]], "config": {"momentum": 0.999, "epsilon": 0.001, "name": "block_3_depthwise_BN", "gamma_regularizer": null, "moving_mean_initializer": {"class_name": "Zeros", "config": {}}, "beta_regularizer": null, "center": true, "axis": -1, "scale": true, "beta_initializer": {"class_name": "Zeros", "config": {}}, "gamma_constraint": null, "moving_variance_initializer": {"class_name": "Ones", "config": {}}, "beta_constraint": null, "trainable": true, "gamma_initializer": {"class_name": "Ones", "config": {}}}}, {"class_name": "ReLU", "name": "block_3_depthwise_relu", "inbound_nodes": [[["block_3_depthwise_BN", 0, 0, {}]]], "config": {"name": "block_3_depthwise_relu", "trainable": true, "negative_slope": 0.0, "max_value": 6.0, "threshold": 0.0}}, {"class_name": "Conv2D", "name": "block_3_project", "inbound_nodes": [[["block_3_depthwise_relu", 0, 0, {}]]], "config": {"kernel_size": [1, 1], "name": "block_3_project", "dilation_rate": [1, 1], "strides": [1, 1], "use_bias": false, "data_format": "channels_last", "activity_regularizer": null, "padding": "same", "kernel_constraint": null, "bias_constraint": null, "kernel_regularizer": null, "bias_regularizer": null, "filters": 32, "bias_initializer": {"class_name": "Zeros", "config": {}}, "activation": "linear", "trainable": true, "kernel_initializer": {"class_name": "VarianceScaling", "config": {"scale": 1.0, "mode": "fan_avg", "distribution": "uniform", "seed": null}}}}, {"class_name": "BatchNormalization", "name": "block_3_project_BN", "inbound_nodes": [[["block_3_project", 0, 0, {}]]], "config": {"momentum": 0.999, "epsilon": 0.001, "name": "block_3_project_BN", "gamma_regularizer": null, "moving_mean_initializer": {"class_name": "Zeros", "config": {}}, "beta_regularizer": null, "center": true, "axis": -1, "scale": true, "beta_initializer": {"class_name": "Zeros", "config": {}}, "gamma_constraint": null, "moving_variance_initializer": {"class_name": "Ones", "config": {}}, "beta_constraint": null, "trainable": true, "gamma_initializer": {"class_name": "Ones", "config": {}}}}, {"class_name": "Conv2D", "name": "block_4_expand", "inbound_nodes": [[["block_3_project_BN", 0, 0, {}]]], "config": {"kernel_size": [1, 1], "name": "block_4_expand", "dilation_rate": [1, 1], "strides": [1, 1], "use_bias": false, "data_format": "channels_last", "activity_regularizer": null, "padding": "same", "kernel_constraint": null, "bias_constraint": null, "kernel_regularizer": null, "bias_regularizer": null, "filters": 192, "bias_initializer": {"class_name": "Zeros", "config": {}}, "activation": "linear", "trainable": true, "kernel_initializer": {"class_name": "VarianceScaling", "config": {"scale": 1.0, "mode": "fan_avg", "distribution": "uniform", "seed": null}}}}, {"class_name": "BatchNormalization", "name": "block_4_expand_BN", "inbound_nodes": [[["block_4_expand", 0, 0, {}]]], "config": {"momentum": 0.999, "epsilon": 0.001, "name": "block_4_expand_BN", "gamma_regularizer": null, "moving_mean_initializer": {"class_name": "Zeros", "config": {}}, "beta_regularizer": null, "center": true, "axis": -1, "scale": true, "beta_initializer": {"class_name": "Zeros", "config": {}}, "gamma_constraint": null, "moving_variance_initializer": {"class_name": "Ones", "config": {}}, "beta_constraint": null, "trainable": true, "gamma_initializer": {"class_name": "Ones", "config": {}}}}, {"class_name": "ReLU", "name": "block_4_expand_relu", "inbound_nodes": [[["block_4_expand_BN", 0, 0, {}]]], "config": {"name": "block_4_expand_relu", "trainable": true, "negative_slope": 0.0, "max_value": 6.0, "threshold": 0.0}}, {"class_name": "DepthwiseConv2D", "name": "block_4_depthwise", "inbound_nodes": [[["block_4_expand_relu", 0, 0, {}]]], "config": {"kernel_size": [3, 3], "name": "block_4_depthwise", "strides": [1, 1], "use_bias": false, "data_format": "channels_last", "depth_multiplier": 1, "padding": "same", "depthwise_constraint": null, "bias_constraint": null, "activity_regularizer": null, "bias_regularizer": null, "dilation_rate": [1, 1], "bias_initializer": {"class_name": "Zeros", "config": {}}, "activation": "linear", "depthwise_initializer": {"class_name": "VarianceScaling", "config": {"scale": 1.0, "mode": "fan_avg", "distribution": "uniform", "seed": null}}, "trainable": true, "depthwise_regularizer": null}}, {"class_name": "BatchNormalization", "name": "block_4_depthwise_BN", "inbound_nodes": [[["block_4_depthwise", 0, 0, {}]]], "config": {"momentum": 0.999, "epsilon": 0.001, "name": "block_4_depthwise_BN", "gamma_regularizer": null, "moving_mean_initializer": {"class_name": "Zeros", "config": {}}, "beta_regularizer": null, "center": true, "axis": -1, "scale": true, "beta_initializer": {"class_name": "Zeros", "config": {}}, "gamma_constraint": null, "moving_variance_initializer": {"class_name": "Ones", "config": {}}, "beta_constraint": null, "trainable": true, "gamma_initializer": {"class_name": "Ones", "config": {}}}}, {"class_name": "ReLU", "name": "block_4_depthwise_relu", "inbound_nodes": [[["block_4_depthwise_BN", 0, 0, {}]]], "config": {"name": "block_4_depthwise_relu", "trainable": true, "negative_slope": 0.0, "max_value": 6.0, "threshold": 0.0}}, {"class_name": "Conv2D", "name": "block_4_project", "inbound_nodes": [[["block_4_depthwise_relu", 0, 0, {}]]], "config": {"kernel_size": [1, 1], "name": "block_4_project", "dilation_rate": [1, 1], "strides": [1, 1], "use_bias": false, "data_format": "channels_last", "activity_regularizer": null, "padding": "same", "kernel_constraint": null, "bias_constraint": null, "kernel_regularizer": null, "bias_regularizer": null, "filters": 32, "bias_initializer": {"class_name": "Zeros", "config": {}}, "activation": "linear", "trainable": true, "kernel_initializer": {"class_name": "VarianceScaling", "config": {"scale": 1.0, "mode": "fan_avg", "distribution": "uniform", "seed": null}}}}, {"class_name": "BatchNormalization", "name": "block_4_project_BN", "inbound_nodes": [[["block_4_project", 0, 0, {}]]], "config": {"momentum": 0.999, "epsilon": 0.001, "name": "block_4_project_BN", "gamma_regularizer": null, "moving_mean_initializer": {"class_name": "Zeros", "config": {}}, "beta_regularizer": null, "center": true, "axis": -1, "scale": true, "beta_initializer": {"class_name": "Zeros", "config": {}}, "gamma_constraint": null, "moving_variance_initializer": {"class_name": "Ones", "config": {}}, "beta_constraint": null, "trainable": true, "gamma_initializer": {"class_name": "Ones", "config": {}}}}, {"class_name": "Add", "name": "block_4_add", "inbound_nodes": [[["block_3_project_BN", 0, 0, {}], ["block_4_project_BN", 0, 0, {}]]], "config": {"name": "block_4_add", "trainable": true}}, {"class_name": "Conv2D", "name": "block_5_expand", "inbound_nodes": [[["block_4_add", 0, 0, {}]]], "config": {"kernel_size": [1, 1], "name": "block_5_expand", "dilation_rate": [1, 1], "strides": [1, 1], "use_bias": false, "data_format": "channels_last", "activity_regularizer": null, "padding": "same", "kernel_constraint": null, "bias_constraint": null, "kernel_regularizer": null, "bias_regularizer": null, "filters": 192, "bias_initializer": {"class_name": "Zeros", "config": {}}, "activation": "linear", "trainable": true, "kernel_initializer": {"class_name": "VarianceScaling", "config": {"scale": 1.0, "mode": "fan_avg", "distribution": "uniform", "seed": null}}}}, {"class_name": "BatchNormalization", "name": "block_5_expand_BN", "inbound_nodes": [[["block_5_expand", 0, 0, {}]]], "config": {"momentum": 0.999, "epsilon": 0.001, "name": "block_5_expand_BN", "gamma_regularizer": null, "moving_mean_initializer": {"class_name": "Zeros", "config": {}}, "beta_regularizer": null, "center": true, "axis": -1, "scale": true, "beta_initializer": {"class_name": "Zeros", "config": {}}, "gamma_constraint": null, "moving_variance_initializer": {"class_name": "Ones", "config": {}}, "beta_constraint": null, "trainable": true, "gamma_initializer": {"class_name": "Ones", "config": {}}}}, {"class_name": "ReLU", "name": "block_5_expand_relu", "inbound_nodes": [[["block_5_expand_BN", 0, 0, {}]]], "config": {"name": "block_5_expand_relu", "trainable": true, "negative_slope": 0.0, "max_value": 6.0, "threshold": 0.0}}, {"class_name": "DepthwiseConv2D", "name": "block_5_depthwise", "inbound_nodes": [[["block_5_expand_relu", 0, 0, {}]]], "config": {"kernel_size": [3, 3], "name": "block_5_depthwise", "strides": [1, 1], "use_bias": false, "data_format": "channels_last", "depth_multiplier": 1, "padding": "same", "depthwise_constraint": null, "bias_constraint": null, "activity_regularizer": null, "bias_regularizer": null, "dilation_rate": [1, 1], "bias_initializer": {"class_name": "Zeros", "config": {}}, "activation": "linear", "depthwise_initializer": {"class_name": "VarianceScaling", "config": {"scale": 1.0, "mode": "fan_avg", "distribution": "uniform", "seed": null}}, "trainable": true, "depthwise_regularizer": null}}, {"class_name": "BatchNormalization", "name": "block_5_depthwise_BN", "inbound_nodes": [[["block_5_depthwise", 0, 0, {}]]], "config": {"momentum": 0.999, "epsilon": 0.001, "name": "block_5_depthwise_BN", "gamma_regularizer": null, "moving_mean_initializer": {"class_name": "Zeros", "config": {}}, "beta_regularizer": null, "center": true, "axis": -1, "scale": true, "beta_initializer": {"class_name": "Zeros", "config": {}}, "gamma_constraint": null, "moving_variance_initializer": {"class_name": "Ones", "config": {}}, "beta_constraint": null, "trainable": true, "gamma_initializer": {"class_name": "Ones", "config": {}}}}, {"class_name": "ReLU", "name": "block_5_depthwise_relu", "inbound_nodes": [[["block_5_depthwise_BN", 0, 0, {}]]], "config": {"name": "block_5_depthwise_relu", "trainable": true, "negative_slope": 0.0, "max_value": 6.0, "threshold": 0.0}}, {"class_name": "Conv2D", "name": "block_5_project", "inbound_nodes": [[["block_5_depthwise_relu", 0, 0, {}]]], "config": {"kernel_size": [1, 1], "name": "block_5_project", "dilation_rate": [1, 1], "strides": [1, 1], "use_bias": false, "data_format": "channels_last", "activity_regularizer": null, "padding": "same", "kernel_constraint": null, "bias_constraint": null, "kernel_regularizer": null, "bias_regularizer": null, "filters": 32, "bias_initializer": {"class_name": "Zeros", "config": {}}, "activation": "linear", "trainable": true, "kernel_initializer": {"class_name": "VarianceScaling", "config": {"scale": 1.0, "mode": "fan_avg", "distribution": "uniform", "seed": null}}}}, {"class_name": "BatchNormalization", "name": "block_5_project_BN", "inbound_nodes": [[["block_5_project", 0, 0, {}]]], "config": {"momentum": 0.999, "epsilon": 0.001, "name": "block_5_project_BN", "gamma_regularizer": null, "moving_mean_initializer": {"class_name": "Zeros", "config": {}}, "beta_regularizer": null, "center": true, "axis": -1, "scale": true, "beta_initializer": {"class_name": "Zeros", "config": {}}, "gamma_constraint": null, "moving_variance_initializer": {"class_name": "Ones", "config": {}}, "beta_constraint": null, "trainable": true, "gamma_initializer": {"class_name": "Ones", "config": {}}}}, {"class_name": "Add", "name": "block_5_add", "inbound_nodes": [[["block_4_add", 0, 0, {}], ["block_5_project_BN", 0, 0, {}]]], "config": {"name": "block_5_add", "trainable": true}}, {"class_name": "Conv2D", "name": "block_6_expand", "inbound_nodes": [[["block_5_add", 0, 0, {}]]], "config": {"kernel_size": [1, 1], "name": "block_6_expand", "dilation_rate": [1, 1], "strides": [1, 1], "use_bias": false, "data_format": "channels_last", "activity_regularizer": null, "padding": "same", "kernel_constraint": null, "bias_constraint": null, "kernel_regularizer": null, "bias_regularizer": null, "filters": 192, "bias_initializer": {"class_name": "Zeros", "config": {}}, "activation": "linear", "trainable": true, "kernel_initializer": {"class_name": "VarianceScaling", "config": {"scale": 1.0, "mode": "fan_avg", "distribution": "uniform", "seed": null}}}}, {"class_name": "BatchNormalization", "name": "block_6_expand_BN", "inbound_nodes": [[["block_6_expand", 0, 0, {}]]], "config": {"momentum": 0.999, "epsilon": 0.001, "name": "block_6_expand_BN", "gamma_regularizer": null, "moving_mean_initializer": {"class_name": "Zeros", "config": {}}, "beta_regularizer": null, "center": true, "axis": -1, "scale": true, "beta_initializer": {"class_name": "Zeros", "config": {}}, "gamma_constraint": null, "moving_variance_initializer": {"class_name": "Ones", "config": {}}, "beta_constraint": null, "trainable": true, "gamma_initializer": {"class_name": "Ones", "config": {}}}}, {"class_name": "ReLU", "name": "block_6_expand_relu", "inbound_nodes": [[["block_6_expand_BN", 0, 0, {}]]], "config": {"name": "block_6_expand_relu", "trainable": true, "negative_slope": 0.0, "max_value": 6.0, "threshold": 0.0}}, {"class_name": "ZeroPadding2D", "name": "block_6_pad", "inbound_nodes": [[["block_6_expand_relu", 0, 0, {}]]], "config": {"padding": [[0, 1], [0, 1]], "name": "block_6_pad", "data_format": "channels_last", "trainable": true}}, {"class_name": "DepthwiseConv2D", "name": "block_6_depthwise", "inbound_nodes": [[["block_6_pad", 0, 0, {}]]], "config": {"kernel_size": [3, 3], "name": "block_6_depthwise", "strides": [2, 2], "use_bias": false, "data_format": "channels_last", "depth_multiplier": 1, "padding": "valid", "depthwise_constraint": null, "bias_constraint": null, "activity_regularizer": null, "bias_regularizer": null, "dilation_rate": [1, 1], "bias_initializer": {"class_name": "Zeros", "config": {}}, "activation": "linear", "depthwise_initializer": {"class_name": "VarianceScaling", "config": {"scale": 1.0, "mode": "fan_avg", "distribution": "uniform", "seed": null}}, "trainable": true, "depthwise_regularizer": null}}, {"class_name": "BatchNormalization", "name": "block_6_depthwise_BN", "inbound_nodes": [[["block_6_depthwise", 0, 0, {}]]], "config": {"momentum": 0.999, "epsilon": 0.001, "name": "block_6_depthwise_BN", "gamma_regularizer": null, "moving_mean_initializer": {"class_name": "Zeros", "config": {}}, "beta_regularizer": null, "center": true, "axis": -1, "scale": true, "beta_initializer": {"class_name": "Zeros", "config": {}}, "gamma_constraint": null, "moving_variance_initializer": {"class_name": "Ones", "config": {}}, "beta_constraint": null, "trainable": true, "gamma_initializer": {"class_name": "Ones", "config": {}}}}, {"class_name": "ReLU", "name": "block_6_depthwise_relu", "inbound_nodes": [[["block_6_depthwise_BN", 0, 0, {}]]], "config": {"name": "block_6_depthwise_relu", "trainable": true, "negative_slope": 0.0, "max_value": 6.0, "threshold": 0.0}}, {"class_name": "Conv2D", "name": "block_6_project", "inbound_nodes": [[["block_6_depthwise_relu", 0, 0, {}]]], "config": {"kernel_size": [1, 1], "name": "block_6_project", "dilation_rate": [1, 1], "strides": [1, 1], "use_bias": false, "data_format": "channels_last", "activity_regularizer": null, "padding": "same", "kernel_constraint": null, "bias_constraint": null, "kernel_regularizer": null, "bias_regularizer": null, "filters": 64, "bias_initializer": {"class_name": "Zeros", "config": {}}, "activation": "linear", "trainable": true, "kernel_initializer": {"class_name": "VarianceScaling", "config": {"scale": 1.0, "mode": "fan_avg", "distribution": "uniform", "seed": null}}}}, {"class_name": "BatchNormalization", "name": "block_6_project_BN", "inbound_nodes": [[["block_6_project", 0, 0, {}]]], "config": {"momentum": 0.999, "epsilon": 0.001, "name": "block_6_project_BN", "gamma_regularizer": null, "moving_mean_initializer": {"class_name": "Zeros", "config": {}}, "beta_regularizer": null, "center": true, "axis": -1, "scale": true, "beta_initializer": {"class_name": "Zeros", "config": {}}, "gamma_constraint": null, "moving_variance_initializer": {"class_name": "Ones", "config": {}}, "beta_constraint": null, "trainable": true, "gamma_initializer": {"class_name": "Ones", "config": {}}}}, {"class_name": "Conv2D", "name": "block_7_expand", "inbound_nodes": [[["block_6_project_BN", 0, 0, {}]]], "config": {"kernel_size": [1, 1], "name": "block_7_expand", "dilation_rate": [1, 1], "strides": [1, 1], "use_bias": false, "data_format": "channels_last", "activity_regularizer": null, "padding": "same", "kernel_constraint": null, "bias_constraint": null, "kernel_regularizer": null, "bias_regularizer": null, "filters": 384, "bias_initializer": {"class_name": "Zeros", "config": {}}, "activation": "linear", "trainable": true, "kernel_initializer": {"class_name": "VarianceScaling", "config": {"scale": 1.0, "mode": "fan_avg", "distribution": "uniform", "seed": null}}}}, {"class_name": "BatchNormalization", "name": "block_7_expand_BN", "inbound_nodes": [[["block_7_expand", 0, 0, {}]]], "config": {"momentum": 0.999, "epsilon": 0.001, "name": "block_7_expand_BN", "gamma_regularizer": null, "moving_mean_initializer": {"class_name": "Zeros", "config": {}}, "beta_regularizer": null, "center": true, "axis": -1, "scale": true, "beta_initializer": {"class_name": "Zeros", "config": {}}, "gamma_constraint": null, "moving_variance_initializer": {"class_name": "Ones", "config": {}}, "beta_constraint": null, "trainable": true, "gamma_initializer": {"class_name": "Ones", "config": {}}}}, {"class_name": "ReLU", "name": "block_7_expand_relu", "inbound_nodes": [[["block_7_expand_BN", 0, 0, {}]]], "config": {"name": "block_7_expand_relu", "trainable": true, "negative_slope": 0.0, "max_value": 6.0, "threshold": 0.0}}, {"class_name": "DepthwiseConv2D", "name": "block_7_depthwise", "inbound_nodes": [[["block_7_expand_relu", 0, 0, {}]]], "config": {"kernel_size": [3, 3], "name": "block_7_depthwise", "strides": [1, 1], "use_bias": false, "data_format": "channels_last", "depth_multiplier": 1, "padding": "same", "depthwise_constraint": null, "bias_constraint": null, "activity_regularizer": null, "bias_regularizer": null, "dilation_rate": [1, 1], "bias_initializer": {"class_name": "Zeros", "config": {}}, "activation": "linear", "depthwise_initializer": {"class_name": "VarianceScaling", "config": {"scale": 1.0, "mode": "fan_avg", "distribution": "uniform", "seed": null}}, "trainable": true, "depthwise_regularizer": null}}, {"class_name": "BatchNormalization", "name": "block_7_depthwise_BN", "inbound_nodes": [[["block_7_depthwise", 0, 0, {}]]], "config": {"momentum": 0.999, "epsilon": 0.001, "name": "block_7_depthwise_BN", "gamma_regularizer": null, "moving_mean_initializer": {"class_name": "Zeros", "config": {}}, "beta_regularizer": null, "center": true, "axis": -1, "scale": true, "beta_initializer": {"class_name": "Zeros", "config": {}}, "gamma_constraint": null, "moving_variance_initializer": {"class_name": "Ones", "config": {}}, "beta_constraint": null, "trainable": true, "gamma_initializer": {"class_name": "Ones", "config": {}}}}, {"class_name": "ReLU", "name": "block_7_depthwise_relu", "inbound_nodes": [[["block_7_depthwise_BN", 0, 0, {}]]], "config": {"name": "block_7_depthwise_relu", "trainable": true, "negative_slope": 0.0, "max_value": 6.0, "threshold": 0.0}}, {"class_name": "Conv2D", "name": "block_7_project", "inbound_nodes": [[["block_7_depthwise_relu", 0, 0, {}]]], "config": {"kernel_size": [1, 1], "name": "block_7_project", "dilation_rate": [1, 1], "strides": [1, 1], "use_bias": false, "data_format": "channels_last", "activity_regularizer": null, "padding": "same", "kernel_constraint": null, "bias_constraint": null, "kernel_regularizer": null, "bias_regularizer": null, "filters": 64, "bias_initializer": {"class_name": "Zeros", "config": {}}, "activation": "linear", "trainable": true, "kernel_initializer": {"class_name": "VarianceScaling", "config": {"scale": 1.0, "mode": "fan_avg", "distribution": "uniform", "seed": null}}}}, {"class_name": "BatchNormalization", "name": "block_7_project_BN", "inbound_nodes": [[["block_7_project", 0, 0, {}]]], "config": {"momentum": 0.999, "epsilon": 0.001, "name": "block_7_project_BN", "gamma_regularizer": null, "moving_mean_initializer": {"class_name": "Zeros", "config": {}}, "beta_regularizer": null, "center": true, "axis": -1, "scale": true, "beta_initializer": {"class_name": "Zeros", "config": {}}, "gamma_constraint": null, "moving_variance_initializer": {"class_name": "Ones", "config": {}}, "beta_constraint": null, "trainable": true, "gamma_initializer": {"class_name": "Ones", "config": {}}}}, {"class_name": "Add", "name": "block_7_add", "inbound_nodes": [[["block_6_project_BN", 0, 0, {}], ["block_7_project_BN", 0, 0, {}]]], "config": {"name": "block_7_add", "trainable": true}}, {"class_name": "Conv2D", "name": "block_8_expand", "inbound_nodes": [[["block_7_add", 0, 0, {}]]], "config": {"kernel_size": [1, 1], "name": "block_8_expand", "dilation_rate": [1, 1], "strides": [1, 1], "use_bias": false, "data_format": "channels_last", "activity_regularizer": null, "padding": "same", "kernel_constraint": null, "bias_constraint": null, "kernel_regularizer": null, "bias_regularizer": null, "filters": 384, "bias_initializer": {"class_name": "Zeros", "config": {}}, "activation": "linear", "trainable": true, "kernel_initializer": {"class_name": "VarianceScaling", "config": {"scale": 1.0, "mode": "fan_avg", "distribution": "uniform", "seed": null}}}}, {"class_name": "BatchNormalization", "name": "block_8_expand_BN", "inbound_nodes": [[["block_8_expand", 0, 0, {}]]], "config": {"momentum": 0.999, "epsilon": 0.001, "name": "block_8_expand_BN", "gamma_regularizer": null, "moving_mean_initializer": {"class_name": "Zeros", "config": {}}, "beta_regularizer": null, "center": true, "axis": -1, "scale": true, "beta_initializer": {"class_name": "Zeros", "config": {}}, "gamma_constraint": null, "moving_variance_initializer": {"class_name": "Ones", "config": {}}, "beta_constraint": null, "trainable": true, "gamma_initializer": {"class_name": "Ones", "config": {}}}}, {"class_name": "ReLU", "name": "block_8_expand_relu", "inbound_nodes": [[["block_8_expand_BN", 0, 0, {}]]], "config": {"name": "block_8_expand_relu", "trainable": true, "negative_slope": 0.0, "max_value": 6.0, "threshold": 0.0}}, {"class_name": "DepthwiseConv2D", "name": "block_8_depthwise", "inbound_nodes": [[["block_8_expand_relu", 0, 0, {}]]], "config": {"kernel_size": [3, 3], "name": "block_8_depthwise", "strides": [1, 1], "use_bias": false, "data_format": "channels_last", "depth_multiplier": 1, "padding": "same", "depthwise_constraint": null, "bias_constraint": null, "activity_regularizer": null, "bias_regularizer": null, "dilation_rate": [1, 1], "bias_initializer": {"class_name": "Zeros", "config": {}}, "activation": "linear", "depthwise_initializer": {"class_name": "VarianceScaling", "config": {"scale": 1.0, "mode": "fan_avg", "distribution": "uniform", "seed": null}}, "trainable": true, "depthwise_regularizer": null}}, {"class_name": "BatchNormalization", "name": "block_8_depthwise_BN", "inbound_nodes": [[["block_8_depthwise", 0, 0, {}]]], "config": {"momentum": 0.999, "epsilon": 0.001, "name": "block_8_depthwise_BN", "gamma_regularizer": null, "moving_mean_initializer": {"class_name": "Zeros", "config": {}}, "beta_regularizer": null, "center": true, "axis": -1, "scale": true, "beta_initializer": {"class_name": "Zeros", "config": {}}, "gamma_constraint": null, "moving_variance_initializer": {"class_name": "Ones", "config": {}}, "beta_constraint": null, "trainable": true, "gamma_initializer": {"class_name": "Ones", "config": {}}}}, {"class_name": "ReLU", "name": "block_8_depthwise_relu", "inbound_nodes": [[["block_8_depthwise_BN", 0, 0, {}]]], "config": {"name": "block_8_depthwise_relu", "trainable": true, "negative_slope": 0.0, "max_value": 6.0, "threshold": 0.0}}, {"class_name": "Conv2D", "name": "block_8_project", "inbound_nodes": [[["block_8_depthwise_relu", 0, 0, {}]]], "config": {"kernel_size": [1, 1], "name": "block_8_project", "dilation_rate": [1, 1], "strides": [1, 1], "use_bias": false, "data_format": "channels_last", "activity_regularizer": null, "padding": "same", "kernel_constraint": null, "bias_constraint": null, "kernel_regularizer": null, "bias_regularizer": null, "filters": 64, "bias_initializer": {"class_name": "Zeros", "config": {}}, "activation": "linear", "trainable": true, "kernel_initializer": {"class_name": "VarianceScaling", "config": {"scale": 1.0, "mode": "fan_avg", "distribution": "uniform", "seed": null}}}}, {"class_name": "BatchNormalization", "name": "block_8_project_BN", "inbound_nodes": [[["block_8_project", 0, 0, {}]]], "config": {"momentum": 0.999, "epsilon": 0.001, "name": "block_8_project_BN", "gamma_regularizer": null, "moving_mean_initializer": {"class_name": "Zeros", "config": {}}, "beta_regularizer": null, "center": true, "axis": -1, "scale": true, "beta_initializer": {"class_name": "Zeros", "config": {}}, "gamma_constraint": null, "moving_variance_initializer": {"class_name": "Ones", "config": {}}, "beta_constraint": null, "trainable": true, "gamma_initializer": {"class_name": "Ones", "config": {}}}}, {"class_name": "Add", "name": "block_8_add", "inbound_nodes": [[["block_7_add", 0, 0, {}], ["block_8_project_BN", 0, 0, {}]]], "config": {"name": "block_8_add", "trainable": true}}, {"class_name": "Conv2D", "name": "block_9_expand", "inbound_nodes": [[["block_8_add", 0, 0, {}]]], "config": {"kernel_size": [1, 1], "name": "block_9_expand", "dilation_rate": [1, 1], "strides": [1, 1], "use_bias": false, "data_format": "channels_last", "activity_regularizer": null, "padding": "same", "kernel_constraint": null, "bias_constraint": null, "kernel_regularizer": null, "bias_regularizer": null, "filters": 384, "bias_initializer": {"class_name": "Zeros", "config": {}}, "activation": "linear", "trainable": true, "kernel_initializer": {"class_name": "VarianceScaling", "config": {"scale": 1.0, "mode": "fan_avg", "distribution": "uniform", "seed": null}}}}, {"class_name": "BatchNormalization", "name": "block_9_expand_BN", "inbound_nodes": [[["block_9_expand", 0, 0, {}]]], "config": {"momentum": 0.999, "epsilon": 0.001, "name": "block_9_expand_BN", "gamma_regularizer": null, "moving_mean_initializer": {"class_name": "Zeros", "config": {}}, "beta_regularizer": null, "center": true, "axis": -1, "scale": true, "beta_initializer": {"class_name": "Zeros", "config": {}}, "gamma_constraint": null, "moving_variance_initializer": {"class_name": "Ones", "config": {}}, "beta_constraint": null, "trainable": true, "gamma_initializer": {"class_name": "Ones", "config": {}}}}, {"class_name": "ReLU", "name": "block_9_expand_relu", "inbound_nodes": [[["block_9_expand_BN", 0, 0, {}]]], "config": {"name": "block_9_expand_relu", "trainable": true, "negative_slope": 0.0, "max_value": 6.0, "threshold": 0.0}}, {"class_name": "DepthwiseConv2D", "name": "block_9_depthwise", "inbound_nodes": [[["block_9_expand_relu", 0, 0, {}]]], "config": {"kernel_size": [3, 3], "name": "block_9_depthwise", "strides": [1, 1], "use_bias": false, "data_format": "channels_last", "depth_multiplier": 1, "padding": "same", "depthwise_constraint": null, "bias_constraint": null, "activity_regularizer": null, "bias_regularizer": null, "dilation_rate": [1, 1], "bias_initializer": {"class_name": "Zeros", "config": {}}, "activation": "linear", "depthwise_initializer": {"class_name": "VarianceScaling", "config": {"scale": 1.0, "mode": "fan_avg", "distribution": "uniform", "seed": null}}, "trainable": true, "depthwise_regularizer": null}}, {"class_name": "BatchNormalization", "name": "block_9_depthwise_BN", "inbound_nodes": [[["block_9_depthwise", 0, 0, {}]]], "config": {"momentum": 0.999, "epsilon": 0.001, "name": "block_9_depthwise_BN", "gamma_regularizer": null, "moving_mean_initializer": {"class_name": "Zeros", "config": {}}, "beta_regularizer": null, "center": true, "axis": -1, "scale": true, "beta_initializer": {"class_name": "Zeros", "config": {}}, "gamma_constraint": null, "moving_variance_initializer": {"class_name": "Ones", "config": {}}, "beta_constraint": null, "trainable": true, "gamma_initializer": {"class_name": "Ones", "config": {}}}}, {"class_name": "ReLU", "name": "block_9_depthwise_relu", "inbound_nodes": [[["block_9_depthwise_BN", 0, 0, {}]]], "config": {"name": "block_9_depthwise_relu", "trainable": true, "negative_slope": 0.0, "max_value": 6.0, "threshold": 0.0}}, {"class_name": "Conv2D", "name": "block_9_project", "inbound_nodes": [[["block_9_depthwise_relu", 0, 0, {}]]], "config": {"kernel_size": [1, 1], "name": "block_9_project", "dilation_rate": [1, 1], "strides": [1, 1], "use_bias": false, "data_format": "channels_last", "activity_regularizer": null, "padding": "same", "kernel_constraint": null, "bias_constraint": null, "kernel_regularizer": null, "bias_regularizer": null, "filters": 64, "bias_initializer": {"class_name": "Zeros", "config": {}}, "activation": "linear", "trainable": true, "kernel_initializer": {"class_name": "VarianceScaling", "config": {"scale": 1.0, "mode": "fan_avg", "distribution": "uniform", "seed": null}}}}, {"class_name": "BatchNormalization", "name": "block_9_project_BN", "inbound_nodes": [[["block_9_project", 0, 0, {}]]], "config": {"momentum": 0.999, "epsilon": 0.001, "name": "block_9_project_BN", "gamma_regularizer": null, "moving_mean_initializer": {"class_name": "Zeros", "config": {}}, "beta_regularizer": null, "center": true, "axis": -1, "scale": true, "beta_initializer": {"class_name": "Zeros", "config": {}}, "gamma_constraint": null, "moving_variance_initializer": {"class_name": "Ones", "config": {}}, "beta_constraint": null, "trainable": true, "gamma_initializer": {"class_name": "Ones", "config": {}}}}, {"class_name": "Add", "name": "block_9_add", "inbound_nodes": [[["block_8_add", 0, 0, {}], ["block_9_project_BN", 0, 0, {}]]], "config": {"name": "block_9_add", "trainable": true}}, {"class_name": "Conv2D", "name": "block_10_expand", "inbound_nodes": [[["block_9_add", 0, 0, {}]]], "config": {"kernel_size": [1, 1], "name": "block_10_expand", "dilation_rate": [1, 1], "strides": [1, 1], "use_bias": false, "data_format": "channels_last", "activity_regularizer": null, "padding": "same", "kernel_constraint": null, "bias_constraint": null, "kernel_regularizer": null, "bias_regularizer": null, "filters": 384, "bias_initializer": {"class_name": "Zeros", "config": {}}, "activation": "linear", "trainable": true, "kernel_initializer": {"class_name": "VarianceScaling", "config": {"scale": 1.0, "mode": "fan_avg", "distribution": "uniform", "seed": null}}}}, {"class_name": "BatchNormalization", "name": "block_10_expand_BN", "inbound_nodes": [[["block_10_expand", 0, 0, {}]]], "config": {"momentum": 0.999, "epsilon": 0.001, "name": "block_10_expand_BN", "gamma_regularizer": null, "moving_mean_initializer": {"class_name": "Zeros", "config": {}}, "beta_regularizer": null, "center": true, "axis": -1, "scale": true, "beta_initializer": {"class_name": "Zeros", "config": {}}, "gamma_constraint": null, "moving_variance_initializer": {"class_name": "Ones", "config": {}}, "beta_constraint": null, "trainable": true, "gamma_initializer": {"class_name": "Ones", "config": {}}}}, {"class_name": "ReLU", "name": "block_10_expand_relu", "inbound_nodes": [[["block_10_expand_BN", 0, 0, {}]]], "config": {"name": "block_10_expand_relu", "trainable": true, "negative_slope": 0.0, "max_value": 6.0, "threshold": 0.0}}, {"class_name": "DepthwiseConv2D", "name": "block_10_depthwise", "inbound_nodes": [[["block_10_expand_relu", 0, 0, {}]]], "config": {"kernel_size": [3, 3], "name": "block_10_depthwise", "strides": [1, 1], "use_bias": false, "data_format": "channels_last", "depth_multiplier": 1, "padding": "same", "depthwise_constraint": null, "bias_constraint": null, "activity_regularizer": null, "bias_regularizer": null, "dilation_rate": [1, 1], "bias_initializer": {"class_name": "Zeros", "config": {}}, "activation": "linear", "depthwise_initializer": {"class_name": "VarianceScaling", "config": {"scale": 1.0, "mode": "fan_avg", "distribution": "uniform", "seed": null}}, "trainable": true, "depthwise_regularizer": null}}, {"class_name": "BatchNormalization", "name": "block_10_depthwise_BN", "inbound_nodes": [[["block_10_depthwise", 0, 0, {}]]], "config": {"momentum": 0.999, "epsilon": 0.001, "name": "block_10_depthwise_BN", "gamma_regularizer": null, "moving_mean_initializer": {"class_name": "Zeros", "config": {}}, "beta_regularizer": null, "center": true, "axis": -1, "scale": true, "beta_initializer": {"class_name": "Zeros", "config": {}}, "gamma_constraint": null, "moving_variance_initializer": {"class_name": "Ones", "config": {}}, "beta_constraint": null, "trainable": true, "gamma_initializer": {"class_name": "Ones", "config": {}}}}, {"class_name": "ReLU", "name": "block_10_depthwise_relu", "inbound_nodes": [[["block_10_depthwise_BN", 0, 0, {}]]], "config": {"name": "block_10_depthwise_relu", "trainable": true, "negative_slope": 0.0, "max_value": 6.0, "threshold": 0.0}}, {"class_name": "Conv2D", "name": "block_10_project", "inbound_nodes": [[["block_10_depthwise_relu", 0, 0, {}]]], "config": {"kernel_size": [1, 1], "name": "block_10_project", "dilation_rate": [1, 1], "strides": [1, 1], "use_bias": false, "data_format": "channels_last", "activity_regularizer": null, "padding": "same", "kernel_constraint": null, "bias_constraint": null, "kernel_regularizer": null, "bias_regularizer": null, "filters": 96, "bias_initializer": {"class_name": "Zeros", "config": {}}, "activation": "linear", "trainable": true, "kernel_initializer": {"class_name": "VarianceScaling", "config": {"scale": 1.0, "mode": "fan_avg", "distribution": "uniform", "seed": null}}}}, {"class_name": "BatchNormalization", "name": "block_10_project_BN", "inbound_nodes": [[["block_10_project", 0, 0, {}]]], "config": {"momentum": 0.999, "epsilon": 0.001, "name": "block_10_project_BN", "gamma_regularizer": null, "moving_mean_initializer": {"class_name": "Zeros", "config": {}}, "beta_regularizer": null, "center": true, "axis": -1, "scale": true, "beta_initializer": {"class_name": "Zeros", "config": {}}, "gamma_constraint": null, "moving_variance_initializer": {"class_name": "Ones", "config": {}}, "beta_constraint": null, "trainable": true, "gamma_initializer": {"class_name": "Ones", "config": {}}}}, {"class_name": "Conv2D", "name": "block_11_expand", "inbound_nodes": [[["block_10_project_BN", 0, 0, {}]]], "config": {"kernel_size": [1, 1], "name": "block_11_expand", "dilation_rate": [1, 1], "strides": [1, 1], "use_bias": false, "data_format": "channels_last", "activity_regularizer": null, "padding": "same", "kernel_constraint": null, "bias_constraint": null, "kernel_regularizer": null, "bias_regularizer": null, "filters": 576, "bias_initializer": {"class_name": "Zeros", "config": {}}, "activation": "linear", "trainable": true, "kernel_initializer": {"class_name": "VarianceScaling", "config": {"scale": 1.0, "mode": "fan_avg", "distribution": "uniform", "seed": null}}}}, {"class_name": "BatchNormalization", "name": "block_11_expand_BN", "inbound_nodes": [[["block_11_expand", 0, 0, {}]]], "config": {"momentum": 0.999, "epsilon": 0.001, "name": "block_11_expand_BN", "gamma_regularizer": null, "moving_mean_initializer": {"class_name": "Zeros", "config": {}}, "beta_regularizer": null, "center": true, "axis": -1, "scale": true, "beta_initializer": {"class_name": "Zeros", "config": {}}, "gamma_constraint": null, "moving_variance_initializer": {"class_name": "Ones", "config": {}}, "beta_constraint": null, "trainable": true, "gamma_initializer": {"class_name": "Ones", "config": {}}}}, {"class_name": "ReLU", "name": "block_11_expand_relu", "inbound_nodes": [[["block_11_expand_BN", 0, 0, {}]]], "config": {"name": "block_11_expand_relu", "trainable": true, "negative_slope": 0.0, "max_value": 6.0, "threshold": 0.0}}, {"class_name": "DepthwiseConv2D", "name": "block_11_depthwise", "inbound_nodes": [[["block_11_expand_relu", 0, 0, {}]]], "config": {"kernel_size": [3, 3], "name": "block_11_depthwise", "strides": [1, 1], "use_bias": false, "data_format": "channels_last", "depth_multiplier": 1, "padding": "same", "depthwise_constraint": null, "bias_constraint": null, "activity_regularizer": null, "bias_regularizer": null, "dilation_rate": [1, 1], "bias_initializer": {"class_name": "Zeros", "config": {}}, "activation": "linear", "depthwise_initializer": {"class_name": "VarianceScaling", "config": {"scale": 1.0, "mode": "fan_avg", "distribution": "uniform", "seed": null}}, "trainable": true, "depthwise_regularizer": null}}, {"class_name": "BatchNormalization", "name": "block_11_depthwise_BN", "inbound_nodes": [[["block_11_depthwise", 0, 0, {}]]], "config": {"momentum": 0.999, "epsilon": 0.001, "name": "block_11_depthwise_BN", "gamma_regularizer": null, "moving_mean_initializer": {"class_name": "Zeros", "config": {}}, "beta_regularizer": null, "center": true, "axis": -1, "scale": true, "beta_initializer": {"class_name": "Zeros", "config": {}}, "gamma_constraint": null, "moving_variance_initializer": {"class_name": "Ones", "config": {}}, "beta_constraint": null, "trainable": true, "gamma_initializer": {"class_name": "Ones", "config": {}}}}, {"class_name": "ReLU", "name": "block_11_depthwise_relu", "inbound_nodes": [[["block_11_depthwise_BN", 0, 0, {}]]], "config": {"name": "block_11_depthwise_relu", "trainable": true, "negative_slope": 0.0, "max_value": 6.0, "threshold": 0.0}}, {"class_name": "Conv2D", "name": "block_11_project", "inbound_nodes": [[["block_11_depthwise_relu", 0, 0, {}]]], "config": {"kernel_size": [1, 1], "name": "block_11_project", "dilation_rate": [1, 1], "strides": [1, 1], "use_bias": false, "data_format": "channels_last", "activity_regularizer": null, "padding": "same", "kernel_constraint": null, "bias_constraint": null, "kernel_regularizer": null, "bias_regularizer": null, "filters": 96, "bias_initializer": {"class_name": "Zeros", "config": {}}, "activation": "linear", "trainable": true, "kernel_initializer": {"class_name": "VarianceScaling", "config": {"scale": 1.0, "mode": "fan_avg", "distribution": "uniform", "seed": null}}}}, {"class_name": "BatchNormalization", "name": "block_11_project_BN", "inbound_nodes": [[["block_11_project", 0, 0, {}]]], "config": {"momentum": 0.999, "epsilon": 0.001, "name": "block_11_project_BN", "gamma_regularizer": null, "moving_mean_initializer": {"class_name": "Zeros", "config": {}}, "beta_regularizer": null, "center": true, "axis": -1, "scale": true, "beta_initializer": {"class_name": "Zeros", "config": {}}, "gamma_constraint": null, "moving_variance_initializer": {"class_name": "Ones", "config": {}}, "beta_constraint": null, "trainable": true, "gamma_initializer": {"class_name": "Ones", "config": {}}}}, {"class_name": "Add", "name": "block_11_add", "inbound_nodes": [[["block_10_project_BN", 0, 0, {}], ["block_11_project_BN", 0, 0, {}]]], "config": {"name": "block_11_add", "trainable": true}}, {"class_name": "Conv2D", "name": "block_12_expand", "inbound_nodes": [[["block_11_add", 0, 0, {}]]], "config": {"kernel_size": [1, 1], "name": "block_12_expand", "dilation_rate": [1, 1], "strides": [1, 1], "use_bias": false, "data_format": "channels_last", "activity_regularizer": null, "padding": "same", "kernel_constraint": null, "bias_constraint": null, "kernel_regularizer": null, "bias_regularizer": null, "filters": 576, "bias_initializer": {"class_name": "Zeros", "config": {}}, "activation": "linear", "trainable": true, "kernel_initializer": {"class_name": "VarianceScaling", "config": {"scale": 1.0, "mode": "fan_avg", "distribution": "uniform", "seed": null}}}}, {"class_name": "BatchNormalization", "name": "block_12_expand_BN", "inbound_nodes": [[["block_12_expand", 0, 0, {}]]], "config": {"momentum": 0.999, "epsilon": 0.001, "name": "block_12_expand_BN", "gamma_regularizer": null, "moving_mean_initializer": {"class_name": "Zeros", "config": {}}, "beta_regularizer": null, "center": true, "axis": -1, "scale": true, "beta_initializer": {"class_name": "Zeros", "config": {}}, "gamma_constraint": null, "moving_variance_initializer": {"class_name": "Ones", "config": {}}, "beta_constraint": null, "trainable": true, "gamma_initializer": {"class_name": "Ones", "config": {}}}}, {"class_name": "ReLU", "name": "block_12_expand_relu", "inbound_nodes": [[["block_12_expand_BN", 0, 0, {}]]], "config": {"name": "block_12_expand_relu", "trainable": true, "negative_slope": 0.0, "max_value": 6.0, "threshold": 0.0}}, {"class_name": "DepthwiseConv2D", "name": "block_12_depthwise", "inbound_nodes": [[["block_12_expand_relu", 0, 0, {}]]], "config": {"kernel_size": [3, 3], "name": "block_12_depthwise", "strides": [1, 1], "use_bias": false, "data_format": "channels_last", "depth_multiplier": 1, "padding": "same", "depthwise_constraint": null, "bias_constraint": null, "activity_regularizer": null, "bias_regularizer": null, "dilation_rate": [1, 1], "bias_initializer": {"class_name": "Zeros", "config": {}}, "activation": "linear", "depthwise_initializer": {"class_name": "VarianceScaling", "config": {"scale": 1.0, "mode": "fan_avg", "distribution": "uniform", "seed": null}}, "trainable": true, "depthwise_regularizer": null}}, {"class_name": "BatchNormalization", "name": "block_12_depthwise_BN", "inbound_nodes": [[["block_12_depthwise", 0, 0, {}]]], "config": {"momentum": 0.999, "epsilon": 0.001, "name": "block_12_depthwise_BN", "gamma_regularizer": null, "moving_mean_initializer": {"class_name": "Zeros", "config": {}}, "beta_regularizer": null, "center": true, "axis": -1, "scale": true, "beta_initializer": {"class_name": "Zeros", "config": {}}, "gamma_constraint": null, "moving_variance_initializer": {"class_name": "Ones", "config": {}}, "beta_constraint": null, "trainable": true, "gamma_initializer": {"class_name": "Ones", "config": {}}}}, {"class_name": "ReLU", "name": "block_12_depthwise_relu", "inbound_nodes": [[["block_12_depthwise_BN", 0, 0, {}]]], "config": {"name": "block_12_depthwise_relu", "trainable": true, "negative_slope": 0.0, "max_value": 6.0, "threshold": 0.0}}, {"class_name": "Conv2D", "name": "block_12_project", "inbound_nodes": [[["block_12_depthwise_relu", 0, 0, {}]]], "config": {"kernel_size": [1, 1], "name": "block_12_project", "dilation_rate": [1, 1], "strides": [1, 1], "use_bias": false, "data_format": "channels_last", "activity_regularizer": null, "padding": "same", "kernel_constraint": null, "bias_constraint": null, "kernel_regularizer": null, "bias_regularizer": null, "filters": 96, "bias_initializer": {"class_name": "Zeros", "config": {}}, "activation": "linear", "trainable": true, "kernel_initializer": {"class_name": "VarianceScaling", "config": {"scale": 1.0, "mode": "fan_avg", "distribution": "uniform", "seed": null}}}}, {"class_name": "BatchNormalization", "name": "block_12_project_BN", "inbound_nodes": [[["block_12_project", 0, 0, {}]]], "config": {"momentum": 0.999, "epsilon": 0.001, "name": "block_12_project_BN", "gamma_regularizer": null, "moving_mean_initializer": {"class_name": "Zeros", "config": {}}, "beta_regularizer": null, "center": true, "axis": -1, "scale": true, "beta_initializer": {"class_name": "Zeros", "config": {}}, "gamma_constraint": null, "moving_variance_initializer": {"class_name": "Ones", "config": {}}, "beta_constraint": null, "trainable": true, "gamma_initializer": {"class_name": "Ones", "config": {}}}}, {"class_name": "Add", "name": "block_12_add", "inbound_nodes": [[["block_11_add", 0, 0, {}], ["block_12_project_BN", 0, 0, {}]]], "config": {"name": "block_12_add", "trainable": true}}, {"class_name": "Conv2D", "name": "block_13_expand", "inbound_nodes": [[["block_12_add", 0, 0, {}]]], "config": {"kernel_size": [1, 1], "name": "block_13_expand", "dilation_rate": [1, 1], "strides": [1, 1], "use_bias": false, "data_format": "channels_last", "activity_regularizer": null, "padding": "same", "kernel_constraint": null, "bias_constraint": null, "kernel_regularizer": null, "bias_regularizer": null, "filters": 576, "bias_initializer": {"class_name": "Zeros", "config": {}}, "activation": "linear", "trainable": true, "kernel_initializer": {"class_name": "VarianceScaling", "config": {"scale": 1.0, "mode": "fan_avg", "distribution": "uniform", "seed": null}}}}, {"class_name": "BatchNormalization", "name": "block_13_expand_BN", "inbound_nodes": [[["block_13_expand", 0, 0, {}]]], "config": {"momentum": 0.999, "epsilon": 0.001, "name": "block_13_expand_BN", "gamma_regularizer": null, "moving_mean_initializer": {"class_name": "Zeros", "config": {}}, "beta_regularizer": null, "center": true, "axis": -1, "scale": true, "beta_initializer": {"class_name": "Zeros", "config": {}}, "gamma_constraint": null, "moving_variance_initializer": {"class_name": "Ones", "config": {}}, "beta_constraint": null, "trainable": true, "gamma_initializer": {"class_name": "Ones", "config": {}}}}, {"class_name": "ReLU", "name": "block_13_expand_relu", "inbound_nodes": [[["block_13_expand_BN", 0, 0, {}]]], "config": {"name": "block_13_expand_relu", "trainable": true, "negative_slope": 0.0, "max_value": 6.0, "threshold": 0.0}}, {"class_name": "ZeroPadding2D", "name": "block_13_pad", "inbound_nodes": [[["block_13_expand_relu", 0, 0, {}]]], "config": {"padding": [[0, 1], [0, 1]], "name": "block_13_pad", "data_format": "channels_last", "trainable": true}}, {"class_name": "DepthwiseConv2D", "name": "block_13_depthwise", "inbound_nodes": [[["block_13_pad", 0, 0, {}]]], "config": {"kernel_size": [3, 3], "name": "block_13_depthwise", "strides": [2, 2], "use_bias": false, "data_format": "channels_last", "depth_multiplier": 1, "padding": "valid", "depthwise_constraint": null, "bias_constraint": null, "activity_regularizer": null, "bias_regularizer": null, "dilation_rate": [1, 1], "bias_initializer": {"class_name": "Zeros", "config": {}}, "activation": "linear", "depthwise_initializer": {"class_name": "VarianceScaling", "config": {"scale": 1.0, "mode": "fan_avg", "distribution": "uniform", "seed": null}}, "trainable": true, "depthwise_regularizer": null}}, {"class_name": "BatchNormalization", "name": "block_13_depthwise_BN", "inbound_nodes": [[["block_13_depthwise", 0, 0, {}]]], "config": {"momentum": 0.999, "epsilon": 0.001, "name": "block_13_depthwise_BN", "gamma_regularizer": null, "moving_mean_initializer": {"class_name": "Zeros", "config": {}}, "beta_regularizer": null, "center": true, "axis": -1, "scale": true, "beta_initializer": {"class_name": "Zeros", "config": {}}, "gamma_constraint": null, "moving_variance_initializer": {"class_name": "Ones", "config": {}}, "beta_constraint": null, "trainable": true, "gamma_initializer": {"class_name": "Ones", "config": {}}}}, {"class_name": "ReLU", "name": "block_13_depthwise_relu", "inbound_nodes": [[["block_13_depthwise_BN", 0, 0, {}]]], "config": {"name": "block_13_depthwise_relu", "trainable": true, "negative_slope": 0.0, "max_value": 6.0, "threshold": 0.0}}, {"class_name": "Conv2D", "name": "block_13_project", "inbound_nodes": [[["block_13_depthwise_relu", 0, 0, {}]]], "config": {"kernel_size": [1, 1], "name": "block_13_project", "dilation_rate": [1, 1], "strides": [1, 1], "use_bias": false, "data_format": "channels_last", "activity_regularizer": null, "padding": "same", "kernel_constraint": null, "bias_constraint": null, "kernel_regularizer": null, "bias_regularizer": null, "filters": 160, "bias_initializer": {"class_name": "Zeros", "config": {}}, "activation": "linear", "trainable": true, "kernel_initializer": {"class_name": "VarianceScaling", "config": {"scale": 1.0, "mode": "fan_avg", "distribution": "uniform", "seed": null}}}}, {"class_name": "BatchNormalization", "name": "block_13_project_BN", "inbound_nodes": [[["block_13_project", 0, 0, {}]]], "config": {"momentum": 0.999, "epsilon": 0.001, "name": "block_13_project_BN", "gamma_regularizer": null, "moving_mean_initializer": {"class_name": "Zeros", "config": {}}, "beta_regularizer": null, "center": true, "axis": -1, "scale": true, "beta_initializer": {"class_name": "Zeros", "config": {}}, "gamma_constraint": null, "moving_variance_initializer": {"class_name": "Ones", "config": {}}, "beta_constraint": null, "trainable": true, "gamma_initializer": {"class_name": "Ones", "config": {}}}}, {"class_name": "Conv2D", "name": "block_14_expand", "inbound_nodes": [[["block_13_project_BN", 0, 0, {}]]], "config": {"kernel_size": [1, 1], "name": "block_14_expand", "dilation_rate": [1, 1], "strides": [1, 1], "use_bias": false, "data_format": "channels_last", "activity_regularizer": null, "padding": "same", "kernel_constraint": null, "bias_constraint": null, "kernel_regularizer": null, "bias_regularizer": null, "filters": 960, "bias_initializer": {"class_name": "Zeros", "config": {}}, "activation": "linear", "trainable": true, "kernel_initializer": {"class_name": "VarianceScaling", "config": {"scale": 1.0, "mode": "fan_avg", "distribution": "uniform", "seed": null}}}}, {"class_name": "BatchNormalization", "name": "block_14_expand_BN", "inbound_nodes": [[["block_14_expand", 0, 0, {}]]], "config": {"momentum": 0.999, "epsilon": 0.001, "name": "block_14_expand_BN", "gamma_regularizer": null, "moving_mean_initializer": {"class_name": "Zeros", "config": {}}, "beta_regularizer": null, "center": true, "axis": -1, "scale": true, "beta_initializer": {"class_name": "Zeros", "config": {}}, "gamma_constraint": null, "moving_variance_initializer": {"class_name": "Ones", "config": {}}, "beta_constraint": null, "trainable": true, "gamma_initializer": {"class_name": "Ones", "config": {}}}}, {"class_name": "ReLU", "name": "block_14_expand_relu", "inbound_nodes": [[["block_14_expand_BN", 0, 0, {}]]], "config": {"name": "block_14_expand_relu", "trainable": true, "negative_slope": 0.0, "max_value": 6.0, "threshold": 0.0}}, {"class_name": "DepthwiseConv2D", "name": "block_14_depthwise", "inbound_nodes": [[["block_14_expand_relu", 0, 0, {}]]], "config": {"kernel_size": [3, 3], "name": "block_14_depthwise", "strides": [1, 1], "use_bias": false, "data_format": "channels_last", "depth_multiplier": 1, "padding": "same", "depthwise_constraint": null, "bias_constraint": null, "activity_regularizer": null, "bias_regularizer": null, "dilation_rate": [1, 1], "bias_initializer": {"class_name": "Zeros", "config": {}}, "activation": "linear", "depthwise_initializer": {"class_name": "VarianceScaling", "config": {"scale": 1.0, "mode": "fan_avg", "distribution": "uniform", "seed": null}}, "trainable": true, "depthwise_regularizer": null}}, {"class_name": "BatchNormalization", "name": "block_14_depthwise_BN", "inbound_nodes": [[["block_14_depthwise", 0, 0, {}]]], "config": {"momentum": 0.999, "epsilon": 0.001, "name": "block_14_depthwise_BN", "gamma_regularizer": null, "moving_mean_initializer": {"class_name": "Zeros", "config": {}}, "beta_regularizer": null, "center": true, "axis": -1, "scale": true, "beta_initializer": {"class_name": "Zeros", "config": {}}, "gamma_constraint": null, "moving_variance_initializer": {"class_name": "Ones", "config": {}}, "beta_constraint": null, "trainable": true, "gamma_initializer": {"class_name": "Ones", "config": {}}}}, {"class_name": "ReLU", "name": "block_14_depthwise_relu", "inbound_nodes": [[["block_14_depthwise_BN", 0, 0, {}]]], "config": {"name": "block_14_depthwise_relu", "trainable": true, "negative_slope": 0.0, "max_value": 6.0, "threshold": 0.0}}, {"class_name": "Conv2D", "name": "block_14_project", "inbound_nodes": [[["block_14_depthwise_relu", 0, 0, {}]]], "config": {"kernel_size": [1, 1], "name": "block_14_project", "dilation_rate": [1, 1], "strides": [1, 1], "use_bias": false, "data_format": "channels_last", "activity_regularizer": null, "padding": "same", "kernel_constraint": null, "bias_constraint": null, "kernel_regularizer": null, "bias_regularizer": null, "filters": 160, "bias_initializer": {"class_name": "Zeros", "config": {}}, "activation": "linear", "trainable": true, "kernel_initializer": {"class_name": "VarianceScaling", "config": {"scale": 1.0, "mode": "fan_avg", "distribution": "uniform", "seed": null}}}}, {"class_name": "BatchNormalization", "name": "block_14_project_BN", "inbound_nodes": [[["block_14_project", 0, 0, {}]]], "config": {"momentum": 0.999, "epsilon": 0.001, "name": "block_14_project_BN", "gamma_regularizer": null, "moving_mean_initializer": {"class_name": "Zeros", "config": {}}, "beta_regularizer": null, "center": true, "axis": -1, "scale": true, "beta_initializer": {"class_name": "Zeros", "config": {}}, "gamma_constraint": null, "moving_variance_initializer": {"class_name": "Ones", "config": {}}, "beta_constraint": null, "trainable": true, "gamma_initializer": {"class_name": "Ones", "config": {}}}}, {"class_name": "Add", "name": "block_14_add", "inbound_nodes": [[["block_13_project_BN", 0, 0, {}], ["block_14_project_BN", 0, 0, {}]]], "config": {"name": "block_14_add", "trainable": true}}, {"class_name": "Conv2D", "name": "block_15_expand", "inbound_nodes": [[["block_14_add", 0, 0, {}]]], "config": {"kernel_size": [1, 1], "name": "block_15_expand", "dilation_rate": [1, 1], "strides": [1, 1], "use_bias": false, "data_format": "channels_last", "activity_regularizer": null, "padding": "same", "kernel_constraint": null, "bias_constraint": null, "kernel_regularizer": null, "bias_regularizer": null, "filters": 960, "bias_initializer": {"class_name": "Zeros", "config": {}}, "activation": "linear", "trainable": true, "kernel_initializer": {"class_name": "VarianceScaling", "config": {"scale": 1.0, "mode": "fan_avg", "distribution": "uniform", "seed": null}}}}, {"class_name": "BatchNormalization", "name": "block_15_expand_BN", "inbound_nodes": [[["block_15_expand", 0, 0, {}]]], "config": {"momentum": 0.999, "epsilon": 0.001, "name": "block_15_expand_BN", "gamma_regularizer": null, "moving_mean_initializer": {"class_name": "Zeros", "config": {}}, "beta_regularizer": null, "center": true, "axis": -1, "scale": true, "beta_initializer": {"class_name": "Zeros", "config": {}}, "gamma_constraint": null, "moving_variance_initializer": {"class_name": "Ones", "config": {}}, "beta_constraint": null, "trainable": true, "gamma_initializer": {"class_name": "Ones", "config": {}}}}, {"class_name": "ReLU", "name": "block_15_expand_relu", "inbound_nodes": [[["block_15_expand_BN", 0, 0, {}]]], "config": {"name": "block_15_expand_relu", "trainable": true, "negative_slope": 0.0, "max_value": 6.0, "threshold": 0.0}}, {"class_name": "DepthwiseConv2D", "name": "block_15_depthwise", "inbound_nodes": [[["block_15_expand_relu", 0, 0, {}]]], "config": {"kernel_size": [3, 3], "name": "block_15_depthwise", "strides": [1, 1], "use_bias": false, "data_format": "channels_last", "depth_multiplier": 1, "padding": "same", "depthwise_constraint": null, "bias_constraint": null, "activity_regularizer": null, "bias_regularizer": null, "dilation_rate": [1, 1], "bias_initializer": {"class_name": "Zeros", "config": {}}, "activation": "linear", "depthwise_initializer": {"class_name": "VarianceScaling", "config": {"scale": 1.0, "mode": "fan_avg", "distribution": "uniform", "seed": null}}, "trainable": true, "depthwise_regularizer": null}}, {"class_name": "BatchNormalization", "name": "block_15_depthwise_BN", "inbound_nodes": [[["block_15_depthwise", 0, 0, {}]]], "config": {"momentum": 0.999, "epsilon": 0.001, "name": "block_15_depthwise_BN", "gamma_regularizer": null, "moving_mean_initializer": {"class_name": "Zeros", "config": {}}, "beta_regularizer": null, "center": true, "axis": -1, "scale": true, "beta_initializer": {"class_name": "Zeros", "config": {}}, "gamma_constraint": null, "moving_variance_initializer": {"class_name": "Ones", "config": {}}, "beta_constraint": null, "trainable": true, "gamma_initializer": {"class_name": "Ones", "config": {}}}}, {"class_name": "ReLU", "name": "block_15_depthwise_relu", "inbound_nodes": [[["block_15_depthwise_BN", 0, 0, {}]]], "config": {"name": "block_15_depthwise_relu", "trainable": true, "negative_slope": 0.0, "max_value": 6.0, "threshold": 0.0}}, {"class_name": "Conv2D", "name": "block_15_project", "inbound_nodes": [[["block_15_depthwise_relu", 0, 0, {}]]], "config": {"kernel_size": [1, 1], "name": "block_15_project", "dilation_rate": [1, 1], "strides": [1, 1], "use_bias": false, "data_format": "channels_last", "activity_regularizer": null, "padding": "same", "kernel_constraint": null, "bias_constraint": null, "kernel_regularizer": null, "bias_regularizer": null, "filters": 160, "bias_initializer": {"class_name": "Zeros", "config": {}}, "activation": "linear", "trainable": true, "kernel_initializer": {"class_name": "VarianceScaling", "config": {"scale": 1.0, "mode": "fan_avg", "distribution": "uniform", "seed": null}}}}, {"class_name": "BatchNormalization", "name": "block_15_project_BN", "inbound_nodes": [[["block_15_project", 0, 0, {}]]], "config": {"momentum": 0.999, "epsilon": 0.001, "name": "block_15_project_BN", "gamma_regularizer": null, "moving_mean_initializer": {"class_name": "Zeros", "config": {}}, "beta_regularizer": null, "center": true, "axis": -1, "scale": true, "beta_initializer": {"class_name": "Zeros", "config": {}}, "gamma_constraint": null, "moving_variance_initializer": {"class_name": "Ones", "config": {}}, "beta_constraint": null, "trainable": true, "gamma_initializer": {"class_name": "Ones", "config": {}}}}, {"class_name": "Add", "name": "block_15_add", "inbound_nodes": [[["block_14_add", 0, 0, {}], ["block_15_project_BN", 0, 0, {}]]], "config": {"name": "block_15_add", "trainable": true}}, {"class_name": "Conv2D", "name": "block_16_expand", "inbound_nodes": [[["block_15_add", 0, 0, {}]]], "config": {"kernel_size": [1, 1], "name": "block_16_expand", "dilation_rate": [1, 1], "strides": [1, 1], "use_bias": false, "data_format": "channels_last", "activity_regularizer": null, "padding": "same", "kernel_constraint": null, "bias_constraint": null, "kernel_regularizer": null, "bias_regularizer": null, "filters": 960, "bias_initializer": {"class_name": "Zeros", "config": {}}, "activation": "linear", "trainable": true, "kernel_initializer": {"class_name": "VarianceScaling", "config": {"scale": 1.0, "mode": "fan_avg", "distribution": "uniform", "seed": null}}}}, {"class_name": "BatchNormalization", "name": "block_16_expand_BN", "inbound_nodes": [[["block_16_expand", 0, 0, {}]]], "config": {"momentum": 0.999, "epsilon": 0.001, "name": "block_16_expand_BN", "gamma_regularizer": null, "moving_mean_initializer": {"class_name": "Zeros", "config": {}}, "beta_regularizer": null, "center": true, "axis": -1, "scale": true, "beta_initializer": {"class_name": "Zeros", "config": {}}, "gamma_constraint": null, "moving_variance_initializer": {"class_name": "Ones", "config": {}}, "beta_constraint": null, "trainable": true, "gamma_initializer": {"class_name": "Ones", "config": {}}}}, {"class_name": "ReLU", "name": "block_16_expand_relu", "inbound_nodes": [[["block_16_expand_BN", 0, 0, {}]]], "config": {"name": "block_16_expand_relu", "trainable": true, "negative_slope": 0.0, "max_value": 6.0, "threshold": 0.0}}, {"class_name": "DepthwiseConv2D", "name": "block_16_depthwise", "inbound_nodes": [[["block_16_expand_relu", 0, 0, {}]]], "config": {"kernel_size": [3, 3], "name": "block_16_depthwise", "strides": [1, 1], "use_bias": false, "data_format": "channels_last", "depth_multiplier": 1, "padding": "same", "depthwise_constraint": null, "bias_constraint": null, "activity_regularizer": null, "bias_regularizer": null, "dilation_rate": [1, 1], "bias_initializer": {"class_name": "Zeros", "config": {}}, "activation": "linear", "depthwise_initializer": {"class_name": "VarianceScaling", "config": {"scale": 1.0, "mode": "fan_avg", "distribution": "uniform", "seed": null}}, "trainable": true, "depthwise_regularizer": null}}, {"class_name": "BatchNormalization", "name": "block_16_depthwise_BN", "inbound_nodes": [[["block_16_depthwise", 0, 0, {}]]], "config": {"momentum": 0.999, "epsilon": 0.001, "name": "block_16_depthwise_BN", "gamma_regularizer": null, "moving_mean_initializer": {"class_name": "Zeros", "config": {}}, "beta_regularizer": null, "center": true, "axis": -1, "scale": true, "beta_initializer": {"class_name": "Zeros", "config": {}}, "gamma_constraint": null, "moving_variance_initializer": {"class_name": "Ones", "config": {}}, "beta_constraint": null, "trainable": true, "gamma_initializer": {"class_name": "Ones", "config": {}}}}, {"class_name": "ReLU", "name": "block_16_depthwise_relu", "inbound_nodes": [[["block_16_depthwise_BN", 0, 0, {}]]], "config": {"name": "block_16_depthwise_relu", "trainable": true, "negative_slope": 0.0, "max_value": 6.0, "threshold": 0.0}}, {"class_name": "Conv2D", "name": "block_16_project", "inbound_nodes": [[["block_16_depthwise_relu", 0, 0, {}]]], "config": {"kernel_size": [1, 1], "name": "block_16_project", "dilation_rate": [1, 1], "strides": [1, 1], "use_bias": false, "data_format": "channels_last", "activity_regularizer": null, "padding": "same", "kernel_constraint": null, "bias_constraint": null, "kernel_regularizer": null, "bias_regularizer": null, "filters": 320, "bias_initializer": {"class_name": "Zeros", "config": {}}, "activation": "linear", "trainable": true, "kernel_initializer": {"class_name": "VarianceScaling", "config": {"scale": 1.0, "mode": "fan_avg", "distribution": "uniform", "seed": null}}}}, {"class_name": "BatchNormalization", "name": "block_16_project_BN", "inbound_nodes": [[["block_16_project", 0, 0, {}]]], "config": {"momentum": 0.999, "epsilon": 0.001, "name": "block_16_project_BN", "gamma_regularizer": null, "moving_mean_initializer": {"class_name": "Zeros", "config": {}}, "beta_regularizer": null, "center": true, "axis": -1, "scale": true, "beta_initializer": {"class_name": "Zeros", "config": {}}, "gamma_constraint": null, "moving_variance_initializer": {"class_name": "Ones", "config": {}}, "beta_constraint": null, "trainable": true, "gamma_initializer": {"class_name": "Ones", "config": {}}}}, {"class_name": "Conv2D", "name": "Conv_1", "inbound_nodes": [[["block_16_project_BN", 0, 0, {}]]], "config": {"kernel_size": [1, 1], "name": "Conv_1", "dilation_rate": [1, 1], "strides": [1, 1], "use_bias": false, "data_format": "channels_last", "activity_regularizer": null, "padding": "valid", "kernel_constraint": null, "bias_constraint": null, "kernel_regularizer": null, "bias_regularizer": null, "filters": 1280, "bias_initializer": {"class_name": "Zeros", "config": {}}, "activation": "linear", "trainable": true, "kernel_initializer": {"class_name": "VarianceScaling", "config": {"scale": 1.0, "mode": "fan_avg", "distribution": "uniform", "seed": null}}}}, {"class_name": "BatchNormalization", "name": "Conv_1_bn", "inbound_nodes": [[["Conv_1", 0, 0, {}]]], "config": {"momentum": 0.999, "epsilon": 0.001, "name": "Conv_1_bn", "gamma_regularizer": null, "moving_mean_initializer": {"class_name": "Zeros", "config": {}}, "beta_regularizer": null, "center": true, "axis": -1, "scale": true, "beta_initializer": {"class_name": "Zeros", "config": {}}, "gamma_constraint": null, "moving_variance_initializer": {"class_name": "Ones", "config": {}}, "beta_constraint": null, "trainable": true, "gamma_initializer": {"class_name": "Ones", "config": {}}}}, {"class_name": "ReLU", "name": "out_relu", "inbound_nodes": [[["Conv_1_bn", 0, 0, {}]]], "config": {"name": "out_relu", "trainable": true, "negative_slope": 0.0, "max_value": 6.0, "threshold": 0.0}}, {"class_name": "Conv2D", "name": "conv2d_79", "inbound_nodes": [[["out_relu", 0, 0, {}]]], "config": {"kernel_size": [1, 1], "name": "conv2d_79", "dilation_rate": [1, 1], "strides": [1, 1], "use_bias": false, "data_format": "channels_last", "activity_regularizer": null, "padding": "same", "kernel_constraint": null, "bias_constraint": null, "kernel_regularizer": null, "bias_regularizer": null, "filters": 160, "bias_initializer": {"class_name": "Zeros", "config": {}}, "activation": "relu", "trainable": true, "kernel_initializer": {"class_name": "VarianceScaling", "config": {"scale": 1.0, "mode": "fan_avg", "distribution": "uniform", "seed": null}}}}, {"class_name": "Conv2D", "name": "conv2d_82", "inbound_nodes": [[["out_relu", 0, 0, {}]]], "config": {"kernel_size": [1, 1], "name": "conv2d_82", "dilation_rate": [1, 1], "strides": [1, 1], "use_bias": false, "data_format": "channels_last", "activity_regularizer": null, "padding": "same", "kernel_constraint": null, "bias_constraint": null, "kernel_regularizer": null, "bias_regularizer": null, "filters": 160, "bias_initializer": {"class_name": "Zeros", "config": {}}, "activation": "relu", "trainable": true, "kernel_initializer": {"class_name": "VarianceScaling", "config": {"scale": 1.0, "mode": "fan_avg", "distribution": "uniform", "seed": null}}}}, {"class_name": "BatchNormalization", "name": "batch_normalization_82", "inbound_nodes": [[["conv2d_79", 0, 0, {}]]], "config": {"momentum": 0.99, "epsilon": 1e-05, "name": "batch_normalization_82", "gamma_regularizer": null, "moving_mean_initializer": {"class_name": "Zeros", "config": {}}, "beta_regularizer": null, "center": true, "axis": -1, "scale": true, "beta_initializer": {"class_name": "Zeros", "config": {}}, "gamma_constraint": null, "moving_variance_initializer": {"class_name": "Ones", "config": {}}, "beta_constraint": null, "trainable": true, "gamma_initializer": {"class_name": "Ones", "config": {}}}}, {"class_name": "BatchNormalization", "name": "batch_normalization_86", "inbound_nodes": [[["conv2d_82", 0, 0, {}]]], "config": {"momentum": 0.99, "epsilon": 1e-05, "name": "batch_normalization_86", "gamma_regularizer": null, "moving_mean_initializer": {"class_name": "Zeros", "config": {}}, "beta_regularizer": null, "center": true, "axis": -1, "scale": true, "beta_initializer": {"class_name": "Zeros", "config": {}}, "gamma_constraint": null, "moving_variance_initializer": {"class_name": "Ones", "config": {}}, "beta_constraint": null, "trainable": true, "gamma_initializer": {"class_name": "Ones", "config": {}}}}, {"class_name": "Conv2D", "name": "conv2d_80", "inbound_nodes": [[["batch_normalization_82", 0, 0, {}]]], "config": {"kernel_size": [1, 3], "name": "conv2d_80", "dilation_rate": [1, 1], "strides": [1, 1], "use_bias": false, "data_format": "channels_last", "activity_regularizer": null, "padding": "same", "kernel_constraint": null, "bias_constraint": null, "kernel_regularizer": null, "bias_regularizer": null, "filters": 240, "bias_initializer": {"class_name": "Zeros", "config": {}}, "activation": "relu", "trainable": true, "kernel_initializer": {"class_name": "VarianceScaling", "config": {"scale": 1.0, "mode": "fan_avg", "distribution": "uniform", "seed": null}}}}, {"class_name": "Conv2D", "name": "conv2d_83", "inbound_nodes": [[["batch_normalization_86", 0, 0, {}]]], "config": {"kernel_size": [3, 3], "name": "conv2d_83", "dilation_rate": [1, 1], "strides": [1, 1], "use_bias": false, "data_format": "channels_last", "activity_regularizer": null, "padding": "same", "kernel_constraint": null, "bias_constraint": null, "kernel_regularizer": null, "bias_regularizer": null, "filters": 240, "bias_initializer": {"class_name": "Zeros", "config": {}}, "activation": "relu", "trainable": true, "kernel_initializer": {"class_name": "VarianceScaling", "config": {"scale": 1.0, "mode": "fan_avg", "distribution": "uniform", "seed": null}}}}, {"class_name": "BatchNormalization", "name": "batch_normalization_83", "inbound_nodes": [[["conv2d_80", 0, 0, {}]]], "config": {"momentum": 0.99, "epsilon": 1e-05, "name": "batch_normalization_83", "gamma_regularizer": null, "moving_mean_initializer": {"class_name": "Zeros", "config": {}}, "beta_regularizer": null, "center": true, "axis": -1, "scale": true, "beta_initializer": {"class_name": "Zeros", "config": {}}, "gamma_constraint": null, "moving_variance_initializer": {"class_name": "Ones", "config": {}}, "beta_constraint": null, "trainable": true, "gamma_initializer": {"class_name": "Ones", "config": {}}}}, {"class_name": "BatchNormalization", "name": "batch_normalization_87", "inbound_nodes": [[["conv2d_83", 0, 0, {}]]], "config": {"momentum": 0.99, "epsilon": 1e-05, "name": "batch_normalization_87", "gamma_regularizer": null, "moving_mean_initializer": {"class_name": "Zeros", "config": {}}, "beta_regularizer": null, "center": true, "axis": -1, "scale": true, "beta_initializer": {"class_name": "Zeros", "config": {}}, "gamma_constraint": null, "moving_variance_initializer": {"class_name": "Ones", "config": {}}, "beta_constraint": null, "trainable": true, "gamma_initializer": {"class_name": "Ones", "config": {}}}}, {"class_name": "Conv2D", "name": "conv2d_77", "inbound_nodes": [[["out_relu", 0, 0, {}]]], "config": {"kernel_size": [1, 1], "name": "conv2d_77", "dilation_rate": [1, 1], "strides": [2, 2], "use_bias": false, "data_format": "channels_last", "activity_regularizer": null, "padding": "same", "kernel_constraint": null, "bias_constraint": null, "kernel_regularizer": null, "bias_regularizer": null, "filters": 320, "bias_initializer": {"class_name": "Zeros", "config": {}}, "activation": "relu", "trainable": true, "kernel_initializer": {"class_name": "VarianceScaling", "config": {"scale": 1.0, "mode": "fan_avg", "distribution": "uniform", "seed": null}}}}, {"class_name": "Conv2D", "name": "conv2d_81", "inbound_nodes": [[["batch_normalization_83", 0, 0, {}]]], "config": {"kernel_size": [3, 1], "name": "conv2d_81", "dilation_rate": [1, 1], "strides": [2, 2], "use_bias": false, "data_format": "channels_last", "activity_regularizer": null, "padding": "same", "kernel_constraint": null, "bias_constraint": null, "kernel_regularizer": null, "bias_regularizer": null, "filters": 240, "bias_initializer": {"class_name": "Zeros", "config": {}}, "activation": "relu", "trainable": true, "kernel_initializer": {"class_name": "VarianceScaling", "config": {"scale": 1.0, "mode": "fan_avg", "distribution": "uniform", "seed": null}}}}, {"class_name": "Conv2D", "name": "conv2d_84", "inbound_nodes": [[["batch_normalization_87", 0, 0, {}]]], "config": {"kernel_size": [3, 3], "name": "conv2d_84", "dilation_rate": [1, 1], "strides": [2, 2], "use_bias": false, "data_format": "channels_last", "activity_regularizer": null, "padding": "same", "kernel_constraint": null, "bias_constraint": null, "kernel_regularizer": null, "bias_regularizer": null, "filters": 240, "bias_initializer": {"class_name": "Zeros", "config": {}}, "activation": "relu", "trainable": true, "kernel_initializer": {"class_name": "VarianceScaling", "config": {"scale": 1.0, "mode": "fan_avg", "distribution": "uniform", "seed": null}}}}, {"class_name": "BatchNormalization", "name": "batch_normalization_80", "inbound_nodes": [[["conv2d_77", 0, 0, {}]]], "config": {"momentum": 0.99, "epsilon": 1e-05, "name": "batch_normalization_80", "gamma_regularizer": null, "moving_mean_initializer": {"class_name": "Zeros", "config": {}}, "beta_regularizer": null, "center": true, "axis": -1, "scale": true, "beta_initializer": {"class_name": "Zeros", "config": {}}, "gamma_constraint": null, "moving_variance_initializer": {"class_name": "Ones", "config": {}}, "beta_constraint": null, "trainable": true, "gamma_initializer": {"class_name": "Ones", "config": {}}}}, {"class_name": "BatchNormalization", "name": "batch_normalization_84", "inbound_nodes": [[["conv2d_81", 0, 0, {}]]], "config": {"momentum": 0.99, "epsilon": 1e-05, "name": "batch_normalization_84", "gamma_regularizer": null, "moving_mean_initializer": {"class_name": "Zeros", "config": {}}, "beta_regularizer": null, "center": true, "axis": -1, "scale": true, "beta_initializer": {"class_name": "Zeros", "config": {}}, "gamma_constraint": null, "moving_variance_initializer": {"class_name": "Ones", "config": {}}, "beta_constraint": null, "trainable": true, "gamma_initializer": {"class_name": "Ones", "config": {}}}}, {"class_name": "BatchNormalization", "name": "batch_normalization_88", "inbound_nodes": [[["conv2d_84", 0, 0, {}]]], "config": {"momentum": 0.99, "epsilon": 1e-05, "name": "batch_normalization_88", "gamma_regularizer": null, "moving_mean_initializer": {"class_name": "Zeros", "config": {}}, "beta_regularizer": null, "center": true, "axis": -1, "scale": true, "beta_initializer": {"class_name": "Zeros", "config": {}}, "gamma_constraint": null, "moving_variance_initializer": {"class_name": "Ones", "config": {}}, "beta_constraint": null, "trainable": true, "gamma_initializer": {"class_name": "Ones", "config": {}}}}, {"class_name": "Conv2D", "name": "conv2d_78", "inbound_nodes": [[["batch_normalization_80", 0, 0, {}]]], "config": {"kernel_size": [3, 3], "name": "conv2d_78", "dilation_rate": [1, 1], "strides": [1, 1], "use_bias": false, "data_format": "channels_last", "activity_regularizer": null, "padding": "same", "kernel_constraint": null, "bias_constraint": null, "kernel_regularizer": null, "bias_regularizer": null, "filters": 320, "bias_initializer": {"class_name": "Zeros", "config": {}}, "activation": "linear", "trainable": true, "kernel_initializer": {"class_name": "VarianceScaling", "config": {"scale": 1.0, "mode": "fan_avg", "distribution": "uniform", "seed": null}}}}, {"class_name": "SeparableConv2D", "name": "separable_conv2d_21", "inbound_nodes": [[["batch_normalization_84", 0, 0, {}]]], "config": {"kernel_size": [3, 3], "name": "separable_conv2d_21", "dilation_rate": [3, 3], "strides": [1, 1], "use_bias": false, "data_format": "channels_last", "depth_multiplier": 1, "padding": "same", "depthwise_initializer": {"class_name": "VarianceScaling", "config": {"scale": 1.0, "mode": "fan_avg", "distribution": "uniform", "seed": null}}, "depthwise_constraint": null, "bias_regularizer": null, "bias_constraint": null, "pointwise_initializer": {"class_name": "VarianceScaling", "config": {"scale": 1.0, "mode": "fan_avg", "distribution": "uniform", "seed": null}}, "activity_regularizer": null, "pointwise_constraint": null, "filters": 240, "bias_initializer": {"class_name": "Zeros", "config": {}}, "pointwise_regularizer": null, "activation": "linear", "trainable": true, "depthwise_regularizer": null}}, {"class_name": "SeparableConv2D", "name": "separable_conv2d_22", "inbound_nodes": [[["batch_normalization_88", 0, 0, {}]]], "config": {"kernel_size": [3, 3], "name": "separable_conv2d_22", "dilation_rate": [5, 5], "strides": [1, 1], "use_bias": false, "data_format": "channels_last", "depth_multiplier": 1, "padding": "same", "depthwise_initializer": {"class_name": "VarianceScaling", "config": {"scale": 1.0, "mode": "fan_avg", "distribution": "uniform", "seed": null}}, "depthwise_constraint": null, "bias_regularizer": null, "bias_constraint": null, "pointwise_initializer": {"class_name": "VarianceScaling", "config": {"scale": 1.0, "mode": "fan_avg", "distribution": "uniform", "seed": null}}, "activity_regularizer": null, "pointwise_constraint": null, "filters": 240, "bias_initializer": {"class_name": "Zeros", "config": {}}, "pointwise_regularizer": null, "activation": "linear", "trainable": true, "depthwise_regularizer": null}}, {"class_name": "BatchNormalization", "name": "batch_normalization_81", "inbound_nodes": [[["conv2d_78", 0, 0, {}]]], "config": {"momentum": 0.99, "epsilon": 1e-05, "name": "batch_normalization_81", "gamma_regularizer": null, "moving_mean_initializer": {"class_name": "Zeros", "config": {}}, "beta_regularizer": null, "center": true, "axis": -1, "scale": true, "beta_initializer": {"class_name": "Zeros", "config": {}}, "gamma_constraint": null, "moving_variance_initializer": {"class_name": "Ones", "config": {}}, "beta_constraint": null, "trainable": true, "gamma_initializer": {"class_name": "Ones", "config": {}}}}, {"class_name": "BatchNormalization", "name": "batch_normalization_85", "inbound_nodes": [[["separable_conv2d_21", 0, 0, {}]]], "config": {"momentum": 0.01, "epsilon": 1e-05, "name": "batch_normalization_85", "gamma_regularizer": null, "moving_mean_initializer": {"class_name": "Zeros", "config": {}}, "beta_regularizer": null, "center": true, "axis": -1, "scale": true, "beta_initializer": {"class_name": "Zeros", "config": {}}, "gamma_constraint": null, "moving_variance_initializer": {"class_name": "Ones", "config": {}}, "beta_constraint": null, "trainable": true, "gamma_initializer": {"class_name": "Ones", "config": {}}}}, {"class_name": "BatchNormalization", "name": "batch_normalization_89", "inbound_nodes": [[["separable_conv2d_22", 0, 0, {}]]], "config": {"momentum": 0.01, "epsilon": 1e-05, "name": "batch_normalization_89", "gamma_regularizer": null, "moving_mean_initializer": {"class_name": "Zeros", "config": {}}, "beta_regularizer": null, "center": true, "axis": -1, "scale": true, "beta_initializer": {"class_name": "Zeros", "config": {}}, "gamma_constraint": null, "moving_variance_initializer": {"class_name": "Ones", "config": {}}, "beta_constraint": null, "trainable": true, "gamma_initializer": {"class_name": "Ones", "config": {}}}}, {"class_name": "Concatenate", "name": "concatenate_14", "inbound_nodes": [[["batch_normalization_81", 0, 0, {}], ["batch_normalization_85", 0, 0, {}], ["batch_normalization_89", 0, 0, {}]]], "config": {"name": "concatenate_14", "trainable": true, "axis": -1}}, {"class_name": "Conv2D", "name": "conv2d_85", "inbound_nodes": [[["concatenate_14", 0, 0, {}]]], "config": {"kernel_size": [1, 1], "name": "conv2d_85", "dilation_rate": [1, 1], "strides": [1, 1], "use_bias": false, "data_format": "channels_last", "activity_regularizer": null, "padding": "same", "kernel_constraint": null, "bias_constraint": null, "kernel_regularizer": null, "bias_regularizer": null, "filters": 512, "bias_initializer": {"class_name": "Zeros", "config": {}}, "activation": "linear", "trainable": true, "kernel_initializer": {"class_name": "VarianceScaling", "config": {"scale": 1.0, "mode": "fan_avg", "distribution": "uniform", "seed": null}}}}, {"class_name": "BatchNormalization", "name": "batch_normalization_90", "inbound_nodes": [[["conv2d_85", 0, 0, {}]]], "config": {"momentum": 0.99, "epsilon": 1e-05, "name": "batch_normalization_90", "gamma_regularizer": null, "moving_mean_initializer": {"class_name": "Zeros", "config": {}}, "beta_regularizer": null, "center": true, "axis": -1, "scale": true, "beta_initializer": {"class_name": "Zeros", "config": {}}, "gamma_constraint": null, "moving_variance_initializer": {"class_name": "Ones", "config": {}}, "beta_constraint": null, "trainable": true, "gamma_initializer": {"class_name": "Ones", "config": {}}}}, {"class_name": "Conv2D", "name": "conv2d_86", "inbound_nodes": [[["out_relu", 0, 0, {}]]], "config": {"kernel_size": [1, 1], "name": "conv2d_86", "dilation_rate": [1, 1], "strides": [1, 1], "use_bias": false, "data_format": "channels_last", "activity_regularizer": null, "padding": "same", "kernel_constraint": null, "bias_constraint": null, "kernel_regularizer": null, "bias_regularizer": null, "filters": 512, "bias_initializer": {"class_name": "Zeros", "config": {}}, "activation": "linear", "trainable": true, "kernel_initializer": {"class_name": "VarianceScaling", "config": {"scale": 1.0, "mode": "fan_avg", "distribution": "uniform", "seed": null}}}}, {"class_name": "Lambda", "name": "lambda_7", "inbound_nodes": [[["batch_normalization_90", 0, 0, {}]]], "config": {"name": "lambda_7", "function_type": "lambda", "arguments": {}, "output_shape_type": "raw", "function": ["4wEAAAAAAAAAAQAAAAIAAAATAAAAcwgAAAB8AACIAAAUUykBTqkAKQHaAXgpAdoFc2NhbGVyAQAA\nAPooL2hvbWUvY2FpL3Byb2plY3QvUkZCTmV0LUtlcmFzL21vZHVsZS5wedoIPGxhbWJkYT5WAAAA\ncwAAAAA=\n", null, [1.0]], "trainable": true, "output_shape": null}}, {"class_name": "MaxPooling2D", "name": "max_pooling2d_2", "inbound_nodes": [[["conv2d_86", 0, 0, {}]]], "config": {"padding": "same", "name": "max_pooling2d_2", "strides": [2, 2], "data_format": "channels_last", "trainable": true, "pool_size": [2, 2]}}, {"class_name": "Add", "name": "add_7", "inbound_nodes": [[["lambda_7", 0, 0, {}], ["max_pooling2d_2", 0, 0, {}]]], "config": {"name": "add_7", "trainable": true}}, {"class_name": "Activation", "name": "activation_7", "inbound_nodes": [[["add_7", 0, 0, {}]]], "config": {"name": "activation_7", "trainable": true, "activation": "relu"}}, {"class_name": "Conv2D", "name": "conv2d_89", "inbound_nodes": [[["activation_7", 0, 0, {}]]], "config": {"kernel_size": [1, 1], "name": "conv2d_89", "dilation_rate": [1, 1], "strides": [1, 1], "use_bias": false, "data_format": "channels_last", "activity_regularizer": null, "padding": "same", "kernel_constraint": null, "bias_constraint": null, "kernel_regularizer": null, "bias_regularizer": null, "filters": 64, "bias_initializer": {"class_name": "Zeros", "config": {}}, "activation": "relu", "trainable": true, "kernel_initializer": {"class_name": "VarianceScaling", "config": {"scale": 1.0, "mode": "fan_avg", "distribution": "uniform", "seed": null}}}}, {"class_name": "Conv2D", "name": "conv2d_92", "inbound_nodes": [[["activation_7", 0, 0, {}]]], "config": {"kernel_size": [1, 1], "name": "conv2d_92", "dilation_rate": [1, 1], "strides": [1, 1], "use_bias": false, "data_format": "channels_last", "activity_regularizer": null, "padding": "same", "kernel_constraint": null, "bias_constraint": null, "kernel_regularizer": null, "bias_regularizer": null, "filters": 64, "bias_initializer": {"class_name": "Zeros", "config": {}}, "activation": "relu", "trainable": true, "kernel_initializer": {"class_name": "VarianceScaling", "config": {"scale": 1.0, "mode": "fan_avg", "distribution": "uniform", "seed": null}}}}, {"class_name": "BatchNormalization", "name": "batch_normalization_93", "inbound_nodes": [[["conv2d_89", 0, 0, {}]]], "config": {"momentum": 0.99, "epsilon": 1e-05, "name": "batch_normalization_93", "gamma_regularizer": null, "moving_mean_initializer": {"class_name": "Zeros", "config": {}}, "beta_regularizer": null, "center": true, "axis": -1, "scale": true, "beta_initializer": {"class_name": "Zeros", "config": {}}, "gamma_constraint": null, "moving_variance_initializer": {"class_name": "Ones", "config": {}}, "beta_constraint": null, "trainable": true, "gamma_initializer": {"class_name": "Ones", "config": {}}}}, {"class_name": "BatchNormalization", "name": "batch_normalization_97", "inbound_nodes": [[["conv2d_92", 0, 0, {}]]], "config": {"momentum": 0.99, "epsilon": 1e-05, "name": "batch_normalization_97", "gamma_regularizer": null, "moving_mean_initializer": {"class_name": "Zeros", "config": {}}, "beta_regularizer": null, "center": true, "axis": -1, "scale": true, "beta_initializer": {"class_name": "Zeros", "config": {}}, "gamma_constraint": null, "moving_variance_initializer": {"class_name": "Ones", "config": {}}, "beta_constraint": null, "trainable": true, "gamma_initializer": {"class_name": "Ones", "config": {}}}}, {"class_name": "Conv2D", "name": "conv2d_90", "inbound_nodes": [[["batch_normalization_93", 0, 0, {}]]], "config": {"kernel_size": [1, 3], "name": "conv2d_90", "dilation_rate": [1, 1], "strides": [1, 1], "use_bias": false, "data_format": "channels_last", "activity_regularizer": null, "padding": "same", "kernel_constraint": null, "bias_constraint": null, "kernel_regularizer": null, "bias_regularizer": null, "filters": 96, "bias_initializer": {"class_name": "Zeros", "config": {}}, "activation": "relu", "trainable": true, "kernel_initializer": {"class_name": "VarianceScaling", "config": {"scale": 1.0, "mode": "fan_avg", "distribution": "uniform", "seed": null}}}}, {"class_name": "Conv2D", "name": "conv2d_93", "inbound_nodes": [[["batch_normalization_97", 0, 0, {}]]], "config": {"kernel_size": [3, 3], "name": "conv2d_93", "dilation_rate": [1, 1], "strides": [1, 1], "use_bias": false, "data_format": "channels_last", "activity_regularizer": null, "padding": "same", "kernel_constraint": null, "bias_constraint": null, "kernel_regularizer": null, "bias_regularizer": null, "filters": 96, "bias_initializer": {"class_name": "Zeros", "config": {}}, "activation": "relu", "trainable": true, "kernel_initializer": {"class_name": "VarianceScaling", "config": {"scale": 1.0, "mode": "fan_avg", "distribution": "uniform", "seed": null}}}}, {"class_name": "BatchNormalization", "name": "batch_normalization_94", "inbound_nodes": [[["conv2d_90", 0, 0, {}]]], "config": {"momentum": 0.99, "epsilon": 1e-05, "name": "batch_normalization_94", "gamma_regularizer": null, "moving_mean_initializer": {"class_name": "Zeros", "config": {}}, "beta_regularizer": null, "center": true, "axis": -1, "scale": true, "beta_initializer": {"class_name": "Zeros", "config": {}}, "gamma_constraint": null, "moving_variance_initializer": {"class_name": "Ones", "config": {}}, "beta_constraint": null, "trainable": true, "gamma_initializer": {"class_name": "Ones", "config": {}}}}, {"class_name": "BatchNormalization", "name": "batch_normalization_98", "inbound_nodes": [[["conv2d_93", 0, 0, {}]]], "config": {"momentum": 0.99, "epsilon": 1e-05, "name": "batch_normalization_98", "gamma_regularizer": null, "moving_mean_initializer": {"class_name": "Zeros", "config": {}}, "beta_regularizer": null, "center": true, "axis": -1, "scale": true, "beta_initializer": {"class_name": "Zeros", "config": {}}, "gamma_constraint": null, "moving_variance_initializer": {"class_name": "Ones", "config": {}}, "beta_constraint": null, "trainable": true, "gamma_initializer": {"class_name": "Ones", "config": {}}}}, {"class_name": "Conv2D", "name": "conv2d_87", "inbound_nodes": [[["activation_7", 0, 0, {}]]], "config": {"kernel_size": [1, 1], "name": "conv2d_87", "dilation_rate": [1, 1], "strides": [1, 1], "use_bias": false, "data_format": "channels_last", "activity_regularizer": null, "padding": "same", "kernel_constraint": null, "bias_constraint": null, "kernel_regularizer": null, "bias_regularizer": null, "filters": 128, "bias_initializer": {"class_name": "Zeros", "config": {}}, "activation": "relu", "trainable": true, "kernel_initializer": {"class_name": "VarianceScaling", "config": {"scale": 1.0, "mode": "fan_avg", "distribution": "uniform", "seed": null}}}}, {"class_name": "Conv2D", "name": "conv2d_91", "inbound_nodes": [[["batch_normalization_94", 0, 0, {}]]], "config": {"kernel_size": [3, 1], "name": "conv2d_91", "dilation_rate": [1, 1], "strides": [1, 1], "use_bias": false, "data_format": "channels_last", "activity_regularizer": null, "padding": "same", "kernel_constraint": null, "bias_constraint": null, "kernel_regularizer": null, "bias_regularizer": null, "filters": 96, "bias_initializer": {"class_name": "Zeros", "config": {}}, "activation": "relu", "trainable": true, "kernel_initializer": {"class_name": "VarianceScaling", "config": {"scale": 1.0, "mode": "fan_avg", "distribution": "uniform", "seed": null}}}}, {"class_name": "Conv2D", "name": "conv2d_94", "inbound_nodes": [[["batch_normalization_98", 0, 0, {}]]], "config": {"kernel_size": [3, 3], "name": "conv2d_94", "dilation_rate": [1, 1], "strides": [1, 1], "use_bias": false, "data_format": "channels_last", "activity_regularizer": null, "padding": "same", "kernel_constraint": null, "bias_constraint": null, "kernel_regularizer": null, "bias_regularizer": null, "filters": 96, "bias_initializer": {"class_name": "Zeros", "config": {}}, "activation": "relu", "trainable": true, "kernel_initializer": {"class_name": "VarianceScaling", "config": {"scale": 1.0, "mode": "fan_avg", "distribution": "uniform", "seed": null}}}}, {"class_name": "BatchNormalization", "name": "batch_normalization_91", "inbound_nodes": [[["conv2d_87", 0, 0, {}]]], "config": {"momentum": 0.99, "epsilon": 1e-05, "name": "batch_normalization_91", "gamma_regularizer": null, "moving_mean_initializer": {"class_name": "Zeros", "config": {}}, "beta_regularizer": null, "center": true, "axis": -1, "scale": true, "beta_initializer": {"class_name": "Zeros", "config": {}}, "gamma_constraint": null, "moving_variance_initializer": {"class_name": "Ones", "config": {}}, "beta_constraint": null, "trainable": true, "gamma_initializer": {"class_name": "Ones", "config": {}}}}, {"class_name": "BatchNormalization", "name": "batch_normalization_95", "inbound_nodes": [[["conv2d_91", 0, 0, {}]]], "config": {"momentum": 0.99, "epsilon": 1e-05, "name": "batch_normalization_95", "gamma_regularizer": null, "moving_mean_initializer": {"class_name": "Zeros", "config": {}}, "beta_regularizer": null, "center": true, "axis": -1, "scale": true, "beta_initializer": {"class_name": "Zeros", "config": {}}, "gamma_constraint": null, "moving_variance_initializer": {"class_name": "Ones", "config": {}}, "beta_constraint": null, "trainable": true, "gamma_initializer": {"class_name": "Ones", "config": {}}}}, {"class_name": "BatchNormalization", "name": "batch_normalization_99", "inbound_nodes": [[["conv2d_94", 0, 0, {}]]], "config": {"momentum": 0.99, "epsilon": 1e-05, "name": "batch_normalization_99", "gamma_regularizer": null, "moving_mean_initializer": {"class_name": "Zeros", "config": {}}, "beta_regularizer": null, "center": true, "axis": -1, "scale": true, "beta_initializer": {"class_name": "Zeros", "config": {}}, "gamma_constraint": null, "moving_variance_initializer": {"class_name": "Ones", "config": {}}, "beta_constraint": null, "trainable": true, "gamma_initializer": {"class_name": "Ones", "config": {}}}}, {"class_name": "Conv2D", "name": "conv2d_88", "inbound_nodes": [[["batch_normalization_91", 0, 0, {}]]], "config": {"kernel_size": [3, 3], "name": "conv2d_88", "dilation_rate": [1, 1], "strides": [1, 1], "use_bias": false, "data_format": "channels_last", "activity_regularizer": null, "padding": "same", "kernel_constraint": null, "bias_constraint": null, "kernel_regularizer": null, "bias_regularizer": null, "filters": 128, "bias_initializer": {"class_name": "Zeros", "config": {}}, "activation": "linear", "trainable": true, "kernel_initializer": {"class_name": "VarianceScaling", "config": {"scale": 1.0, "mode": "fan_avg", "distribution": "uniform", "seed": null}}}}, {"class_name": "SeparableConv2D", "name": "separable_conv2d_23", "inbound_nodes": [[["batch_normalization_95", 0, 0, {}]]], "config": {"kernel_size": [3, 3], "name": "separable_conv2d_23", "dilation_rate": [3, 3], "strides": [1, 1], "use_bias": false, "data_format": "channels_last", "depth_multiplier": 1, "padding": "same", "depthwise_initializer": {"class_name": "VarianceScaling", "config": {"scale": 1.0, "mode": "fan_avg", "distribution": "uniform", "seed": null}}, "depthwise_constraint": null, "bias_regularizer": null, "bias_constraint": null, "pointwise_initializer": {"class_name": "VarianceScaling", "config": {"scale": 1.0, "mode": "fan_avg", "distribution": "uniform", "seed": null}}, "activity_regularizer": null, "pointwise_constraint": null, "filters": 96, "bias_initializer": {"class_name": "Zeros", "config": {}}, "pointwise_regularizer": null, "activation": "linear", "trainable": true, "depthwise_regularizer": null}}, {"class_name": "SeparableConv2D", "name": "separable_conv2d_24", "inbound_nodes": [[["batch_normalization_99", 0, 0, {}]]], "config": {"kernel_size": [3, 3], "name": "separable_conv2d_24", "dilation_rate": [5, 5], "strides": [1, 1], "use_bias": false, "data_format": "channels_last", "depth_multiplier": 1, "padding": "same", "depthwise_initializer": {"class_name": "VarianceScaling", "config": {"scale": 1.0, "mode": "fan_avg", "distribution": "uniform", "seed": null}}, "depthwise_constraint": null, "bias_regularizer": null, "bias_constraint": null, "pointwise_initializer": {"class_name": "VarianceScaling", "config": {"scale": 1.0, "mode": "fan_avg", "distribution": "uniform", "seed": null}}, "activity_regularizer": null, "pointwise_constraint": null, "filters": 96, "bias_initializer": {"class_name": "Zeros", "config": {}}, "pointwise_regularizer": null, "activation": "linear", "trainable": true, "depthwise_regularizer": null}}, {"class_name": "BatchNormalization", "name": "batch_normalization_92", "inbound_nodes": [[["conv2d_88", 0, 0, {}]]], "config": {"momentum": 0.99, "epsilon": 1e-05, "name": "batch_normalization_92", "gamma_regularizer": null, "moving_mean_initializer": {"class_name": "Zeros", "config": {}}, "beta_regularizer": null, "center": true, "axis": -1, "scale": true, "beta_initializer": {"class_name": "Zeros", "config": {}}, "gamma_constraint": null, "moving_variance_initializer": {"class_name": "Ones", "config": {}}, "beta_constraint": null, "trainable": true, "gamma_initializer": {"class_name": "Ones", "config": {}}}}, {"class_name": "BatchNormalization", "name": "batch_normalization_96", "inbound_nodes": [[["separable_conv2d_23", 0, 0, {}]]], "config": {"momentum": 0.01, "epsilon": 1e-05, "name": "batch_normalization_96", "gamma_regularizer": null, "moving_mean_initializer": {"class_name": "Zeros", "config": {}}, "beta_regularizer": null, "center": true, "axis": -1, "scale": true, "beta_initializer": {"class_name": "Zeros", "config": {}}, "gamma_constraint": null, "moving_variance_initializer": {"class_name": "Ones", "config": {}}, "beta_constraint": null, "trainable": true, "gamma_initializer": {"class_name": "Ones", "config": {}}}}, {"class_name": "BatchNormalization", "name": "batch_normalization_100", "inbound_nodes": [[["separable_conv2d_24", 0, 0, {}]]], "config": {"momentum": 0.01, "epsilon": 1e-05, "name": "batch_normalization_100", "gamma_regularizer": null, "moving_mean_initializer": {"class_name": "Zeros", "config": {}}, "beta_regularizer": null, "center": true, "axis": -1, "scale": true, "beta_initializer": {"class_name": "Zeros", "config": {}}, "gamma_constraint": null, "moving_variance_initializer": {"class_name": "Ones", "config": {}}, "beta_constraint": null, "trainable": true, "gamma_initializer": {"class_name": "Ones", "config": {}}}}, {"class_name": "Concatenate", "name": "concatenate_15", "inbound_nodes": [[["batch_normalization_92", 0, 0, {}], ["batch_normalization_96", 0, 0, {}], ["batch_normalization_100", 0, 0, {}]]], "config": {"name": "concatenate_15", "trainable": true, "axis": -1}}, {"class_name": "Conv2D", "name": "conv2d_95", "inbound_nodes": [[["concatenate_15", 0, 0, {}]]], "config": {"kernel_size": [1, 1], "name": "conv2d_95", "dilation_rate": [1, 1], "strides": [1, 1], "use_bias": false, "data_format": "channels_last", "activity_regularizer": null, "padding": "same", "kernel_constraint": null, "bias_constraint": null, "kernel_regularizer": null, "bias_regularizer": null, "filters": 512, "bias_initializer": {"class_name": "Zeros", "config": {}}, "activation": "linear", "trainable": true, "kernel_initializer": {"class_name": "VarianceScaling", "config": {"scale": 1.0, "mode": "fan_avg", "distribution": "uniform", "seed": null}}}}, {"class_name": "Conv2D", "name": "conv2d_72", "inbound_nodes": [[["out_relu", 0, 0, {}]]], "config": {"kernel_size": [1, 1], "name": "conv2d_72", "dilation_rate": [1, 1], "strides": [1, 1], "use_bias": false, "data_format": "channels_last", "activity_regularizer": null, "padding": "same", "kernel_constraint": null, "bias_constraint": null, "kernel_regularizer": null, "bias_regularizer": null, "filters": 160, "bias_initializer": {"class_name": "Zeros", "config": {}}, "activation": "relu", "trainable": true, "kernel_initializer": {"class_name": "VarianceScaling", "config": {"scale": 1.0, "mode": "fan_avg", "distribution": "uniform", "seed": null}}}}, {"class_name": "BatchNormalization", "name": "batch_normalization_101", "inbound_nodes": [[["conv2d_95", 0, 0, {}]]], "config": {"momentum": 0.99, "epsilon": 1e-05, "name": "batch_normalization_101", "gamma_regularizer": null, "moving_mean_initializer": {"class_name": "Zeros", "config": {}}, "beta_regularizer": null, "center": true, "axis": -1, "scale": true, "beta_initializer": {"class_name": "Zeros", "config": {}}, "gamma_constraint": null, "moving_variance_initializer": {"class_name": "Ones", "config": {}}, "beta_constraint": null, "trainable": true, "gamma_initializer": {"class_name": "Ones", "config": {}}}}, {"class_name": "BatchNormalization", "name": "batch_normalization_75", "inbound_nodes": [[["conv2d_72", 0, 0, {}]]], "config": {"momentum": 0.99, "epsilon": 1e-05, "name": "batch_normalization_75", "gamma_regularizer": null, "moving_mean_initializer": {"class_name": "Zeros", "config": {}}, "beta_regularizer": null, "center": true, "axis": -1, "scale": true, "beta_initializer": {"class_name": "Zeros", "config": {}}, "gamma_constraint": null, "moving_variance_initializer": {"class_name": "Ones", "config": {}}, "beta_constraint": null, "trainable": true, "gamma_initializer": {"class_name": "Ones", "config": {}}}}, {"class_name": "Lambda", "name": "lambda_8", "inbound_nodes": [[["batch_normalization_101", 0, 0, {}]]], "config": {"name": "lambda_8", "function_type": "lambda", "arguments": {}, "output_shape_type": "raw", "function": ["4wEAAAAAAAAAAQAAAAIAAAATAAAAcwgAAAB8AACIAAAUUykBTqkAKQHaAXgpAdoFc2NhbGVyAQAA\nAPooL2hvbWUvY2FpL3Byb2plY3QvUkZCTmV0LUtlcmFzL21vZHVsZS5wedoIPGxhbWJkYT5WAAAA\ncwAAAAA=\n", null, [1.0]], "trainable": true, "output_shape": null}}, {"class_name": "Conv2D", "name": "conv2d_68", "inbound_nodes": [[["out_relu", 0, 0, {}]]], "config": {"kernel_size": [1, 1], "name": "conv2d_68", "dilation_rate": [1, 1], "strides": [1, 1], "use_bias": false, "data_format": "channels_last", "activity_regularizer": null, "padding": "same", "kernel_constraint": null, "bias_constraint": null, "kernel_regularizer": null, "bias_regularizer": null, "filters": 320, "bias_initializer": {"class_name": "Zeros", "config": {}}, "activation": "relu", "trainable": true, "kernel_initializer": {"class_name": "VarianceScaling", "config": {"scale": 1.0, "mode": "fan_avg", "distribution": "uniform", "seed": null}}}}, {"class_name": "Conv2D", "name": "conv2d_70", "inbound_nodes": [[["out_relu", 0, 0, {}]]], "config": {"kernel_size": [1, 1], "name": "conv2d_70", "dilation_rate": [1, 1], "strides": [1, 1], "use_bias": false, "data_format": "channels_last", "activity_regularizer": null, "padding": "same", "kernel_constraint": null, "bias_constraint": null, "kernel_regularizer": null, "bias_regularizer": null, "filters": 320, "bias_initializer": {"class_name": "Zeros", "config": {}}, "activation": "relu", "trainable": true, "kernel_initializer": {"class_name": "VarianceScaling", "config": {"scale": 1.0, "mode": "fan_avg", "distribution": "uniform", "seed": null}}}}, {"class_name": "Conv2D", "name": "conv2d_73", "inbound_nodes": [[["batch_normalization_75", 0, 0, {}]]], "config": {"kernel_size": [1, 3], "name": "conv2d_73", "dilation_rate": [1, 1], "strides": [1, 1], "use_bias": false, "data_format": "channels_last", "activity_regularizer": null, "padding": "same", "kernel_constraint": null, "bias_constraint": null, "kernel_regularizer": null, "bias_regularizer": null, "filters": 240, "bias_initializer": {"class_name": "Zeros", "config": {}}, "activation": "relu", "trainable": true, "kernel_initializer": {"class_name": "VarianceScaling", "config": {"scale": 1.0, "mode": "fan_avg", "distribution": "uniform", "seed": null}}}}, {"class_name": "Add", "name": "add_8", "inbound_nodes": [[["lambda_8", 0, 0, {}], ["activation_7", 0, 0, {}]]], "config": {"name": "add_8", "trainable": true}}, {"class_name": "BatchNormalization", "name": "batch_normalization_69", "inbound_nodes": [[["conv2d_68", 0, 0, {}]]], "config": {"momentum": 0.99, "epsilon": 1e-05, "name": "batch_normalization_69", "gamma_regularizer": null, "moving_mean_initializer": {"class_name": "Zeros", "config": {}}, "beta_regularizer": null, "center": true, "axis": -1, "scale": true, "beta_initializer": {"class_name": "Zeros", "config": {}}, "gamma_constraint": null, "moving_variance_initializer": {"class_name": "Ones", "config": {}}, "beta_constraint": null, "trainable": true, "gamma_initializer": {"class_name": "Ones", "config": {}}}}, {"class_name": "BatchNormalization", "name": "batch_normalization_72", "inbound_nodes": [[["conv2d_70", 0, 0, {}]]], "config": {"momentum": 0.99, "epsilon": 1e-05, "name": "batch_normalization_72", "gamma_regularizer": null, "moving_mean_initializer": {"class_name": "Zeros", "config": {}}, "beta_regularizer": null, "center": true, "axis": -1, "scale": true, "beta_initializer": {"class_name": "Zeros", "config": {}}, "gamma_constraint": null, "moving_variance_initializer": {"class_name": "Ones", "config": {}}, "beta_constraint": null, "trainable": true, "gamma_initializer": {"class_name": "Ones", "config": {}}}}, {"class_name": "BatchNormalization", "name": "batch_normalization_76", "inbound_nodes": [[["conv2d_73", 0, 0, {}]]], "config": {"momentum": 0.99, "epsilon": 1e-05, "name": "batch_normalization_76", "gamma_regularizer": null, "moving_mean_initializer": {"class_name": "Zeros", "config": {}}, "beta_regularizer": null, "center": true, "axis": -1, "scale": true, "beta_initializer": {"class_name": "Zeros", "config": {}}, "gamma_constraint": null, "moving_variance_initializer": {"class_name": "Ones", "config": {}}, "beta_constraint": null, "trainable": true, "gamma_initializer": {"class_name": "Ones", "config": {}}}}, {"class_name": "Activation", "name": "activation_8", "inbound_nodes": [[["add_8", 0, 0, {}]]], "config": {"name": "activation_8", "trainable": true, "activation": "relu"}}, {"class_name": "Conv2D", "name": "conv2d_67", "inbound_nodes": [[["out_relu", 0, 0, {}]]], "config": {"kernel_size": [1, 1], "name": "conv2d_67", "dilation_rate": [1, 1], "strides": [1, 1], "use_bias": false, "data_format": "channels_last", "activity_regularizer": null, "padding": "same", "kernel_constraint": null, "bias_constraint": null, "kernel_regularizer": null, "bias_regularizer": null, "filters": 320, "bias_initializer": {"class_name": "Zeros", "config": {}}, "activation": "relu", "trainable": true, "kernel_initializer": {"class_name": "VarianceScaling", "config": {"scale": 1.0, "mode": "fan_avg", "distribution": "uniform", "seed": null}}}}, {"class_name": "Conv2D", "name": "conv2d_69", "inbound_nodes": [[["batch_normalization_69", 0, 0, {}]]], "config": {"kernel_size": [3, 1], "name": "conv2d_69", "dilation_rate": [1, 1], "strides": [1, 1], "use_bias": false, "data_format": "channels_last", "activity_regularizer": null, "padding": "same", "kernel_constraint": null, "bias_constraint": null, "kernel_regularizer": null, "bias_regularizer": null, "filters": 320, "bias_initializer": {"class_name": "Zeros", "config": {}}, "activation": "relu", "trainable": true, "kernel_initializer": {"class_name": "VarianceScaling", "config": {"scale": 1.0, "mode": "fan_avg", "distribution": "uniform", "seed": null}}}}, {"class_name": "Conv2D", "name": "conv2d_71", "inbound_nodes": [[["batch_normalization_72", 0, 0, {}]]], "config": {"kernel_size": [1, 3], "name": "conv2d_71", "dilation_rate": [1, 1], "strides": [1, 1], "use_bias": false, "data_format": "channels_last", "activity_regularizer": null, "padding": "same", "kernel_constraint": null, "bias_constraint": null, "kernel_regularizer": null, "bias_regularizer": null, "filters": 320, "bias_initializer": {"class_name": "Zeros", "config": {}}, "activation": "relu", "trainable": true, "kernel_initializer": {"class_name": "VarianceScaling", "config": {"scale": 1.0, "mode": "fan_avg", "distribution": "uniform", "seed": null}}}}, {"class_name": "Conv2D", "name": "conv2d_74", "inbound_nodes": [[["batch_normalization_76", 0, 0, {}]]], "config": {"kernel_size": [3, 1], "name": "conv2d_74", "dilation_rate": [1, 1], "strides": [1, 1], "use_bias": false, "data_format": "channels_last", "activity_regularizer": null, "padding": "same", "kernel_constraint": null, "bias_constraint": null, "kernel_regularizer": null, "bias_regularizer": null, "filters": 320, "bias_initializer": {"class_name": "Zeros", "config": {}}, "activation": "relu", "trainable": true, "kernel_initializer": {"class_name": "VarianceScaling", "config": {"scale": 1.0, "mode": "fan_avg", "distribution": "uniform", "seed": null}}}}, {"class_name": "Conv2D", "name": "conv2d_96", "inbound_nodes": [[["activation_8", 0, 0, {}]]], "config": {"kernel_size": [1, 1], "name": "conv2d_96", "dilation_rate": [1, 1], "strides": [1, 1], "use_bias": false, "data_format": "channels_last", "activity_regularizer": null, "padding": "same", "kernel_constraint": null, "bias_constraint": null, "kernel_regularizer": null, "bias_regularizer": null, "filters": 128, "bias_initializer": {"class_name": "Zeros", "config": {}}, "activation": "relu", "trainable": true, "kernel_initializer": {"class_name": "VarianceScaling", "config": {"scale": 1.0, "mode": "fan_avg", "distribution": "uniform", "seed": null}}}}, {"class_name": "BatchNormalization", "name": "batch_normalization_67", "inbound_nodes": [[["conv2d_67", 0, 0, {}]]], "config": {"momentum": 0.99, "epsilon": 1e-05, "name": "batch_normalization_67", "gamma_regularizer": null, "moving_mean_initializer": {"class_name": "Zeros", "config": {}}, "beta_regularizer": null, "center": true, "axis": -1, "scale": true, "beta_initializer": {"class_name": "Zeros", "config": {}}, "gamma_constraint": null, "moving_variance_initializer": {"class_name": "Ones", "config": {}}, "beta_constraint": null, "trainable": true, "gamma_initializer": {"class_name": "Ones", "config": {}}}}, {"class_name": "BatchNormalization", "name": "batch_normalization_70", "inbound_nodes": [[["conv2d_69", 0, 0, {}]]], "config": {"momentum": 0.99, "epsilon": 1e-05, "name": "batch_normalization_70", "gamma_regularizer": null, "moving_mean_initializer": {"class_name": "Zeros", "config": {}}, "beta_regularizer": null, "center": true, "axis": -1, "scale": true, "beta_initializer": {"class_name": "Zeros", "config": {}}, "gamma_constraint": null, "moving_variance_initializer": {"class_name": "Ones", "config": {}}, "beta_constraint": null, "trainable": true, "gamma_initializer": {"class_name": "Ones", "config": {}}}}, {"class_name": "BatchNormalization", "name": "batch_normalization_73", "inbound_nodes": [[["conv2d_71", 0, 0, {}]]], "config": {"momentum": 0.99, "epsilon": 1e-05, "name": "batch_normalization_73", "gamma_regularizer": null, "moving_mean_initializer": {"class_name": "Zeros", "config": {}}, "beta_regularizer": null, "center": true, "axis": -1, "scale": true, "beta_initializer": {"class_name": "Zeros", "config": {}}, "gamma_constraint": null, "moving_variance_initializer": {"class_name": "Ones", "config": {}}, "beta_constraint": null, "trainable": true, "gamma_initializer": {"class_name": "Ones", "config": {}}}}, {"class_name": "BatchNormalization", "name": "batch_normalization_77", "inbound_nodes": [[["conv2d_74", 0, 0, {}]]], "config": {"momentum": 0.99, "epsilon": 1e-05, "name": "batch_normalization_77", "gamma_regularizer": null, "moving_mean_initializer": {"class_name": "Zeros", "config": {}}, "beta_regularizer": null, "center": true, "axis": -1, "scale": true, "beta_initializer": {"class_name": "Zeros", "config": {}}, "gamma_constraint": null, "moving_variance_initializer": {"class_name": "Ones", "config": {}}, "beta_constraint": null, "trainable": true, "gamma_initializer": {"class_name": "Ones", "config": {}}}}, {"class_name": "BatchNormalization", "name": "batch_normalization_102", "inbound_nodes": [[["conv2d_96", 0, 0, {}]]], "config": {"momentum": 0.99, "epsilon": 1e-05, "name": "batch_normalization_102", "gamma_regularizer": null, "moving_mean_initializer": {"class_name": "Zeros", "config": {}}, "beta_regularizer": null, "center": true, "axis": -1, "scale": true, "beta_initializer": {"class_name": "Zeros", "config": {}}, "gamma_constraint": null, "moving_variance_initializer": {"class_name": "Ones", "config": {}}, "beta_constraint": null, "trainable": true, "gamma_initializer": {"class_name": "Ones", "config": {}}}}, {"class_name": "SeparableConv2D", "name": "separable_conv2d_17", "inbound_nodes": [[["batch_normalization_67", 0, 0, {}]]], "config": {"kernel_size": [3, 3], "name": "separable_conv2d_17", "dilation_rate": [1, 1], "strides": [1, 1], "use_bias": false, "data_format": "channels_last", "depth_multiplier": 1, "padding": "same", "depthwise_initializer": {"class_name": "VarianceScaling", "config": {"scale": 1.0, "mode": "fan_avg", "distribution": "uniform", "seed": null}}, "depthwise_constraint": null, "bias_regularizer": null, "bias_constraint": null, "pointwise_initializer": {"class_name": "VarianceScaling", "config": {"scale": 1.0, "mode": "fan_avg", "distribution": "uniform", "seed": null}}, "activity_regularizer": null, "pointwise_constraint": null, "filters": 320, "bias_initializer": {"class_name": "Zeros", "config": {}}, "pointwise_regularizer": null, "activation": "linear", "trainable": true, "depthwise_regularizer": null}}, {"class_name": "SeparableConv2D", "name": "separable_conv2d_18", "inbound_nodes": [[["batch_normalization_70", 0, 0, {}]]], "config": {"kernel_size": [3, 3], "name": "separable_conv2d_18", "dilation_rate": [3, 3], "strides": [1, 1], "use_bias": false, "data_format": "channels_last", "depth_multiplier": 1, "padding": "same", "depthwise_initializer": {"class_name": "VarianceScaling", "config": {"scale": 1.0, "mode": "fan_avg", "distribution": "uniform", "seed": null}}, "depthwise_constraint": null, "bias_regularizer": null, "bias_constraint": null, "pointwise_initializer": {"class_name": "VarianceScaling", "config": {"scale": 1.0, "mode": "fan_avg", "distribution": "uniform", "seed": null}}, "activity_regularizer": null, "pointwise_constraint": null, "filters": 320, "bias_initializer": {"class_name": "Zeros", "config": {}}, "pointwise_regularizer": null, "activation": "linear", "trainable": true, "depthwise_regularizer": null}}, {"class_name": "SeparableConv2D", "name": "separable_conv2d_19", "inbound_nodes": [[["batch_normalization_73", 0, 0, {}]]], "config": {"kernel_size": [3, 3], "name": "separable_conv2d_19", "dilation_rate": [3, 3], "strides": [1, 1], "use_bias": false, "data_format": "channels_last", "depth_multiplier": 1, "padding": "same", "depthwise_initializer": {"class_name": "VarianceScaling", "config": {"scale": 1.0, "mode": "fan_avg", "distribution": "uniform", "seed": null}}, "depthwise_constraint": null, "bias_regularizer": null, "bias_constraint": null, "pointwise_initializer": {"class_name": "VarianceScaling", "config": {"scale": 1.0, "mode": "fan_avg", "distribution": "uniform", "seed": null}}, "activity_regularizer": null, "pointwise_constraint": null, "filters": 320, "bias_initializer": {"class_name": "Zeros", "config": {}}, "pointwise_regularizer": null, "activation": "linear", "trainable": true, "depthwise_regularizer": null}}, {"class_name": "SeparableConv2D", "name": "separable_conv2d_20", "inbound_nodes": [[["batch_normalization_77", 0, 0, {}]]], "config": {"kernel_size": [3, 3], "name": "separable_conv2d_20", "dilation_rate": [5, 5], "strides": [1, 1], "use_bias": false, "data_format": "channels_last", "depth_multiplier": 1, "padding": "same", "depthwise_initializer": {"class_name": "VarianceScaling", "config": {"scale": 1.0, "mode": "fan_avg", "distribution": "uniform", "seed": null}}, "depthwise_constraint": null, "bias_regularizer": null, "bias_constraint": null, "pointwise_initializer": {"class_name": "VarianceScaling", "config": {"scale": 1.0, "mode": "fan_avg", "distribution": "uniform", "seed": null}}, "activity_regularizer": null, "pointwise_constraint": null, "filters": 320, "bias_initializer": {"class_name": "Zeros", "config": {}}, "pointwise_regularizer": null, "activation": "linear", "trainable": true, "depthwise_regularizer": null}}, {"class_name": "Conv2D", "name": "conv2d_97", "inbound_nodes": [[["batch_normalization_102", 0, 0, {}]]], "config": {"kernel_size": [3, 3], "name": "conv2d_97", "dilation_rate": [1, 1], "strides": [2, 2], "use_bias": false, "data_format": "channels_last", "activity_regularizer": null, "padding": "same", "kernel_constraint": null, "bias_constraint": null, "kernel_regularizer": null, "bias_regularizer": null, "filters": 256, "bias_initializer": {"class_name": "Zeros", "config": {}}, "activation": "relu", "trainable": true, "kernel_initializer": {"class_name": "VarianceScaling", "config": {"scale": 1.0, "mode": "fan_avg", "distribution": "uniform", "seed": null}}}}, {"class_name": "BatchNormalization", "name": "batch_normalization_68", "inbound_nodes": [[["separable_conv2d_17", 0, 0, {}]]], "config": {"momentum": 0.01, "epsilon": 1e-05, "name": "batch_normalization_68", "gamma_regularizer": null, "moving_mean_initializer": {"class_name": "Zeros", "config": {}}, "beta_regularizer": null, "center": true, "axis": -1, "scale": true, "beta_initializer": {"class_name": "Zeros", "config": {}}, "gamma_constraint": null, "moving_variance_initializer": {"class_name": "Ones", "config": {}}, "beta_constraint": null, "trainable": true, "gamma_initializer": {"class_name": "Ones", "config": {}}}}, {"class_name": "BatchNormalization", "name": "batch_normalization_71", "inbound_nodes": [[["separable_conv2d_18", 0, 0, {}]]], "config": {"momentum": 0.01, "epsilon": 1e-05, "name": "batch_normalization_71", "gamma_regularizer": null, "moving_mean_initializer": {"class_name": "Zeros", "config": {}}, "beta_regularizer": null, "center": true, "axis": -1, "scale": true, "beta_initializer": {"class_name": "Zeros", "config": {}}, "gamma_constraint": null, "moving_variance_initializer": {"class_name": "Ones", "config": {}}, "beta_constraint": null, "trainable": true, "gamma_initializer": {"class_name": "Ones", "config": {}}}}, {"class_name": "BatchNormalization", "name": "batch_normalization_74", "inbound_nodes": [[["separable_conv2d_19", 0, 0, {}]]], "config": {"momentum": 0.01, "epsilon": 1e-05, "name": "batch_normalization_74", "gamma_regularizer": null, "moving_mean_initializer": {"class_name": "Zeros", "config": {}}, "beta_regularizer": null, "center": true, "axis": -1, "scale": true, "beta_initializer": {"class_name": "Zeros", "config": {}}, "gamma_constraint": null, "moving_variance_initializer": {"class_name": "Ones", "config": {}}, "beta_constraint": null, "trainable": true, "gamma_initializer": {"class_name": "Ones", "config": {}}}}, {"class_name": "BatchNormalization", "name": "batch_normalization_78", "inbound_nodes": [[["separable_conv2d_20", 0, 0, {}]]], "config": {"momentum": 0.01, "epsilon": 1e-05, "name": "batch_normalization_78", "gamma_regularizer": null, "moving_mean_initializer": {"class_name": "Zeros", "config": {}}, "beta_regularizer": null, "center": true, "axis": -1, "scale": true, "beta_initializer": {"class_name": "Zeros", "config": {}}, "gamma_constraint": null, "moving_variance_initializer": {"class_name": "Ones", "config": {}}, "beta_constraint": null, "trainable": true, "gamma_initializer": {"class_name": "Ones", "config": {}}}}, {"class_name": "BatchNormalization", "name": "batch_normalization_103", "inbound_nodes": [[["conv2d_97", 0, 0, {}]]], "config": {"momentum": 0.99, "epsilon": 1e-05, "name": "batch_normalization_103", "gamma_regularizer": null, "moving_mean_initializer": {"class_name": "Zeros", "config": {}}, "beta_regularizer": null, "center": true, "axis": -1, "scale": true, "beta_initializer": {"class_name": "Zeros", "config": {}}, "gamma_constraint": null, "moving_variance_initializer": {"class_name": "Ones", "config": {}}, "beta_constraint": null, "trainable": true, "gamma_initializer": {"class_name": "Ones", "config": {}}}}, {"class_name": "Concatenate", "name": "concatenate_13", "inbound_nodes": [[["batch_normalization_68", 0, 0, {}], ["batch_normalization_71", 0, 0, {}], ["batch_normalization_74", 0, 0, {}], ["batch_normalization_78", 0, 0, {}]]], "config": {"name": "concatenate_13", "trainable": true, "axis": -1}}, {"class_name": "Conv2D", "name": "conv2d_98", "inbound_nodes": [[["batch_normalization_103", 0, 0, {}]]], "config": {"kernel_size": [1, 1], "name": "conv2d_98", "dilation_rate": [1, 1], "strides": [1, 1], "use_bias": false, "data_format": "channels_last", "activity_regularizer": null, "padding": "same", "kernel_constraint": null, "bias_constraint": null, "kernel_regularizer": null, "bias_regularizer": null, "filters": 128, "bias_initializer": {"class_name": "Zeros", "config": {}}, "activation": "relu", "trainable": true, "kernel_initializer": {"class_name": "VarianceScaling", "config": {"scale": 1.0, "mode": "fan_avg", "distribution": "uniform", "seed": null}}}}, {"class_name": "Conv2D", "name": "conv2d_75", "inbound_nodes": [[["concatenate_13", 0, 0, {}]]], "config": {"kernel_size": [1, 1], "name": "conv2d_75", "dilation_rate": [1, 1], "strides": [1, 1], "use_bias": false, "data_format": "channels_last", "activity_regularizer": null, "padding": "same", "kernel_constraint": null, "bias_constraint": null, "kernel_regularizer": null, "bias_regularizer": null, "filters": 512, "bias_initializer": {"class_name": "Zeros", "config": {}}, "activation": "linear", "trainable": true, "kernel_initializer": {"class_name": "VarianceScaling", "config": {"scale": 1.0, "mode": "fan_avg", "distribution": "uniform", "seed": null}}}}, {"class_name": "BatchNormalization", "name": "batch_normalization_104", "inbound_nodes": [[["conv2d_98", 0, 0, {}]]], "config": {"momentum": 0.99, "epsilon": 1e-05, "name": "batch_normalization_104", "gamma_regularizer": null, "moving_mean_initializer": {"class_name": "Zeros", "config": {}}, "beta_regularizer": null, "center": true, "axis": -1, "scale": true, "beta_initializer": {"class_name": "Zeros", "config": {}}, "gamma_constraint": null, "moving_variance_initializer": {"class_name": "Ones", "config": {}}, "beta_constraint": null, "trainable": true, "gamma_initializer": {"class_name": "Ones", "config": {}}}}, {"class_name": "BatchNormalization", "name": "batch_normalization_79", "inbound_nodes": [[["conv2d_75", 0, 0, {}]]], "config": {"momentum": 0.99, "epsilon": 1e-05, "name": "batch_normalization_79", "gamma_regularizer": null, "moving_mean_initializer": {"class_name": "Zeros", "config": {}}, "beta_regularizer": null, "center": true, "axis": -1, "scale": true, "beta_initializer": {"class_name": "Zeros", "config": {}}, "gamma_constraint": null, "moving_variance_initializer": {"class_name": "Ones", "config": {}}, "beta_constraint": null, "trainable": true, "gamma_initializer": {"class_name": "Ones", "config": {}}}}, {"class_name": "Conv2D", "name": "conv2d_99", "inbound_nodes": [[["batch_normalization_104", 0, 0, {}]]], "config": {"kernel_size": [3, 3], "name": "conv2d_99", "dilation_rate": [1, 1], "strides": [2, 2], "use_bias": false, "data_format": "channels_last", "activity_regularizer": null, "padding": "same", "kernel_constraint": null, "bias_constraint": null, "kernel_regularizer": null, "bias_regularizer": null, "filters": 256, "bias_initializer": {"class_name": "Zeros", "config": {}}, "activation": "relu", "trainable": true, "kernel_initializer": {"class_name": "VarianceScaling", "config": {"scale": 1.0, "mode": "fan_avg", "distribution": "uniform", "seed": null}}}}, {"class_name": "Lambda", "name": "lambda_6", "inbound_nodes": [[["batch_normalization_79", 0, 0, {}]]], "config": {"name": "lambda_6", "function_type": "lambda", "arguments": {}, "output_shape_type": "raw", "function": ["4wEAAAAAAAAAAQAAAAIAAAATAAAAcwgAAAB8AACIAAAUUykBTqkAKQHaAXgpAdoFc2NhbGVyAQAA\nAPooL2hvbWUvY2FpL3Byb2plY3QvUkZCTmV0LUtlcmFzL21vZHVsZS5wedoIPGxhbWJkYT53AAAA\ncwAAAAA=\n", null, [1.0]], "trainable": true, "output_shape": null}}, {"class_name": "Conv2D", "name": "conv2d_76", "inbound_nodes": [[["out_relu", 0, 0, {}]]], "config": {"kernel_size": [1, 1], "name": "conv2d_76", "dilation_rate": [1, 1], "strides": [1, 1], "use_bias": false, "data_format": "channels_last", "activity_regularizer": null, "padding": "same", "kernel_constraint": null, "bias_constraint": null, "kernel_regularizer": null, "bias_regularizer": null, "filters": 512, "bias_initializer": {"class_name": "Zeros", "config": {}}, "activation": "linear", "trainable": true, "kernel_initializer": {"class_name": "VarianceScaling", "config": {"scale": 1.0, "mode": "fan_avg", "distribution": "uniform", "seed": null}}}}, {"class_name": "BatchNormalization", "name": "batch_normalization_105", "inbound_nodes": [[["conv2d_99", 0, 0, {}]]], "config": {"momentum": 0.99, "epsilon": 1e-05, "name": "batch_normalization_105", "gamma_regularizer": null, "moving_mean_initializer": {"class_name": "Zeros", "config": {}}, "beta_regularizer": null, "center": true, "axis": -1, "scale": true, "beta_initializer": {"class_name": "Zeros", "config": {}}, "gamma_constraint": null, "moving_variance_initializer": {"class_name": "Ones", "config": {}}, "beta_constraint": null, "trainable": true, "gamma_initializer": {"class_name": "Ones", "config": {}}}}, {"class_name": "Add", "name": "add_6", "inbound_nodes": [[["lambda_6", 0, 0, {}], ["conv2d_76", 0, 0, {}]]], "config": {"name": "add_6", "trainable": true}}, {"class_name": "Conv2D", "name": "conv2d_100", "inbound_nodes": [[["batch_normalization_105", 0, 0, {}]]], "config": {"kernel_size": [1, 1], "name": "conv2d_100", "dilation_rate": [1, 1], "strides": [1, 1], "use_bias": false, "data_format": "channels_last", "activity_regularizer": null, "padding": "same", "kernel_constraint": null, "bias_constraint": null, "kernel_regularizer": null, "bias_regularizer": null, "filters": 64, "bias_initializer": {"class_name": "Zeros", "config": {}}, "activation": "relu", "trainable": true, "kernel_initializer": {"class_name": "VarianceScaling", "config": {"scale": 1.0, "mode": "fan_avg", "distribution": "uniform", "seed": null}}}}, {"class_name": "Activation", "name": "activation_6", "inbound_nodes": [[["add_6", 0, 0, {}]]], "config": {"name": "activation_6", "trainable": true, "activation": "relu"}}, {"class_name": "BatchNormalization", "name": "batch_normalization_106", "inbound_nodes": [[["conv2d_100", 0, 0, {}]]], "config": {"momentum": 0.99, "epsilon": 1e-05, "name": "batch_normalization_106", "gamma_regularizer": null, "moving_mean_initializer": {"class_name": "Zeros", "config": {}}, "beta_regularizer": null, "center": true, "axis": -1, "scale": true, "beta_initializer": {"class_name": "Zeros", "config": {}}, "gamma_constraint": null, "moving_variance_initializer": {"class_name": "Ones", "config": {}}, "beta_constraint": null, "trainable": true, "gamma_initializer": {"class_name": "Ones", "config": {}}}}, {"class_name": "Conv2D", "name": "conv2d_102", "inbound_nodes": [[["activation_6", 0, 0, {}]]], "config": {"kernel_size": [1, 1], "name": "conv2d_102", "dilation_rate": [1, 1], "strides": [1, 1], "use_bias": true, "data_format": "channels_last", "activity_regularizer": null, "padding": "valid", "kernel_constraint": null, "bias_constraint": null, "kernel_regularizer": null, "bias_regularizer": null, "filters": 126, "bias_initializer": {"class_name": "Zeros", "config": {}}, "activation": "linear", "trainable": true, "kernel_initializer": {"class_name": "VarianceScaling", "config": {"scale": 1.0, "mode": "fan_avg", "distribution": "uniform", "seed": null}}}}, {"class_name": "Conv2D", "name": "conv2d_104", "inbound_nodes": [[["out_relu", 0, 0, {}]]], "config": {"kernel_size": [1, 1], "name": "conv2d_104", "dilation_rate": [1, 1], "strides": [1, 1], "use_bias": true, "data_format": "channels_last", "activity_regularizer": null, "padding": "valid", "kernel_constraint": null, "bias_constraint": null, "kernel_regularizer": null, "bias_regularizer": null, "filters": 126, "bias_initializer": {"class_name": "Zeros", "config": {}}, "activation": "linear", "trainable": true, "kernel_initializer": {"class_name": "VarianceScaling", "config": {"scale": 1.0, "mode": "fan_avg", "distribution": "uniform", "seed": null}}}}, {"class_name": "Conv2D", "name": "conv2d_106", "inbound_nodes": [[["activation_7", 0, 0, {}]]], "config": {"kernel_size": [1, 1], "name": "conv2d_106", "dilation_rate": [1, 1], "strides": [1, 1], "use_bias": true, "data_format": "channels_last", "activity_regularizer": null, "padding": "valid", "kernel_constraint": null, "bias_constraint": null, "kernel_regularizer": null, "bias_regularizer": null, "filters": 126, "bias_initializer": {"class_name": "Zeros", "config": {}}, "activation": "linear", "trainable": true, "kernel_initializer": {"class_name": "VarianceScaling", "config": {"scale": 1.0, "mode": "fan_avg", "distribution": "uniform", "seed": null}}}}, {"class_name": "Conv2D", "name": "conv2d_108", "inbound_nodes": [[["batch_normalization_102", 0, 0, {}]]], "config": {"kernel_size": [1, 1], "name": "conv2d_108", "dilation_rate": [1, 1], "strides": [1, 1], "use_bias": true, "data_format": "channels_last", "activity_regularizer": null, "padding": "valid", "kernel_constraint": null, "bias_constraint": null, "kernel_regularizer": null, "bias_regularizer": null, "filters": 126, "bias_initializer": {"class_name": "Zeros", "config": {}}, "activation": "linear", "trainable": true, "kernel_initializer": {"class_name": "VarianceScaling", "config": {"scale": 1.0, "mode": "fan_avg", "distribution": "uniform", "seed": null}}}}, {"class_name": "Conv2D", "name": "conv2d_110", "inbound_nodes": [[["batch_normalization_104", 0, 0, {}]]], "config": {"kernel_size": [1, 1], "name": "conv2d_110", "dilation_rate": [1, 1], "strides": [1, 1], "use_bias": true, "data_format": "channels_last", "activity_regularizer": null, "padding": "valid", "kernel_constraint": null, "bias_constraint": null, "kernel_regularizer": null, "bias_regularizer": null, "filters": 84, "bias_initializer": {"class_name": "Zeros", "config": {}}, "activation": "linear", "trainable": true, "kernel_initializer": {"class_name": "VarianceScaling", "config": {"scale": 1.0, "mode": "fan_avg", "distribution": "uniform", "seed": null}}}}, {"class_name": "Conv2D", "name": "conv2d_112", "inbound_nodes": [[["batch_normalization_106", 0, 0, {}]]], "config": {"kernel_size": [1, 1], "name": "conv2d_112", "dilation_rate": [1, 1], "strides": [1, 1], "use_bias": true, "data_format": "channels_last", "activity_regularizer": null, "padding": "valid", "kernel_constraint": null, "bias_constraint": null, "kernel_regularizer": null, "bias_regularizer": null, "filters": 84, "bias_initializer": {"class_name": "Zeros", "config": {}}, "activation": "linear", "trainable": true, "kernel_initializer": {"class_name": "VarianceScaling", "config": {"scale": 1.0, "mode": "fan_avg", "distribution": "uniform", "seed": null}}}}, {"class_name": "Reshape", "name": "reshape_14", "inbound_nodes": [[["conv2d_102", 0, 0, {}]]], "config": {"name": "reshape_14", "target_shape": [294, 21], "trainable": true}}, {"class_name": "Conv2D", "name": "conv2d_101", "inbound_nodes": [[["activation_6", 0, 0, {}]]], "config": {"kernel_size": [1, 1], "name": "conv2d_101", "dilation_rate": [1, 1], "strides": [1, 1], "use_bias": true, "data_format": "channels_last", "activity_regularizer": null, "padding": "valid", "kernel_constraint": null, "bias_constraint": null, "kernel_regularizer": null, "bias_regularizer": null, "filters": 24, "bias_initializer": {"class_name": "Zeros", "config": {}}, "activation": "linear", "trainable": true, "kernel_initializer": {"class_name": "VarianceScaling", "config": {"scale": 1.0, "mode": "fan_avg", "distribution": "uniform", "seed": null}}}}, {"class_name": "Reshape", "name": "reshape_16", "inbound_nodes": [[["conv2d_104", 0, 0, {}]]], "config": {"name": "reshape_16", "target_shape": [294, 21], "trainable": true}}, {"class_name": "Conv2D", "name": "conv2d_103", "inbound_nodes": [[["out_relu", 0, 0, {}]]], "config": {"kernel_size": [1, 1], "name": "conv2d_103", "dilation_rate": [1, 1], "strides": [1, 1], "use_bias": true, "data_format": "channels_last", "activity_regularizer": null, "padding": "valid", "kernel_constraint": null, "bias_constraint": null, "kernel_regularizer": null, "bias_regularizer": null, "filters": 24, "bias_initializer": {"class_name": "Zeros", "config": {}}, "activation": "linear", "trainable": true, "kernel_initializer": {"class_name": "VarianceScaling", "config": {"scale": 1.0, "mode": "fan_avg", "distribution": "uniform", "seed": null}}}}, {"class_name": "Reshape", "name": "reshape_18", "inbound_nodes": [[["conv2d_106", 0, 0, {}]]], "config": {"name": "reshape_18", "target_shape": [96, 21], "trainable": true}}, {"class_name": "Conv2D", "name": "conv2d_105", "inbound_nodes": [[["activation_7", 0, 0, {}]]], "config": {"kernel_size": [1, 1], "name": "conv2d_105", "dilation_rate": [1, 1], "strides": [1, 1], "use_bias": true, "data_format": "channels_last", "activity_regularizer": null, "padding": "valid", "kernel_constraint": null, "bias_constraint": null, "kernel_regularizer": null, "bias_regularizer": null, "filters": 24, "bias_initializer": {"class_name": "Zeros", "config": {}}, "activation": "linear", "trainable": true, "kernel_initializer": {"class_name": "VarianceScaling", "config": {"scale": 1.0, "mode": "fan_avg", "distribution": "uniform", "seed": null}}}}, {"class_name": "Reshape", "name": "reshape_20", "inbound_nodes": [[["conv2d_108", 0, 0, {}]]], "config": {"name": "reshape_20", "target_shape": [96, 21], "trainable": true}}, {"class_name": "Conv2D", "name": "conv2d_107", "inbound_nodes": [[["batch_normalization_102", 0, 0, {}]]], "config": {"kernel_size": [1, 1], "name": "conv2d_107", "dilation_rate": [1, 1], "strides": [1, 1], "use_bias": true, "data_format": "channels_last", "activity_regularizer": null, "padding": "valid", "kernel_constraint": null, "bias_constraint": null, "kernel_regularizer": null, "bias_regularizer": null, "filters": 24, "bias_initializer": {"class_name": "Zeros", "config": {}}, "activation": "linear", "trainable": true, "kernel_initializer": {"class_name": "VarianceScaling", "config": {"scale": 1.0, "mode": "fan_avg", "distribution": "uniform", "seed": null}}}}, {"class_name": "Reshape", "name": "reshape_22", "inbound_nodes": [[["conv2d_110", 0, 0, {}]]], "config": {"name": "reshape_22", "target_shape": [16, 21], "trainable": true}}, {"class_name": "Conv2D", "name": "conv2d_109", "inbound_nodes": [[["batch_normalization_104", 0, 0, {}]]], "config": {"kernel_size": [1, 1], "name": "conv2d_109", "dilation_rate": [1, 1], "strides": [1, 1], "use_bias": true, "data_format": "channels_last", "activity_regularizer": null, "padding": "valid", "kernel_constraint": null, "bias_constraint": null, "kernel_regularizer": null, "bias_regularizer": null, "filters": 16, "bias_initializer": {"class_name": "Zeros", "config": {}}, "activation": "linear", "trainable": true, "kernel_initializer": {"class_name": "VarianceScaling", "config": {"scale": 1.0, "mode": "fan_avg", "distribution": "uniform", "seed": null}}}}, {"class_name": "Reshape", "name": "reshape_24", "inbound_nodes": [[["conv2d_112", 0, 0, {}]]], "config": {"name": "reshape_24", "target_shape": [4, 21], "trainable": true}}, {"class_name": "Conv2D", "name": "conv2d_111", "inbound_nodes": [[["batch_normalization_106", 0, 0, {}]]], "config": {"kernel_size": [1, 1], "name": "conv2d_111", "dilation_rate": [1, 1], "strides": [1, 1], "use_bias": true, "data_format": "channels_last", "activity_regularizer": null, "padding": "valid", "kernel_constraint": null, "bias_constraint": null, "kernel_regularizer": null, "bias_regularizer": null, "filters": 16, "bias_initializer": {"class_name": "Zeros", "config": {}}, "activation": "linear", "trainable": true, "kernel_initializer": {"class_name": "VarianceScaling", "config": {"scale": 1.0, "mode": "fan_avg", "distribution": "uniform", "seed": null}}}}, {"class_name": "Softmax", "name": "softmax_7", "inbound_nodes": [[["reshape_14", 0, 0, {}]]], "config": {"name": "softmax_7", "trainable": true, "axis": -1}}, {"class_name": "Reshape", "name": "reshape_13", "inbound_nodes": [[["conv2d_101", 0, 0, {}]]], "config": {"name": "reshape_13", "target_shape": [294, 4], "trainable": true}}, {"class_name": "Softmax", "name": "softmax_8", "inbound_nodes": [[["reshape_16", 0, 0, {}]]], "config": {"name": "softmax_8", "trainable": true, "axis": -1}}, {"class_name": "Reshape", "name": "reshape_15", "inbound_nodes": [[["conv2d_103", 0, 0, {}]]], "config": {"name": "reshape_15", "target_shape": [294, 4], "trainable": true}}, {"class_name": "Softmax", "name": "softmax_9", "inbound_nodes": [[["reshape_18", 0, 0, {}]]], "config": {"name": "softmax_9", "trainable": true, "axis": -1}}, {"class_name": "Reshape", "name": "reshape_17", "inbound_nodes": [[["conv2d_105", 0, 0, {}]]], "config": {"name": "reshape_17", "target_shape": [96, 4], "trainable": true}}, {"class_name": "Softmax", "name": "softmax_10", "inbound_nodes": [[["reshape_20", 0, 0, {}]]], "config": {"name": "softmax_10", "trainable": true, "axis": -1}}, {"class_name": "Reshape", "name": "reshape_19", "inbound_nodes": [[["conv2d_107", 0, 0, {}]]], "config": {"name": "reshape_19", "target_shape": [96, 4], "trainable": true}}, {"class_name": "Softmax", "name": "softmax_11", "inbound_nodes": [[["reshape_22", 0, 0, {}]]], "config": {"name": "softmax_11", "trainable": true, "axis": -1}}, {"class_name": "Reshape", "name": "reshape_21", "inbound_nodes": [[["conv2d_109", 0, 0, {}]]], "config": {"name": "reshape_21", "target_shape": [16, 4], "trainable": true}}, {"class_name": "Softmax", "name": "softmax_12", "inbound_nodes": [[["reshape_24", 0, 0, {}]]], "config": {"name": "softmax_12", "trainable": true, "axis": -1}}, {"class_name": "Reshape", "name": "reshape_23", "inbound_nodes": [[["conv2d_111", 0, 0, {}]]], "config": {"name": "reshape_23", "target_shape": [4, 4], "trainable": true}}, {"class_name": "Concatenate", "name": "concatenate_16", "inbound_nodes": [[["softmax_7", 0, 0, {}], ["reshape_13", 0, 0, {}]]], "config": {"name": "concatenate_16", "trainable": true, "axis": -1}}, {"class_name": "Concatenate", "name": "concatenate_17", "inbound_nodes": [[["softmax_8", 0, 0, {}], ["reshape_15", 0, 0, {}]]], "config": {"name": "concatenate_17", "trainable": true, "axis": -1}}, {"class_name": "Concatenate", "name": "concatenate_18", "inbound_nodes": [[["softmax_9", 0, 0, {}], ["reshape_17", 0, 0, {}]]], "config": {"name": "concatenate_18", "trainable": true, "axis": -1}}, {"class_name": "Concatenate", "name": "concatenate_19", "inbound_nodes": [[["softmax_10", 0, 0, {}], ["reshape_19", 0, 0, {}]]], "config": {"name": "concatenate_19", "trainable": true, "axis": -1}}, {"class_name": "Concatenate", "name": "concatenate_20", "inbound_nodes": [[["softmax_11", 0, 0, {}], ["reshape_21", 0, 0, {}]]], "config": {"name": "concatenate_20", "trainable": true, "axis": -1}}, {"class_name": "Concatenate", "name": "concatenate_21", "inbound_nodes": [[["softmax_12", 0, 0, {}], ["reshape_23", 0, 0, {}]]], "config": {"name": "concatenate_21", "trainable": true, "axis": -1}}, {"class_name": "Concatenate", "name": "concatenate_22", "inbound_nodes": [[["concatenate_16", 0, 0, {}], ["concatenate_17", 0, 0, {}], ["concatenate_18", 0, 0, {}], ["concatenate_19", 0, 0, {}], ["concatenate_20", 0, 0, {}], ["concatenate_21", 0, 0, {}]]], "config": {"name": "concatenate_22", "trainable": true, "axis": 1}}], "input_layers": [["input_7", 0, 0]], "output_layers": [["concatenate_22", 0, 0]]}, "backend": "tensorflow"}