{"backend": "tensorflow", "class_name": "Model", "config": {"output_layers": [["concatenate_40", 0, 0]], "input_layers": [["input_4", 0, 0]], "layers": [{"class_name": "InputLayer", "config": {"dtype": "float32", "sparse": false, "batch_input_shape": [null, 224, 224, 3], "name": "input_4"}, "inbound_nodes": [], "name": "input_4"}, {"class_name": "ZeroPadding2D", "config": {"trainable": true, "data_format": "channels_last", "padding": [[0, 1], [0, 1]], "name": "Conv1_pad"}, "inbound_nodes": [[["input_4", 0, 0, {}]]], "name": "Conv1_pad"}, {"class_name": "Conv2D", "config": {"bias_constraint": null, "strides": [2, 2], "name": "Conv1", "activity_regularizer": null, "activation": "linear", "bias_initializer": {"class_name": "Zeros", "config": {}}, "kernel_size": [3, 3], "kernel_constraint": null, "use_bias": false, "data_format": "channels_last", "padding": "valid", "kernel_initializer": {"class_name": "VarianceScaling", "config": {"distribution": "uniform", "scale": 1.0, "mode": "fan_avg", "seed": null}}, "trainable": true, "filters": 32, "bias_regularizer": null, "kernel_regularizer": null, "dilation_rate": [1, 1]}, "inbound_nodes": [[["Conv1_pad", 0, 0, {}]]], "name": "Conv1"}, {"class_name": "BatchNormalization", "config": {"scale": true, "momentum": 0.999, "gamma_constraint": null, "name": "bn_Conv1", "epsilon": 0.001, "moving_mean_initializer": {"class_name": "Zeros", "config": {}}, "moving_variance_initializer": {"class_name": "Ones", "config": {}}, "beta_constraint": null, "gamma_regularizer": null, "beta_initializer": {"class_name": "Zeros", "config": {}}, "center": true, "trainable": true, "gamma_initializer": {"class_name": "Ones", "config": {}}, "axis": -1, "beta_regularizer": null}, "inbound_nodes": [[["Conv1", 0, 0, {}]]], "name": "bn_Conv1"}, {"class_name": "ReLU", "config": {"trainable": true, "max_value": 6.0, "threshold": 0.0, "name": "Conv1_relu", "negative_slope": 0.0}, "inbound_nodes": [[["bn_Conv1", 0, 0, {}]]], "name": "Conv1_relu"}, {"class_name": "DepthwiseConv2D", "config": {"bias_constraint": null, "strides": [1, 1], "kernel_size": [3, 3], "activity_regularizer": null, "activation": "linear", "bias_initializer": {"class_name": "Zeros", "config": {}}, "name": "expanded_conv_depthwise", "depthwise_constraint": null, "use_bias": false, "data_format": "channels_last", "padding": "same", "trainable": true, "depth_multiplier": 1, "depthwise_initializer": {"class_name": "VarianceScaling", "config": {"distribution": "uniform", "scale": 1.0, "mode": "fan_avg", "seed": null}}, "bias_regularizer": null, "depthwise_regularizer": null, "dilation_rate": [1, 1]}, "inbound_nodes": [[["Conv1_relu", 0, 0, {}]]], "name": "expanded_conv_depthwise"}, {"class_name": "BatchNormalization", "config": {"scale": true, "momentum": 0.999, "gamma_constraint": null, "name": "expanded_conv_depthwise_BN", "epsilon": 0.001, "moving_mean_initializer": {"class_name": "Zeros", "config": {}}, "moving_variance_initializer": {"class_name": "Ones", "config": {}}, "beta_constraint": null, "gamma_regularizer": null, "beta_initializer": {"class_name": "Zeros", "config": {}}, "center": true, "trainable": true, "gamma_initializer": {"class_name": "Ones", "config": {}}, "axis": -1, "beta_regularizer": null}, "inbound_nodes": [[["expanded_conv_depthwise", 0, 0, {}]]], "name": "expanded_conv_depthwise_BN"}, {"class_name": "ReLU", "config": {"trainable": true, "max_value": 6.0, "threshold": 0.0, "name": "expanded_conv_depthwise_relu", "negative_slope": 0.0}, "inbound_nodes": [[["expanded_conv_depthwise_BN", 0, 0, {}]]], "name": "expanded_conv_depthwise_relu"}, {"class_name": "Conv2D", "config": {"bias_constraint": null, "strides": [1, 1], "name": "expanded_conv_project", "activity_regularizer": null, "activation": "linear", "bias_initializer": {"class_name": "Zeros", "config": {}}, "kernel_size": [1, 1], "kernel_constraint": null, "use_bias": false, "data_format": "channels_last", "padding": "same", "kernel_initializer": {"class_name": "VarianceScaling", "config": {"distribution": "uniform", "scale": 1.0, "mode": "fan_avg", "seed": null}}, "trainable": true, "filters": 16, "bias_regularizer": null, "kernel_regularizer": null, "dilation_rate": [1, 1]}, "inbound_nodes": [[["expanded_conv_depthwise_relu", 0, 0, {}]]], "name": "expanded_conv_project"}, {"class_name": "BatchNormalization", "config": {"scale": true, "momentum": 0.999, "gamma_constraint": null, "name": "expanded_conv_project_BN", "epsilon": 0.001, "moving_mean_initializer": {"class_name": "Zeros", "config": {}}, "moving_variance_initializer": {"class_name": "Ones", "config": {}}, "beta_constraint": null, "gamma_regularizer": null, "beta_initializer": {"class_name": "Zeros", "config": {}}, "center": true, "trainable": true, "gamma_initializer": {"class_name": "Ones", "config": {}}, "axis": -1, "beta_regularizer": null}, "inbound_nodes": [[["expanded_conv_project", 0, 0, {}]]], "name": "expanded_conv_project_BN"}, {"class_name": "Conv2D", "config": {"bias_constraint": null, "strides": [1, 1], "name": "block_1_expand", "activity_regularizer": null, "activation": "linear", "bias_initializer": {"class_name": "Zeros", "config": {}}, "kernel_size": [1, 1], "kernel_constraint": null, "use_bias": false, "data_format": "channels_last", "padding": "same", "kernel_initializer": {"class_name": "VarianceScaling", "config": {"distribution": "uniform", "scale": 1.0, "mode": "fan_avg", "seed": null}}, "trainable": true, "filters": 96, "bias_regularizer": null, "kernel_regularizer": null, "dilation_rate": [1, 1]}, "inbound_nodes": [[["expanded_conv_project_BN", 0, 0, {}]]], "name": "block_1_expand"}, {"class_name": "BatchNormalization", "config": {"scale": true, "momentum": 0.999, "gamma_constraint": null, "name": "block_1_expand_BN", "epsilon": 0.001, "moving_mean_initializer": {"class_name": "Zeros", "config": {}}, "moving_variance_initializer": {"class_name": "Ones", "config": {}}, "beta_constraint": null, "gamma_regularizer": null, "beta_initializer": {"class_name": "Zeros", "config": {}}, "center": true, "trainable": true, "gamma_initializer": {"class_name": "Ones", "config": {}}, "axis": -1, "beta_regularizer": null}, "inbound_nodes": [[["block_1_expand", 0, 0, {}]]], "name": "block_1_expand_BN"}, {"class_name": "ReLU", "config": {"trainable": true, "max_value": 6.0, "threshold": 0.0, "name": "block_1_expand_relu", "negative_slope": 0.0}, "inbound_nodes": [[["block_1_expand_BN", 0, 0, {}]]], "name": "block_1_expand_relu"}, {"class_name": "ZeroPadding2D", "config": {"trainable": true, "data_format": "channels_last", "padding": [[0, 1], [0, 1]], "name": "block_1_pad"}, "inbound_nodes": [[["block_1_expand_relu", 0, 0, {}]]], "name": "block_1_pad"}, {"class_name": "DepthwiseConv2D", "config": {"bias_constraint": null, "strides": [2, 2], "kernel_size": [3, 3], "activity_regularizer": null, "activation": "linear", "bias_initializer": {"class_name": "Zeros", "config": {}}, "name": "block_1_depthwise", "depthwise_constraint": null, "use_bias": false, "data_format": "channels_last", "padding": "valid", "trainable": true, "depth_multiplier": 1, "depthwise_initializer": {"class_name": "VarianceScaling", "config": {"distribution": "uniform", "scale": 1.0, "mode": "fan_avg", "seed": null}}, "bias_regularizer": null, "depthwise_regularizer": null, "dilation_rate": [1, 1]}, "inbound_nodes": [[["block_1_pad", 0, 0, {}]]], "name": "block_1_depthwise"}, {"class_name": "BatchNormalization", "config": {"scale": true, "momentum": 0.999, "gamma_constraint": null, "name": "block_1_depthwise_BN", "epsilon": 0.001, "moving_mean_initializer": {"class_name": "Zeros", "config": {}}, "moving_variance_initializer": {"class_name": "Ones", "config": {}}, "beta_constraint": null, "gamma_regularizer": null, "beta_initializer": {"class_name": "Zeros", "config": {}}, "center": true, "trainable": true, "gamma_initializer": {"class_name": "Ones", "config": {}}, "axis": -1, "beta_regularizer": null}, "inbound_nodes": [[["block_1_depthwise", 0, 0, {}]]], "name": "block_1_depthwise_BN"}, {"class_name": "ReLU", "config": {"trainable": true, "max_value": 6.0, "threshold": 0.0, "name": "block_1_depthwise_relu", "negative_slope": 0.0}, "inbound_nodes": [[["block_1_depthwise_BN", 0, 0, {}]]], "name": "block_1_depthwise_relu"}, {"class_name": "Conv2D", "config": {"bias_constraint": null, "strides": [1, 1], "name": "block_1_project", "activity_regularizer": null, "activation": "linear", "bias_initializer": {"class_name": "Zeros", "config": {}}, "kernel_size": [1, 1], "kernel_constraint": null, "use_bias": false, "data_format": "channels_last", "padding": "same", "kernel_initializer": {"class_name": "VarianceScaling", "config": {"distribution": "uniform", "scale": 1.0, "mode": "fan_avg", "seed": null}}, "trainable": true, "filters": 24, "bias_regularizer": null, "kernel_regularizer": null, "dilation_rate": [1, 1]}, "inbound_nodes": [[["block_1_depthwise_relu", 0, 0, {}]]], "name": "block_1_project"}, {"class_name": "BatchNormalization", "config": {"scale": true, "momentum": 0.999, "gamma_constraint": null, "name": "block_1_project_BN", "epsilon": 0.001, "moving_mean_initializer": {"class_name": "Zeros", "config": {}}, "moving_variance_initializer": {"class_name": "Ones", "config": {}}, "beta_constraint": null, "gamma_regularizer": null, "beta_initializer": {"class_name": "Zeros", "config": {}}, "center": true, "trainable": true, "gamma_initializer": {"class_name": "Ones", "config": {}}, "axis": -1, "beta_regularizer": null}, "inbound_nodes": [[["block_1_project", 0, 0, {}]]], "name": "block_1_project_BN"}, {"class_name": "Conv2D", "config": {"bias_constraint": null, "strides": [1, 1], "name": "block_2_expand", "activity_regularizer": null, "activation": "linear", "bias_initializer": {"class_name": "Zeros", "config": {}}, "kernel_size": [1, 1], "kernel_constraint": null, "use_bias": false, "data_format": "channels_last", "padding": "same", "kernel_initializer": {"class_name": "VarianceScaling", "config": {"distribution": "uniform", "scale": 1.0, "mode": "fan_avg", "seed": null}}, "trainable": true, "filters": 144, "bias_regularizer": null, "kernel_regularizer": null, "dilation_rate": [1, 1]}, "inbound_nodes": [[["block_1_project_BN", 0, 0, {}]]], "name": "block_2_expand"}, {"class_name": "BatchNormalization", "config": {"scale": true, "momentum": 0.999, "gamma_constraint": null, "name": "block_2_expand_BN", "epsilon": 0.001, "moving_mean_initializer": {"class_name": "Zeros", "config": {}}, "moving_variance_initializer": {"class_name": "Ones", "config": {}}, "beta_constraint": null, "gamma_regularizer": null, "beta_initializer": {"class_name": "Zeros", "config": {}}, "center": true, "trainable": true, "gamma_initializer": {"class_name": "Ones", "config": {}}, "axis": -1, "beta_regularizer": null}, "inbound_nodes": [[["block_2_expand", 0, 0, {}]]], "name": "block_2_expand_BN"}, {"class_name": "ReLU", "config": {"trainable": true, "max_value": 6.0, "threshold": 0.0, "name": "block_2_expand_relu", "negative_slope": 0.0}, "inbound_nodes": [[["block_2_expand_BN", 0, 0, {}]]], "name": "block_2_expand_relu"}, {"class_name": "DepthwiseConv2D", "config": {"bias_constraint": null, "strides": [1, 1], "kernel_size": [3, 3], "activity_regularizer": null, "activation": "linear", "bias_initializer": {"class_name": "Zeros", "config": {}}, "name": "block_2_depthwise", "depthwise_constraint": null, "use_bias": false, "data_format": "channels_last", "padding": "same", "trainable": true, "depth_multiplier": 1, "depthwise_initializer": {"class_name": "VarianceScaling", "config": {"distribution": "uniform", "scale": 1.0, "mode": "fan_avg", "seed": null}}, "bias_regularizer": null, "depthwise_regularizer": null, "dilation_rate": [1, 1]}, "inbound_nodes": [[["block_2_expand_relu", 0, 0, {}]]], "name": "block_2_depthwise"}, {"class_name": "BatchNormalization", "config": {"scale": true, "momentum": 0.999, "gamma_constraint": null, "name": "block_2_depthwise_BN", "epsilon": 0.001, "moving_mean_initializer": {"class_name": "Zeros", "config": {}}, "moving_variance_initializer": {"class_name": "Ones", "config": {}}, "beta_constraint": null, "gamma_regularizer": null, "beta_initializer": {"class_name": "Zeros", "config": {}}, "center": true, "trainable": true, "gamma_initializer": {"class_name": "Ones", "config": {}}, "axis": -1, "beta_regularizer": null}, "inbound_nodes": [[["block_2_depthwise", 0, 0, {}]]], "name": "block_2_depthwise_BN"}, {"class_name": "ReLU", "config": {"trainable": true, "max_value": 6.0, "threshold": 0.0, "name": "block_2_depthwise_relu", "negative_slope": 0.0}, "inbound_nodes": [[["block_2_depthwise_BN", 0, 0, {}]]], "name": "block_2_depthwise_relu"}, {"class_name": "Conv2D", "config": {"bias_constraint": null, "strides": [1, 1], "name": "block_2_project", "activity_regularizer": null, "activation": "linear", "bias_initializer": {"class_name": "Zeros", "config": {}}, "kernel_size": [1, 1], "kernel_constraint": null, "use_bias": false, "data_format": "channels_last", "padding": "same", "kernel_initializer": {"class_name": "VarianceScaling", "config": {"distribution": "uniform", "scale": 1.0, "mode": "fan_avg", "seed": null}}, "trainable": true, "filters": 24, "bias_regularizer": null, "kernel_regularizer": null, "dilation_rate": [1, 1]}, "inbound_nodes": [[["block_2_depthwise_relu", 0, 0, {}]]], "name": "block_2_project"}, {"class_name": "BatchNormalization", "config": {"scale": true, "momentum": 0.999, "gamma_constraint": null, "name": "block_2_project_BN", "epsilon": 0.001, "moving_mean_initializer": {"class_name": "Zeros", "config": {}}, "moving_variance_initializer": {"class_name": "Ones", "config": {}}, "beta_constraint": null, "gamma_regularizer": null, "beta_initializer": {"class_name": "Zeros", "config": {}}, "center": true, "trainable": true, "gamma_initializer": {"class_name": "Ones", "config": {}}, "axis": -1, "beta_regularizer": null}, "inbound_nodes": [[["block_2_project", 0, 0, {}]]], "name": "block_2_project_BN"}, {"class_name": "Add", "config": {"trainable": true, "name": "block_2_add"}, "inbound_nodes": [[["block_1_project_BN", 0, 0, {}], ["block_2_project_BN", 0, 0, {}]]], "name": "block_2_add"}, {"class_name": "Conv2D", "config": {"bias_constraint": null, "strides": [1, 1], "name": "block_3_expand", "activity_regularizer": null, "activation": "linear", "bias_initializer": {"class_name": "Zeros", "config": {}}, "kernel_size": [1, 1], "kernel_constraint": null, "use_bias": false, "data_format": "channels_last", "padding": "same", "kernel_initializer": {"class_name": "VarianceScaling", "config": {"distribution": "uniform", "scale": 1.0, "mode": "fan_avg", "seed": null}}, "trainable": true, "filters": 144, "bias_regularizer": null, "kernel_regularizer": null, "dilation_rate": [1, 1]}, "inbound_nodes": [[["block_2_add", 0, 0, {}]]], "name": "block_3_expand"}, {"class_name": "BatchNormalization", "config": {"scale": true, "momentum": 0.999, "gamma_constraint": null, "name": "block_3_expand_BN", "epsilon": 0.001, "moving_mean_initializer": {"class_name": "Zeros", "config": {}}, "moving_variance_initializer": {"class_name": "Ones", "config": {}}, "beta_constraint": null, "gamma_regularizer": null, "beta_initializer": {"class_name": "Zeros", "config": {}}, "center": true, "trainable": true, "gamma_initializer": {"class_name": "Ones", "config": {}}, "axis": -1, "beta_regularizer": null}, "inbound_nodes": [[["block_3_expand", 0, 0, {}]]], "name": "block_3_expand_BN"}, {"class_name": "ReLU", "config": {"trainable": true, "max_value": 6.0, "threshold": 0.0, "name": "block_3_expand_relu", "negative_slope": 0.0}, "inbound_nodes": [[["block_3_expand_BN", 0, 0, {}]]], "name": "block_3_expand_relu"}, {"class_name": "ZeroPadding2D", "config": {"trainable": true, "data_format": "channels_last", "padding": [[0, 1], [0, 1]], "name": "block_3_pad"}, "inbound_nodes": [[["block_3_expand_relu", 0, 0, {}]]], "name": "block_3_pad"}, {"class_name": "DepthwiseConv2D", "config": {"bias_constraint": null, "strides": [2, 2], "kernel_size": [3, 3], "activity_regularizer": null, "activation": "linear", "bias_initializer": {"class_name": "Zeros", "config": {}}, "name": "block_3_depthwise", "depthwise_constraint": null, "use_bias": false, "data_format": "channels_last", "padding": "valid", "trainable": true, "depth_multiplier": 1, "depthwise_initializer": {"class_name": "VarianceScaling", "config": {"distribution": "uniform", "scale": 1.0, "mode": "fan_avg", "seed": null}}, "bias_regularizer": null, "depthwise_regularizer": null, "dilation_rate": [1, 1]}, "inbound_nodes": [[["block_3_pad", 0, 0, {}]]], "name": "block_3_depthwise"}, {"class_name": "BatchNormalization", "config": {"scale": true, "momentum": 0.999, "gamma_constraint": null, "name": "block_3_depthwise_BN", "epsilon": 0.001, "moving_mean_initializer": {"class_name": "Zeros", "config": {}}, "moving_variance_initializer": {"class_name": "Ones", "config": {}}, "beta_constraint": null, "gamma_regularizer": null, "beta_initializer": {"class_name": "Zeros", "config": {}}, "center": true, "trainable": true, "gamma_initializer": {"class_name": "Ones", "config": {}}, "axis": -1, "beta_regularizer": null}, "inbound_nodes": [[["block_3_depthwise", 0, 0, {}]]], "name": "block_3_depthwise_BN"}, {"class_name": "ReLU", "config": {"trainable": true, "max_value": 6.0, "threshold": 0.0, "name": "block_3_depthwise_relu", "negative_slope": 0.0}, "inbound_nodes": [[["block_3_depthwise_BN", 0, 0, {}]]], "name": "block_3_depthwise_relu"}, {"class_name": "Conv2D", "config": {"bias_constraint": null, "strides": [1, 1], "name": "block_3_project", "activity_regularizer": null, "activation": "linear", "bias_initializer": {"class_name": "Zeros", "config": {}}, "kernel_size": [1, 1], "kernel_constraint": null, "use_bias": false, "data_format": "channels_last", "padding": "same", "kernel_initializer": {"class_name": "VarianceScaling", "config": {"distribution": "uniform", "scale": 1.0, "mode": "fan_avg", "seed": null}}, "trainable": true, "filters": 32, "bias_regularizer": null, "kernel_regularizer": null, "dilation_rate": [1, 1]}, "inbound_nodes": [[["block_3_depthwise_relu", 0, 0, {}]]], "name": "block_3_project"}, {"class_name": "BatchNormalization", "config": {"scale": true, "momentum": 0.999, "gamma_constraint": null, "name": "block_3_project_BN", "epsilon": 0.001, "moving_mean_initializer": {"class_name": "Zeros", "config": {}}, "moving_variance_initializer": {"class_name": "Ones", "config": {}}, "beta_constraint": null, "gamma_regularizer": null, "beta_initializer": {"class_name": "Zeros", "config": {}}, "center": true, "trainable": true, "gamma_initializer": {"class_name": "Ones", "config": {}}, "axis": -1, "beta_regularizer": null}, "inbound_nodes": [[["block_3_project", 0, 0, {}]]], "name": "block_3_project_BN"}, {"class_name": "Conv2D", "config": {"bias_constraint": null, "strides": [1, 1], "name": "block_4_expand", "activity_regularizer": null, "activation": "linear", "bias_initializer": {"class_name": "Zeros", "config": {}}, "kernel_size": [1, 1], "kernel_constraint": null, "use_bias": false, "data_format": "channels_last", "padding": "same", "kernel_initializer": {"class_name": "VarianceScaling", "config": {"distribution": "uniform", "scale": 1.0, "mode": "fan_avg", "seed": null}}, "trainable": true, "filters": 192, "bias_regularizer": null, "kernel_regularizer": null, "dilation_rate": [1, 1]}, "inbound_nodes": [[["block_3_project_BN", 0, 0, {}]]], "name": "block_4_expand"}, {"class_name": "BatchNormalization", "config": {"scale": true, "momentum": 0.999, "gamma_constraint": null, "name": "block_4_expand_BN", "epsilon": 0.001, "moving_mean_initializer": {"class_name": "Zeros", "config": {}}, "moving_variance_initializer": {"class_name": "Ones", "config": {}}, "beta_constraint": null, "gamma_regularizer": null, "beta_initializer": {"class_name": "Zeros", "config": {}}, "center": true, "trainable": true, "gamma_initializer": {"class_name": "Ones", "config": {}}, "axis": -1, "beta_regularizer": null}, "inbound_nodes": [[["block_4_expand", 0, 0, {}]]], "name": "block_4_expand_BN"}, {"class_name": "ReLU", "config": {"trainable": true, "max_value": 6.0, "threshold": 0.0, "name": "block_4_expand_relu", "negative_slope": 0.0}, "inbound_nodes": [[["block_4_expand_BN", 0, 0, {}]]], "name": "block_4_expand_relu"}, {"class_name": "DepthwiseConv2D", "config": {"bias_constraint": null, "strides": [1, 1], "kernel_size": [3, 3], "activity_regularizer": null, "activation": "linear", "bias_initializer": {"class_name": "Zeros", "config": {}}, "name": "block_4_depthwise", "depthwise_constraint": null, "use_bias": false, "data_format": "channels_last", "padding": "same", "trainable": true, "depth_multiplier": 1, "depthwise_initializer": {"class_name": "VarianceScaling", "config": {"distribution": "uniform", "scale": 1.0, "mode": "fan_avg", "seed": null}}, "bias_regularizer": null, "depthwise_regularizer": null, "dilation_rate": [1, 1]}, "inbound_nodes": [[["block_4_expand_relu", 0, 0, {}]]], "name": "block_4_depthwise"}, {"class_name": "BatchNormalization", "config": {"scale": true, "momentum": 0.999, "gamma_constraint": null, "name": "block_4_depthwise_BN", "epsilon": 0.001, "moving_mean_initializer": {"class_name": "Zeros", "config": {}}, "moving_variance_initializer": {"class_name": "Ones", "config": {}}, "beta_constraint": null, "gamma_regularizer": null, "beta_initializer": {"class_name": "Zeros", "config": {}}, "center": true, "trainable": true, "gamma_initializer": {"class_name": "Ones", "config": {}}, "axis": -1, "beta_regularizer": null}, "inbound_nodes": [[["block_4_depthwise", 0, 0, {}]]], "name": "block_4_depthwise_BN"}, {"class_name": "ReLU", "config": {"trainable": true, "max_value": 6.0, "threshold": 0.0, "name": "block_4_depthwise_relu", "negative_slope": 0.0}, "inbound_nodes": [[["block_4_depthwise_BN", 0, 0, {}]]], "name": "block_4_depthwise_relu"}, {"class_name": "Conv2D", "config": {"bias_constraint": null, "strides": [1, 1], "name": "block_4_project", "activity_regularizer": null, "activation": "linear", "bias_initializer": {"class_name": "Zeros", "config": {}}, "kernel_size": [1, 1], "kernel_constraint": null, "use_bias": false, "data_format": "channels_last", "padding": "same", "kernel_initializer": {"class_name": "VarianceScaling", "config": {"distribution": "uniform", "scale": 1.0, "mode": "fan_avg", "seed": null}}, "trainable": true, "filters": 32, "bias_regularizer": null, "kernel_regularizer": null, "dilation_rate": [1, 1]}, "inbound_nodes": [[["block_4_depthwise_relu", 0, 0, {}]]], "name": "block_4_project"}, {"class_name": "BatchNormalization", "config": {"scale": true, "momentum": 0.999, "gamma_constraint": null, "name": "block_4_project_BN", "epsilon": 0.001, "moving_mean_initializer": {"class_name": "Zeros", "config": {}}, "moving_variance_initializer": {"class_name": "Ones", "config": {}}, "beta_constraint": null, "gamma_regularizer": null, "beta_initializer": {"class_name": "Zeros", "config": {}}, "center": true, "trainable": true, "gamma_initializer": {"class_name": "Ones", "config": {}}, "axis": -1, "beta_regularizer": null}, "inbound_nodes": [[["block_4_project", 0, 0, {}]]], "name": "block_4_project_BN"}, {"class_name": "Add", "config": {"trainable": true, "name": "block_4_add"}, "inbound_nodes": [[["block_3_project_BN", 0, 0, {}], ["block_4_project_BN", 0, 0, {}]]], "name": "block_4_add"}, {"class_name": "Conv2D", "config": {"bias_constraint": null, "strides": [1, 1], "name": "block_5_expand", "activity_regularizer": null, "activation": "linear", "bias_initializer": {"class_name": "Zeros", "config": {}}, "kernel_size": [1, 1], "kernel_constraint": null, "use_bias": false, "data_format": "channels_last", "padding": "same", "kernel_initializer": {"class_name": "VarianceScaling", "config": {"distribution": "uniform", "scale": 1.0, "mode": "fan_avg", "seed": null}}, "trainable": true, "filters": 192, "bias_regularizer": null, "kernel_regularizer": null, "dilation_rate": [1, 1]}, "inbound_nodes": [[["block_4_add", 0, 0, {}]]], "name": "block_5_expand"}, {"class_name": "BatchNormalization", "config": {"scale": true, "momentum": 0.999, "gamma_constraint": null, "name": "block_5_expand_BN", "epsilon": 0.001, "moving_mean_initializer": {"class_name": "Zeros", "config": {}}, "moving_variance_initializer": {"class_name": "Ones", "config": {}}, "beta_constraint": null, "gamma_regularizer": null, "beta_initializer": {"class_name": "Zeros", "config": {}}, "center": true, "trainable": true, "gamma_initializer": {"class_name": "Ones", "config": {}}, "axis": -1, "beta_regularizer": null}, "inbound_nodes": [[["block_5_expand", 0, 0, {}]]], "name": "block_5_expand_BN"}, {"class_name": "ReLU", "config": {"trainable": true, "max_value": 6.0, "threshold": 0.0, "name": "block_5_expand_relu", "negative_slope": 0.0}, "inbound_nodes": [[["block_5_expand_BN", 0, 0, {}]]], "name": "block_5_expand_relu"}, {"class_name": "DepthwiseConv2D", "config": {"bias_constraint": null, "strides": [1, 1], "kernel_size": [3, 3], "activity_regularizer": null, "activation": "linear", "bias_initializer": {"class_name": "Zeros", "config": {}}, "name": "block_5_depthwise", "depthwise_constraint": null, "use_bias": false, "data_format": "channels_last", "padding": "same", "trainable": true, "depth_multiplier": 1, "depthwise_initializer": {"class_name": "VarianceScaling", "config": {"distribution": "uniform", "scale": 1.0, "mode": "fan_avg", "seed": null}}, "bias_regularizer": null, "depthwise_regularizer": null, "dilation_rate": [1, 1]}, "inbound_nodes": [[["block_5_expand_relu", 0, 0, {}]]], "name": "block_5_depthwise"}, {"class_name": "BatchNormalization", "config": {"scale": true, "momentum": 0.999, "gamma_constraint": null, "name": "block_5_depthwise_BN", "epsilon": 0.001, "moving_mean_initializer": {"class_name": "Zeros", "config": {}}, "moving_variance_initializer": {"class_name": "Ones", "config": {}}, "beta_constraint": null, "gamma_regularizer": null, "beta_initializer": {"class_name": "Zeros", "config": {}}, "center": true, "trainable": true, "gamma_initializer": {"class_name": "Ones", "config": {}}, "axis": -1, "beta_regularizer": null}, "inbound_nodes": [[["block_5_depthwise", 0, 0, {}]]], "name": "block_5_depthwise_BN"}, {"class_name": "ReLU", "config": {"trainable": true, "max_value": 6.0, "threshold": 0.0, "name": "block_5_depthwise_relu", "negative_slope": 0.0}, "inbound_nodes": [[["block_5_depthwise_BN", 0, 0, {}]]], "name": "block_5_depthwise_relu"}, {"class_name": "Conv2D", "config": {"bias_constraint": null, "strides": [1, 1], "name": "block_5_project", "activity_regularizer": null, "activation": "linear", "bias_initializer": {"class_name": "Zeros", "config": {}}, "kernel_size": [1, 1], "kernel_constraint": null, "use_bias": false, "data_format": "channels_last", "padding": "same", "kernel_initializer": {"class_name": "VarianceScaling", "config": {"distribution": "uniform", "scale": 1.0, "mode": "fan_avg", "seed": null}}, "trainable": true, "filters": 32, "bias_regularizer": null, "kernel_regularizer": null, "dilation_rate": [1, 1]}, "inbound_nodes": [[["block_5_depthwise_relu", 0, 0, {}]]], "name": "block_5_project"}, {"class_name": "BatchNormalization", "config": {"scale": true, "momentum": 0.999, "gamma_constraint": null, "name": "block_5_project_BN", "epsilon": 0.001, "moving_mean_initializer": {"class_name": "Zeros", "config": {}}, "moving_variance_initializer": {"class_name": "Ones", "config": {}}, "beta_constraint": null, "gamma_regularizer": null, "beta_initializer": {"class_name": "Zeros", "config": {}}, "center": true, "trainable": true, "gamma_initializer": {"class_name": "Ones", "config": {}}, "axis": -1, "beta_regularizer": null}, "inbound_nodes": [[["block_5_project", 0, 0, {}]]], "name": "block_5_project_BN"}, {"class_name": "Add", "config": {"trainable": true, "name": "block_5_add"}, "inbound_nodes": [[["block_4_add", 0, 0, {}], ["block_5_project_BN", 0, 0, {}]]], "name": "block_5_add"}, {"class_name": "Conv2D", "config": {"bias_constraint": null, "strides": [1, 1], "name": "block_6_expand", "activity_regularizer": null, "activation": "linear", "bias_initializer": {"class_name": "Zeros", "config": {}}, "kernel_size": [1, 1], "kernel_constraint": null, "use_bias": false, "data_format": "channels_last", "padding": "same", "kernel_initializer": {"class_name": "VarianceScaling", "config": {"distribution": "uniform", "scale": 1.0, "mode": "fan_avg", "seed": null}}, "trainable": true, "filters": 192, "bias_regularizer": null, "kernel_regularizer": null, "dilation_rate": [1, 1]}, "inbound_nodes": [[["block_5_add", 0, 0, {}]]], "name": "block_6_expand"}, {"class_name": "BatchNormalization", "config": {"scale": true, "momentum": 0.999, "gamma_constraint": null, "name": "block_6_expand_BN", "epsilon": 0.001, "moving_mean_initializer": {"class_name": "Zeros", "config": {}}, "moving_variance_initializer": {"class_name": "Ones", "config": {}}, "beta_constraint": null, "gamma_regularizer": null, "beta_initializer": {"class_name": "Zeros", "config": {}}, "center": true, "trainable": true, "gamma_initializer": {"class_name": "Ones", "config": {}}, "axis": -1, "beta_regularizer": null}, "inbound_nodes": [[["block_6_expand", 0, 0, {}]]], "name": "block_6_expand_BN"}, {"class_name": "ReLU", "config": {"trainable": true, "max_value": 6.0, "threshold": 0.0, "name": "block_6_expand_relu", "negative_slope": 0.0}, "inbound_nodes": [[["block_6_expand_BN", 0, 0, {}]]], "name": "block_6_expand_relu"}, {"class_name": "ZeroPadding2D", "config": {"trainable": true, "data_format": "channels_last", "padding": [[0, 1], [0, 1]], "name": "block_6_pad"}, "inbound_nodes": [[["block_6_expand_relu", 0, 0, {}]]], "name": "block_6_pad"}, {"class_name": "DepthwiseConv2D", "config": {"bias_constraint": null, "strides": [2, 2], "kernel_size": [3, 3], "activity_regularizer": null, "activation": "linear", "bias_initializer": {"class_name": "Zeros", "config": {}}, "name": "block_6_depthwise", "depthwise_constraint": null, "use_bias": false, "data_format": "channels_last", "padding": "valid", "trainable": true, "depth_multiplier": 1, "depthwise_initializer": {"class_name": "VarianceScaling", "config": {"distribution": "uniform", "scale": 1.0, "mode": "fan_avg", "seed": null}}, "bias_regularizer": null, "depthwise_regularizer": null, "dilation_rate": [1, 1]}, "inbound_nodes": [[["block_6_pad", 0, 0, {}]]], "name": "block_6_depthwise"}, {"class_name": "BatchNormalization", "config": {"scale": true, "momentum": 0.999, "gamma_constraint": null, "name": "block_6_depthwise_BN", "epsilon": 0.001, "moving_mean_initializer": {"class_name": "Zeros", "config": {}}, "moving_variance_initializer": {"class_name": "Ones", "config": {}}, "beta_constraint": null, "gamma_regularizer": null, "beta_initializer": {"class_name": "Zeros", "config": {}}, "center": true, "trainable": true, "gamma_initializer": {"class_name": "Ones", "config": {}}, "axis": -1, "beta_regularizer": null}, "inbound_nodes": [[["block_6_depthwise", 0, 0, {}]]], "name": "block_6_depthwise_BN"}, {"class_name": "ReLU", "config": {"trainable": true, "max_value": 6.0, "threshold": 0.0, "name": "block_6_depthwise_relu", "negative_slope": 0.0}, "inbound_nodes": [[["block_6_depthwise_BN", 0, 0, {}]]], "name": "block_6_depthwise_relu"}, {"class_name": "Conv2D", "config": {"bias_constraint": null, "strides": [1, 1], "name": "block_6_project", "activity_regularizer": null, "activation": "linear", "bias_initializer": {"class_name": "Zeros", "config": {}}, "kernel_size": [1, 1], "kernel_constraint": null, "use_bias": false, "data_format": "channels_last", "padding": "same", "kernel_initializer": {"class_name": "VarianceScaling", "config": {"distribution": "uniform", "scale": 1.0, "mode": "fan_avg", "seed": null}}, "trainable": true, "filters": 64, "bias_regularizer": null, "kernel_regularizer": null, "dilation_rate": [1, 1]}, "inbound_nodes": [[["block_6_depthwise_relu", 0, 0, {}]]], "name": "block_6_project"}, {"class_name": "BatchNormalization", "config": {"scale": true, "momentum": 0.999, "gamma_constraint": null, "name": "block_6_project_BN", "epsilon": 0.001, "moving_mean_initializer": {"class_name": "Zeros", "config": {}}, "moving_variance_initializer": {"class_name": "Ones", "config": {}}, "beta_constraint": null, "gamma_regularizer": null, "beta_initializer": {"class_name": "Zeros", "config": {}}, "center": true, "trainable": true, "gamma_initializer": {"class_name": "Ones", "config": {}}, "axis": -1, "beta_regularizer": null}, "inbound_nodes": [[["block_6_project", 0, 0, {}]]], "name": "block_6_project_BN"}, {"class_name": "Conv2D", "config": {"bias_constraint": null, "strides": [1, 1], "name": "block_7_expand", "activity_regularizer": null, "activation": "linear", "bias_initializer": {"class_name": "Zeros", "config": {}}, "kernel_size": [1, 1], "kernel_constraint": null, "use_bias": false, "data_format": "channels_last", "padding": "same", "kernel_initializer": {"class_name": "VarianceScaling", "config": {"distribution": "uniform", "scale": 1.0, "mode": "fan_avg", "seed": null}}, "trainable": true, "filters": 384, "bias_regularizer": null, "kernel_regularizer": null, "dilation_rate": [1, 1]}, "inbound_nodes": [[["block_6_project_BN", 0, 0, {}]]], "name": "block_7_expand"}, {"class_name": "BatchNormalization", "config": {"scale": true, "momentum": 0.999, "gamma_constraint": null, "name": "block_7_expand_BN", "epsilon": 0.001, "moving_mean_initializer": {"class_name": "Zeros", "config": {}}, "moving_variance_initializer": {"class_name": "Ones", "config": {}}, "beta_constraint": null, "gamma_regularizer": null, "beta_initializer": {"class_name": "Zeros", "config": {}}, "center": true, "trainable": true, "gamma_initializer": {"class_name": "Ones", "config": {}}, "axis": -1, "beta_regularizer": null}, "inbound_nodes": [[["block_7_expand", 0, 0, {}]]], "name": "block_7_expand_BN"}, {"class_name": "ReLU", "config": {"trainable": true, "max_value": 6.0, "threshold": 0.0, "name": "block_7_expand_relu", "negative_slope": 0.0}, "inbound_nodes": [[["block_7_expand_BN", 0, 0, {}]]], "name": "block_7_expand_relu"}, {"class_name": "DepthwiseConv2D", "config": {"bias_constraint": null, "strides": [1, 1], "kernel_size": [3, 3], "activity_regularizer": null, "activation": "linear", "bias_initializer": {"class_name": "Zeros", "config": {}}, "name": "block_7_depthwise", "depthwise_constraint": null, "use_bias": false, "data_format": "channels_last", "padding": "same", "trainable": true, "depth_multiplier": 1, "depthwise_initializer": {"class_name": "VarianceScaling", "config": {"distribution": "uniform", "scale": 1.0, "mode": "fan_avg", "seed": null}}, "bias_regularizer": null, "depthwise_regularizer": null, "dilation_rate": [1, 1]}, "inbound_nodes": [[["block_7_expand_relu", 0, 0, {}]]], "name": "block_7_depthwise"}, {"class_name": "BatchNormalization", "config": {"scale": true, "momentum": 0.999, "gamma_constraint": null, "name": "block_7_depthwise_BN", "epsilon": 0.001, "moving_mean_initializer": {"class_name": "Zeros", "config": {}}, "moving_variance_initializer": {"class_name": "Ones", "config": {}}, "beta_constraint": null, "gamma_regularizer": null, "beta_initializer": {"class_name": "Zeros", "config": {}}, "center": true, "trainable": true, "gamma_initializer": {"class_name": "Ones", "config": {}}, "axis": -1, "beta_regularizer": null}, "inbound_nodes": [[["block_7_depthwise", 0, 0, {}]]], "name": "block_7_depthwise_BN"}, {"class_name": "ReLU", "config": {"trainable": true, "max_value": 6.0, "threshold": 0.0, "name": "block_7_depthwise_relu", "negative_slope": 0.0}, "inbound_nodes": [[["block_7_depthwise_BN", 0, 0, {}]]], "name": "block_7_depthwise_relu"}, {"class_name": "Conv2D", "config": {"bias_constraint": null, "strides": [1, 1], "name": "block_7_project", "activity_regularizer": null, "activation": "linear", "bias_initializer": {"class_name": "Zeros", "config": {}}, "kernel_size": [1, 1], "kernel_constraint": null, "use_bias": false, "data_format": "channels_last", "padding": "same", "kernel_initializer": {"class_name": "VarianceScaling", "config": {"distribution": "uniform", "scale": 1.0, "mode": "fan_avg", "seed": null}}, "trainable": true, "filters": 64, "bias_regularizer": null, "kernel_regularizer": null, "dilation_rate": [1, 1]}, "inbound_nodes": [[["block_7_depthwise_relu", 0, 0, {}]]], "name": "block_7_project"}, {"class_name": "BatchNormalization", "config": {"scale": true, "momentum": 0.999, "gamma_constraint": null, "name": "block_7_project_BN", "epsilon": 0.001, "moving_mean_initializer": {"class_name": "Zeros", "config": {}}, "moving_variance_initializer": {"class_name": "Ones", "config": {}}, "beta_constraint": null, "gamma_regularizer": null, "beta_initializer": {"class_name": "Zeros", "config": {}}, "center": true, "trainable": true, "gamma_initializer": {"class_name": "Ones", "config": {}}, "axis": -1, "beta_regularizer": null}, "inbound_nodes": [[["block_7_project", 0, 0, {}]]], "name": "block_7_project_BN"}, {"class_name": "Add", "config": {"trainable": true, "name": "block_7_add"}, "inbound_nodes": [[["block_6_project_BN", 0, 0, {}], ["block_7_project_BN", 0, 0, {}]]], "name": "block_7_add"}, {"class_name": "Conv2D", "config": {"bias_constraint": null, "strides": [1, 1], "name": "block_8_expand", "activity_regularizer": null, "activation": "linear", "bias_initializer": {"class_name": "Zeros", "config": {}}, "kernel_size": [1, 1], "kernel_constraint": null, "use_bias": false, "data_format": "channels_last", "padding": "same", "kernel_initializer": {"class_name": "VarianceScaling", "config": {"distribution": "uniform", "scale": 1.0, "mode": "fan_avg", "seed": null}}, "trainable": true, "filters": 384, "bias_regularizer": null, "kernel_regularizer": null, "dilation_rate": [1, 1]}, "inbound_nodes": [[["block_7_add", 0, 0, {}]]], "name": "block_8_expand"}, {"class_name": "BatchNormalization", "config": {"scale": true, "momentum": 0.999, "gamma_constraint": null, "name": "block_8_expand_BN", "epsilon": 0.001, "moving_mean_initializer": {"class_name": "Zeros", "config": {}}, "moving_variance_initializer": {"class_name": "Ones", "config": {}}, "beta_constraint": null, "gamma_regularizer": null, "beta_initializer": {"class_name": "Zeros", "config": {}}, "center": true, "trainable": true, "gamma_initializer": {"class_name": "Ones", "config": {}}, "axis": -1, "beta_regularizer": null}, "inbound_nodes": [[["block_8_expand", 0, 0, {}]]], "name": "block_8_expand_BN"}, {"class_name": "ReLU", "config": {"trainable": true, "max_value": 6.0, "threshold": 0.0, "name": "block_8_expand_relu", "negative_slope": 0.0}, "inbound_nodes": [[["block_8_expand_BN", 0, 0, {}]]], "name": "block_8_expand_relu"}, {"class_name": "DepthwiseConv2D", "config": {"bias_constraint": null, "strides": [1, 1], "kernel_size": [3, 3], "activity_regularizer": null, "activation": "linear", "bias_initializer": {"class_name": "Zeros", "config": {}}, "name": "block_8_depthwise", "depthwise_constraint": null, "use_bias": false, "data_format": "channels_last", "padding": "same", "trainable": true, "depth_multiplier": 1, "depthwise_initializer": {"class_name": "VarianceScaling", "config": {"distribution": "uniform", "scale": 1.0, "mode": "fan_avg", "seed": null}}, "bias_regularizer": null, "depthwise_regularizer": null, "dilation_rate": [1, 1]}, "inbound_nodes": [[["block_8_expand_relu", 0, 0, {}]]], "name": "block_8_depthwise"}, {"class_name": "BatchNormalization", "config": {"scale": true, "momentum": 0.999, "gamma_constraint": null, "name": "block_8_depthwise_BN", "epsilon": 0.001, "moving_mean_initializer": {"class_name": "Zeros", "config": {}}, "moving_variance_initializer": {"class_name": "Ones", "config": {}}, "beta_constraint": null, "gamma_regularizer": null, "beta_initializer": {"class_name": "Zeros", "config": {}}, "center": true, "trainable": true, "gamma_initializer": {"class_name": "Ones", "config": {}}, "axis": -1, "beta_regularizer": null}, "inbound_nodes": [[["block_8_depthwise", 0, 0, {}]]], "name": "block_8_depthwise_BN"}, {"class_name": "ReLU", "config": {"trainable": true, "max_value": 6.0, "threshold": 0.0, "name": "block_8_depthwise_relu", "negative_slope": 0.0}, "inbound_nodes": [[["block_8_depthwise_BN", 0, 0, {}]]], "name": "block_8_depthwise_relu"}, {"class_name": "Conv2D", "config": {"bias_constraint": null, "strides": [1, 1], "name": "block_8_project", "activity_regularizer": null, "activation": "linear", "bias_initializer": {"class_name": "Zeros", "config": {}}, "kernel_size": [1, 1], "kernel_constraint": null, "use_bias": false, "data_format": "channels_last", "padding": "same", "kernel_initializer": {"class_name": "VarianceScaling", "config": {"distribution": "uniform", "scale": 1.0, "mode": "fan_avg", "seed": null}}, "trainable": true, "filters": 64, "bias_regularizer": null, "kernel_regularizer": null, "dilation_rate": [1, 1]}, "inbound_nodes": [[["block_8_depthwise_relu", 0, 0, {}]]], "name": "block_8_project"}, {"class_name": "BatchNormalization", "config": {"scale": true, "momentum": 0.999, "gamma_constraint": null, "name": "block_8_project_BN", "epsilon": 0.001, "moving_mean_initializer": {"class_name": "Zeros", "config": {}}, "moving_variance_initializer": {"class_name": "Ones", "config": {}}, "beta_constraint": null, "gamma_regularizer": null, "beta_initializer": {"class_name": "Zeros", "config": {}}, "center": true, "trainable": true, "gamma_initializer": {"class_name": "Ones", "config": {}}, "axis": -1, "beta_regularizer": null}, "inbound_nodes": [[["block_8_project", 0, 0, {}]]], "name": "block_8_project_BN"}, {"class_name": "Add", "config": {"trainable": true, "name": "block_8_add"}, "inbound_nodes": [[["block_7_add", 0, 0, {}], ["block_8_project_BN", 0, 0, {}]]], "name": "block_8_add"}, {"class_name": "Conv2D", "config": {"bias_constraint": null, "strides": [1, 1], "name": "block_9_expand", "activity_regularizer": null, "activation": "linear", "bias_initializer": {"class_name": "Zeros", "config": {}}, "kernel_size": [1, 1], "kernel_constraint": null, "use_bias": false, "data_format": "channels_last", "padding": "same", "kernel_initializer": {"class_name": "VarianceScaling", "config": {"distribution": "uniform", "scale": 1.0, "mode": "fan_avg", "seed": null}}, "trainable": true, "filters": 384, "bias_regularizer": null, "kernel_regularizer": null, "dilation_rate": [1, 1]}, "inbound_nodes": [[["block_8_add", 0, 0, {}]]], "name": "block_9_expand"}, {"class_name": "BatchNormalization", "config": {"scale": true, "momentum": 0.999, "gamma_constraint": null, "name": "block_9_expand_BN", "epsilon": 0.001, "moving_mean_initializer": {"class_name": "Zeros", "config": {}}, "moving_variance_initializer": {"class_name": "Ones", "config": {}}, "beta_constraint": null, "gamma_regularizer": null, "beta_initializer": {"class_name": "Zeros", "config": {}}, "center": true, "trainable": true, "gamma_initializer": {"class_name": "Ones", "config": {}}, "axis": -1, "beta_regularizer": null}, "inbound_nodes": [[["block_9_expand", 0, 0, {}]]], "name": "block_9_expand_BN"}, {"class_name": "ReLU", "config": {"trainable": true, "max_value": 6.0, "threshold": 0.0, "name": "block_9_expand_relu", "negative_slope": 0.0}, "inbound_nodes": [[["block_9_expand_BN", 0, 0, {}]]], "name": "block_9_expand_relu"}, {"class_name": "DepthwiseConv2D", "config": {"bias_constraint": null, "strides": [1, 1], "kernel_size": [3, 3], "activity_regularizer": null, "activation": "linear", "bias_initializer": {"class_name": "Zeros", "config": {}}, "name": "block_9_depthwise", "depthwise_constraint": null, "use_bias": false, "data_format": "channels_last", "padding": "same", "trainable": true, "depth_multiplier": 1, "depthwise_initializer": {"class_name": "VarianceScaling", "config": {"distribution": "uniform", "scale": 1.0, "mode": "fan_avg", "seed": null}}, "bias_regularizer": null, "depthwise_regularizer": null, "dilation_rate": [1, 1]}, "inbound_nodes": [[["block_9_expand_relu", 0, 0, {}]]], "name": "block_9_depthwise"}, {"class_name": "BatchNormalization", "config": {"scale": true, "momentum": 0.999, "gamma_constraint": null, "name": "block_9_depthwise_BN", "epsilon": 0.001, "moving_mean_initializer": {"class_name": "Zeros", "config": {}}, "moving_variance_initializer": {"class_name": "Ones", "config": {}}, "beta_constraint": null, "gamma_regularizer": null, "beta_initializer": {"class_name": "Zeros", "config": {}}, "center": true, "trainable": true, "gamma_initializer": {"class_name": "Ones", "config": {}}, "axis": -1, "beta_regularizer": null}, "inbound_nodes": [[["block_9_depthwise", 0, 0, {}]]], "name": "block_9_depthwise_BN"}, {"class_name": "ReLU", "config": {"trainable": true, "max_value": 6.0, "threshold": 0.0, "name": "block_9_depthwise_relu", "negative_slope": 0.0}, "inbound_nodes": [[["block_9_depthwise_BN", 0, 0, {}]]], "name": "block_9_depthwise_relu"}, {"class_name": "Conv2D", "config": {"bias_constraint": null, "strides": [1, 1], "name": "block_9_project", "activity_regularizer": null, "activation": "linear", "bias_initializer": {"class_name": "Zeros", "config": {}}, "kernel_size": [1, 1], "kernel_constraint": null, "use_bias": false, "data_format": "channels_last", "padding": "same", "kernel_initializer": {"class_name": "VarianceScaling", "config": {"distribution": "uniform", "scale": 1.0, "mode": "fan_avg", "seed": null}}, "trainable": true, "filters": 64, "bias_regularizer": null, "kernel_regularizer": null, "dilation_rate": [1, 1]}, "inbound_nodes": [[["block_9_depthwise_relu", 0, 0, {}]]], "name": "block_9_project"}, {"class_name": "BatchNormalization", "config": {"scale": true, "momentum": 0.999, "gamma_constraint": null, "name": "block_9_project_BN", "epsilon": 0.001, "moving_mean_initializer": {"class_name": "Zeros", "config": {}}, "moving_variance_initializer": {"class_name": "Ones", "config": {}}, "beta_constraint": null, "gamma_regularizer": null, "beta_initializer": {"class_name": "Zeros", "config": {}}, "center": true, "trainable": true, "gamma_initializer": {"class_name": "Ones", "config": {}}, "axis": -1, "beta_regularizer": null}, "inbound_nodes": [[["block_9_project", 0, 0, {}]]], "name": "block_9_project_BN"}, {"class_name": "Add", "config": {"trainable": true, "name": "block_9_add"}, "inbound_nodes": [[["block_8_add", 0, 0, {}], ["block_9_project_BN", 0, 0, {}]]], "name": "block_9_add"}, {"class_name": "Conv2D", "config": {"bias_constraint": null, "strides": [1, 1], "name": "block_10_expand", "activity_regularizer": null, "activation": "linear", "bias_initializer": {"class_name": "Zeros", "config": {}}, "kernel_size": [1, 1], "kernel_constraint": null, "use_bias": false, "data_format": "channels_last", "padding": "same", "kernel_initializer": {"class_name": "VarianceScaling", "config": {"distribution": "uniform", "scale": 1.0, "mode": "fan_avg", "seed": null}}, "trainable": true, "filters": 384, "bias_regularizer": null, "kernel_regularizer": null, "dilation_rate": [1, 1]}, "inbound_nodes": [[["block_9_add", 0, 0, {}]]], "name": "block_10_expand"}, {"class_name": "BatchNormalization", "config": {"scale": true, "momentum": 0.999, "gamma_constraint": null, "name": "block_10_expand_BN", "epsilon": 0.001, "moving_mean_initializer": {"class_name": "Zeros", "config": {}}, "moving_variance_initializer": {"class_name": "Ones", "config": {}}, "beta_constraint": null, "gamma_regularizer": null, "beta_initializer": {"class_name": "Zeros", "config": {}}, "center": true, "trainable": true, "gamma_initializer": {"class_name": "Ones", "config": {}}, "axis": -1, "beta_regularizer": null}, "inbound_nodes": [[["block_10_expand", 0, 0, {}]]], "name": "block_10_expand_BN"}, {"class_name": "ReLU", "config": {"trainable": true, "max_value": 6.0, "threshold": 0.0, "name": "block_10_expand_relu", "negative_slope": 0.0}, "inbound_nodes": [[["block_10_expand_BN", 0, 0, {}]]], "name": "block_10_expand_relu"}, {"class_name": "DepthwiseConv2D", "config": {"bias_constraint": null, "strides": [1, 1], "kernel_size": [3, 3], "activity_regularizer": null, "activation": "linear", "bias_initializer": {"class_name": "Zeros", "config": {}}, "name": "block_10_depthwise", "depthwise_constraint": null, "use_bias": false, "data_format": "channels_last", "padding": "same", "trainable": true, "depth_multiplier": 1, "depthwise_initializer": {"class_name": "VarianceScaling", "config": {"distribution": "uniform", "scale": 1.0, "mode": "fan_avg", "seed": null}}, "bias_regularizer": null, "depthwise_regularizer": null, "dilation_rate": [1, 1]}, "inbound_nodes": [[["block_10_expand_relu", 0, 0, {}]]], "name": "block_10_depthwise"}, {"class_name": "BatchNormalization", "config": {"scale": true, "momentum": 0.999, "gamma_constraint": null, "name": "block_10_depthwise_BN", "epsilon": 0.001, "moving_mean_initializer": {"class_name": "Zeros", "config": {}}, "moving_variance_initializer": {"class_name": "Ones", "config": {}}, "beta_constraint": null, "gamma_regularizer": null, "beta_initializer": {"class_name": "Zeros", "config": {}}, "center": true, "trainable": true, "gamma_initializer": {"class_name": "Ones", "config": {}}, "axis": -1, "beta_regularizer": null}, "inbound_nodes": [[["block_10_depthwise", 0, 0, {}]]], "name": "block_10_depthwise_BN"}, {"class_name": "ReLU", "config": {"trainable": true, "max_value": 6.0, "threshold": 0.0, "name": "block_10_depthwise_relu", "negative_slope": 0.0}, "inbound_nodes": [[["block_10_depthwise_BN", 0, 0, {}]]], "name": "block_10_depthwise_relu"}, {"class_name": "Conv2D", "config": {"bias_constraint": null, "strides": [1, 1], "name": "block_10_project", "activity_regularizer": null, "activation": "linear", "bias_initializer": {"class_name": "Zeros", "config": {}}, "kernel_size": [1, 1], "kernel_constraint": null, "use_bias": false, "data_format": "channels_last", "padding": "same", "kernel_initializer": {"class_name": "VarianceScaling", "config": {"distribution": "uniform", "scale": 1.0, "mode": "fan_avg", "seed": null}}, "trainable": true, "filters": 96, "bias_regularizer": null, "kernel_regularizer": null, "dilation_rate": [1, 1]}, "inbound_nodes": [[["block_10_depthwise_relu", 0, 0, {}]]], "name": "block_10_project"}, {"class_name": "BatchNormalization", "config": {"scale": true, "momentum": 0.999, "gamma_constraint": null, "name": "block_10_project_BN", "epsilon": 0.001, "moving_mean_initializer": {"class_name": "Zeros", "config": {}}, "moving_variance_initializer": {"class_name": "Ones", "config": {}}, "beta_constraint": null, "gamma_regularizer": null, "beta_initializer": {"class_name": "Zeros", "config": {}}, "center": true, "trainable": true, "gamma_initializer": {"class_name": "Ones", "config": {}}, "axis": -1, "beta_regularizer": null}, "inbound_nodes": [[["block_10_project", 0, 0, {}]]], "name": "block_10_project_BN"}, {"class_name": "Conv2D", "config": {"bias_constraint": null, "strides": [1, 1], "name": "block_11_expand", "activity_regularizer": null, "activation": "linear", "bias_initializer": {"class_name": "Zeros", "config": {}}, "kernel_size": [1, 1], "kernel_constraint": null, "use_bias": false, "data_format": "channels_last", "padding": "same", "kernel_initializer": {"class_name": "VarianceScaling", "config": {"distribution": "uniform", "scale": 1.0, "mode": "fan_avg", "seed": null}}, "trainable": true, "filters": 576, "bias_regularizer": null, "kernel_regularizer": null, "dilation_rate": [1, 1]}, "inbound_nodes": [[["block_10_project_BN", 0, 0, {}]]], "name": "block_11_expand"}, {"class_name": "BatchNormalization", "config": {"scale": true, "momentum": 0.999, "gamma_constraint": null, "name": "block_11_expand_BN", "epsilon": 0.001, "moving_mean_initializer": {"class_name": "Zeros", "config": {}}, "moving_variance_initializer": {"class_name": "Ones", "config": {}}, "beta_constraint": null, "gamma_regularizer": null, "beta_initializer": {"class_name": "Zeros", "config": {}}, "center": true, "trainable": true, "gamma_initializer": {"class_name": "Ones", "config": {}}, "axis": -1, "beta_regularizer": null}, "inbound_nodes": [[["block_11_expand", 0, 0, {}]]], "name": "block_11_expand_BN"}, {"class_name": "ReLU", "config": {"trainable": true, "max_value": 6.0, "threshold": 0.0, "name": "block_11_expand_relu", "negative_slope": 0.0}, "inbound_nodes": [[["block_11_expand_BN", 0, 0, {}]]], "name": "block_11_expand_relu"}, {"class_name": "DepthwiseConv2D", "config": {"bias_constraint": null, "strides": [1, 1], "kernel_size": [3, 3], "activity_regularizer": null, "activation": "linear", "bias_initializer": {"class_name": "Zeros", "config": {}}, "name": "block_11_depthwise", "depthwise_constraint": null, "use_bias": false, "data_format": "channels_last", "padding": "same", "trainable": true, "depth_multiplier": 1, "depthwise_initializer": {"class_name": "VarianceScaling", "config": {"distribution": "uniform", "scale": 1.0, "mode": "fan_avg", "seed": null}}, "bias_regularizer": null, "depthwise_regularizer": null, "dilation_rate": [1, 1]}, "inbound_nodes": [[["block_11_expand_relu", 0, 0, {}]]], "name": "block_11_depthwise"}, {"class_name": "BatchNormalization", "config": {"scale": true, "momentum": 0.999, "gamma_constraint": null, "name": "block_11_depthwise_BN", "epsilon": 0.001, "moving_mean_initializer": {"class_name": "Zeros", "config": {}}, "moving_variance_initializer": {"class_name": "Ones", "config": {}}, "beta_constraint": null, "gamma_regularizer": null, "beta_initializer": {"class_name": "Zeros", "config": {}}, "center": true, "trainable": true, "gamma_initializer": {"class_name": "Ones", "config": {}}, "axis": -1, "beta_regularizer": null}, "inbound_nodes": [[["block_11_depthwise", 0, 0, {}]]], "name": "block_11_depthwise_BN"}, {"class_name": "ReLU", "config": {"trainable": true, "max_value": 6.0, "threshold": 0.0, "name": "block_11_depthwise_relu", "negative_slope": 0.0}, "inbound_nodes": [[["block_11_depthwise_BN", 0, 0, {}]]], "name": "block_11_depthwise_relu"}, {"class_name": "Conv2D", "config": {"bias_constraint": null, "strides": [1, 1], "name": "block_11_project", "activity_regularizer": null, "activation": "linear", "bias_initializer": {"class_name": "Zeros", "config": {}}, "kernel_size": [1, 1], "kernel_constraint": null, "use_bias": false, "data_format": "channels_last", "padding": "same", "kernel_initializer": {"class_name": "VarianceScaling", "config": {"distribution": "uniform", "scale": 1.0, "mode": "fan_avg", "seed": null}}, "trainable": true, "filters": 96, "bias_regularizer": null, "kernel_regularizer": null, "dilation_rate": [1, 1]}, "inbound_nodes": [[["block_11_depthwise_relu", 0, 0, {}]]], "name": "block_11_project"}, {"class_name": "BatchNormalization", "config": {"scale": true, "momentum": 0.999, "gamma_constraint": null, "name": "block_11_project_BN", "epsilon": 0.001, "moving_mean_initializer": {"class_name": "Zeros", "config": {}}, "moving_variance_initializer": {"class_name": "Ones", "config": {}}, "beta_constraint": null, "gamma_regularizer": null, "beta_initializer": {"class_name": "Zeros", "config": {}}, "center": true, "trainable": true, "gamma_initializer": {"class_name": "Ones", "config": {}}, "axis": -1, "beta_regularizer": null}, "inbound_nodes": [[["block_11_project", 0, 0, {}]]], "name": "block_11_project_BN"}, {"class_name": "Add", "config": {"trainable": true, "name": "block_11_add"}, "inbound_nodes": [[["block_10_project_BN", 0, 0, {}], ["block_11_project_BN", 0, 0, {}]]], "name": "block_11_add"}, {"class_name": "Conv2D", "config": {"bias_constraint": null, "strides": [1, 1], "name": "block_12_expand", "activity_regularizer": null, "activation": "linear", "bias_initializer": {"class_name": "Zeros", "config": {}}, "kernel_size": [1, 1], "kernel_constraint": null, "use_bias": false, "data_format": "channels_last", "padding": "same", "kernel_initializer": {"class_name": "VarianceScaling", "config": {"distribution": "uniform", "scale": 1.0, "mode": "fan_avg", "seed": null}}, "trainable": true, "filters": 576, "bias_regularizer": null, "kernel_regularizer": null, "dilation_rate": [1, 1]}, "inbound_nodes": [[["block_11_add", 0, 0, {}]]], "name": "block_12_expand"}, {"class_name": "BatchNormalization", "config": {"scale": true, "momentum": 0.999, "gamma_constraint": null, "name": "block_12_expand_BN", "epsilon": 0.001, "moving_mean_initializer": {"class_name": "Zeros", "config": {}}, "moving_variance_initializer": {"class_name": "Ones", "config": {}}, "beta_constraint": null, "gamma_regularizer": null, "beta_initializer": {"class_name": "Zeros", "config": {}}, "center": true, "trainable": true, "gamma_initializer": {"class_name": "Ones", "config": {}}, "axis": -1, "beta_regularizer": null}, "inbound_nodes": [[["block_12_expand", 0, 0, {}]]], "name": "block_12_expand_BN"}, {"class_name": "ReLU", "config": {"trainable": true, "max_value": 6.0, "threshold": 0.0, "name": "block_12_expand_relu", "negative_slope": 0.0}, "inbound_nodes": [[["block_12_expand_BN", 0, 0, {}]]], "name": "block_12_expand_relu"}, {"class_name": "DepthwiseConv2D", "config": {"bias_constraint": null, "strides": [1, 1], "kernel_size": [3, 3], "activity_regularizer": null, "activation": "linear", "bias_initializer": {"class_name": "Zeros", "config": {}}, "name": "block_12_depthwise", "depthwise_constraint": null, "use_bias": false, "data_format": "channels_last", "padding": "same", "trainable": true, "depth_multiplier": 1, "depthwise_initializer": {"class_name": "VarianceScaling", "config": {"distribution": "uniform", "scale": 1.0, "mode": "fan_avg", "seed": null}}, "bias_regularizer": null, "depthwise_regularizer": null, "dilation_rate": [1, 1]}, "inbound_nodes": [[["block_12_expand_relu", 0, 0, {}]]], "name": "block_12_depthwise"}, {"class_name": "BatchNormalization", "config": {"scale": true, "momentum": 0.999, "gamma_constraint": null, "name": "block_12_depthwise_BN", "epsilon": 0.001, "moving_mean_initializer": {"class_name": "Zeros", "config": {}}, "moving_variance_initializer": {"class_name": "Ones", "config": {}}, "beta_constraint": null, "gamma_regularizer": null, "beta_initializer": {"class_name": "Zeros", "config": {}}, "center": true, "trainable": true, "gamma_initializer": {"class_name": "Ones", "config": {}}, "axis": -1, "beta_regularizer": null}, "inbound_nodes": [[["block_12_depthwise", 0, 0, {}]]], "name": "block_12_depthwise_BN"}, {"class_name": "ReLU", "config": {"trainable": true, "max_value": 6.0, "threshold": 0.0, "name": "block_12_depthwise_relu", "negative_slope": 0.0}, "inbound_nodes": [[["block_12_depthwise_BN", 0, 0, {}]]], "name": "block_12_depthwise_relu"}, {"class_name": "Conv2D", "config": {"bias_constraint": null, "strides": [1, 1], "name": "block_12_project", "activity_regularizer": null, "activation": "linear", "bias_initializer": {"class_name": "Zeros", "config": {}}, "kernel_size": [1, 1], "kernel_constraint": null, "use_bias": false, "data_format": "channels_last", "padding": "same", "kernel_initializer": {"class_name": "VarianceScaling", "config": {"distribution": "uniform", "scale": 1.0, "mode": "fan_avg", "seed": null}}, "trainable": true, "filters": 96, "bias_regularizer": null, "kernel_regularizer": null, "dilation_rate": [1, 1]}, "inbound_nodes": [[["block_12_depthwise_relu", 0, 0, {}]]], "name": "block_12_project"}, {"class_name": "BatchNormalization", "config": {"scale": true, "momentum": 0.999, "gamma_constraint": null, "name": "block_12_project_BN", "epsilon": 0.001, "moving_mean_initializer": {"class_name": "Zeros", "config": {}}, "moving_variance_initializer": {"class_name": "Ones", "config": {}}, "beta_constraint": null, "gamma_regularizer": null, "beta_initializer": {"class_name": "Zeros", "config": {}}, "center": true, "trainable": true, "gamma_initializer": {"class_name": "Ones", "config": {}}, "axis": -1, "beta_regularizer": null}, "inbound_nodes": [[["block_12_project", 0, 0, {}]]], "name": "block_12_project_BN"}, {"class_name": "Add", "config": {"trainable": true, "name": "block_12_add"}, "inbound_nodes": [[["block_11_add", 0, 0, {}], ["block_12_project_BN", 0, 0, {}]]], "name": "block_12_add"}, {"class_name": "Conv2D", "config": {"bias_constraint": null, "strides": [1, 1], "name": "block_13_expand", "activity_regularizer": null, "activation": "linear", "bias_initializer": {"class_name": "Zeros", "config": {}}, "kernel_size": [1, 1], "kernel_constraint": null, "use_bias": false, "data_format": "channels_last", "padding": "same", "kernel_initializer": {"class_name": "VarianceScaling", "config": {"distribution": "uniform", "scale": 1.0, "mode": "fan_avg", "seed": null}}, "trainable": true, "filters": 576, "bias_regularizer": null, "kernel_regularizer": null, "dilation_rate": [1, 1]}, "inbound_nodes": [[["block_12_add", 0, 0, {}]]], "name": "block_13_expand"}, {"class_name": "BatchNormalization", "config": {"scale": true, "momentum": 0.999, "gamma_constraint": null, "name": "block_13_expand_BN", "epsilon": 0.001, "moving_mean_initializer": {"class_name": "Zeros", "config": {}}, "moving_variance_initializer": {"class_name": "Ones", "config": {}}, "beta_constraint": null, "gamma_regularizer": null, "beta_initializer": {"class_name": "Zeros", "config": {}}, "center": true, "trainable": true, "gamma_initializer": {"class_name": "Ones", "config": {}}, "axis": -1, "beta_regularizer": null}, "inbound_nodes": [[["block_13_expand", 0, 0, {}]]], "name": "block_13_expand_BN"}, {"class_name": "ReLU", "config": {"trainable": true, "max_value": 6.0, "threshold": 0.0, "name": "block_13_expand_relu", "negative_slope": 0.0}, "inbound_nodes": [[["block_13_expand_BN", 0, 0, {}]]], "name": "block_13_expand_relu"}, {"class_name": "ZeroPadding2D", "config": {"trainable": true, "data_format": "channels_last", "padding": [[0, 1], [0, 1]], "name": "block_13_pad"}, "inbound_nodes": [[["block_13_expand_relu", 0, 0, {}]]], "name": "block_13_pad"}, {"class_name": "DepthwiseConv2D", "config": {"bias_constraint": null, "strides": [2, 2], "kernel_size": [3, 3], "activity_regularizer": null, "activation": "linear", "bias_initializer": {"class_name": "Zeros", "config": {}}, "name": "block_13_depthwise", "depthwise_constraint": null, "use_bias": false, "data_format": "channels_last", "padding": "valid", "trainable": true, "depth_multiplier": 1, "depthwise_initializer": {"class_name": "VarianceScaling", "config": {"distribution": "uniform", "scale": 1.0, "mode": "fan_avg", "seed": null}}, "bias_regularizer": null, "depthwise_regularizer": null, "dilation_rate": [1, 1]}, "inbound_nodes": [[["block_13_pad", 0, 0, {}]]], "name": "block_13_depthwise"}, {"class_name": "BatchNormalization", "config": {"scale": true, "momentum": 0.999, "gamma_constraint": null, "name": "block_13_depthwise_BN", "epsilon": 0.001, "moving_mean_initializer": {"class_name": "Zeros", "config": {}}, "moving_variance_initializer": {"class_name": "Ones", "config": {}}, "beta_constraint": null, "gamma_regularizer": null, "beta_initializer": {"class_name": "Zeros", "config": {}}, "center": true, "trainable": true, "gamma_initializer": {"class_name": "Ones", "config": {}}, "axis": -1, "beta_regularizer": null}, "inbound_nodes": [[["block_13_depthwise", 0, 0, {}]]], "name": "block_13_depthwise_BN"}, {"class_name": "ReLU", "config": {"trainable": true, "max_value": 6.0, "threshold": 0.0, "name": "block_13_depthwise_relu", "negative_slope": 0.0}, "inbound_nodes": [[["block_13_depthwise_BN", 0, 0, {}]]], "name": "block_13_depthwise_relu"}, {"class_name": "Conv2D", "config": {"bias_constraint": null, "strides": [1, 1], "name": "block_13_project", "activity_regularizer": null, "activation": "linear", "bias_initializer": {"class_name": "Zeros", "config": {}}, "kernel_size": [1, 1], "kernel_constraint": null, "use_bias": false, "data_format": "channels_last", "padding": "same", "kernel_initializer": {"class_name": "VarianceScaling", "config": {"distribution": "uniform", "scale": 1.0, "mode": "fan_avg", "seed": null}}, "trainable": true, "filters": 160, "bias_regularizer": null, "kernel_regularizer": null, "dilation_rate": [1, 1]}, "inbound_nodes": [[["block_13_depthwise_relu", 0, 0, {}]]], "name": "block_13_project"}, {"class_name": "BatchNormalization", "config": {"scale": true, "momentum": 0.999, "gamma_constraint": null, "name": "block_13_project_BN", "epsilon": 0.001, "moving_mean_initializer": {"class_name": "Zeros", "config": {}}, "moving_variance_initializer": {"class_name": "Ones", "config": {}}, "beta_constraint": null, "gamma_regularizer": null, "beta_initializer": {"class_name": "Zeros", "config": {}}, "center": true, "trainable": true, "gamma_initializer": {"class_name": "Ones", "config": {}}, "axis": -1, "beta_regularizer": null}, "inbound_nodes": [[["block_13_project", 0, 0, {}]]], "name": "block_13_project_BN"}, {"class_name": "Conv2D", "config": {"bias_constraint": null, "strides": [1, 1], "name": "block_14_expand", "activity_regularizer": null, "activation": "linear", "bias_initializer": {"class_name": "Zeros", "config": {}}, "kernel_size": [1, 1], "kernel_constraint": null, "use_bias": false, "data_format": "channels_last", "padding": "same", "kernel_initializer": {"class_name": "VarianceScaling", "config": {"distribution": "uniform", "scale": 1.0, "mode": "fan_avg", "seed": null}}, "trainable": true, "filters": 960, "bias_regularizer": null, "kernel_regularizer": null, "dilation_rate": [1, 1]}, "inbound_nodes": [[["block_13_project_BN", 0, 0, {}]]], "name": "block_14_expand"}, {"class_name": "BatchNormalization", "config": {"scale": true, "momentum": 0.999, "gamma_constraint": null, "name": "block_14_expand_BN", "epsilon": 0.001, "moving_mean_initializer": {"class_name": "Zeros", "config": {}}, "moving_variance_initializer": {"class_name": "Ones", "config": {}}, "beta_constraint": null, "gamma_regularizer": null, "beta_initializer": {"class_name": "Zeros", "config": {}}, "center": true, "trainable": true, "gamma_initializer": {"class_name": "Ones", "config": {}}, "axis": -1, "beta_regularizer": null}, "inbound_nodes": [[["block_14_expand", 0, 0, {}]]], "name": "block_14_expand_BN"}, {"class_name": "ReLU", "config": {"trainable": true, "max_value": 6.0, "threshold": 0.0, "name": "block_14_expand_relu", "negative_slope": 0.0}, "inbound_nodes": [[["block_14_expand_BN", 0, 0, {}]]], "name": "block_14_expand_relu"}, {"class_name": "DepthwiseConv2D", "config": {"bias_constraint": null, "strides": [1, 1], "kernel_size": [3, 3], "activity_regularizer": null, "activation": "linear", "bias_initializer": {"class_name": "Zeros", "config": {}}, "name": "block_14_depthwise", "depthwise_constraint": null, "use_bias": false, "data_format": "channels_last", "padding": "same", "trainable": true, "depth_multiplier": 1, "depthwise_initializer": {"class_name": "VarianceScaling", "config": {"distribution": "uniform", "scale": 1.0, "mode": "fan_avg", "seed": null}}, "bias_regularizer": null, "depthwise_regularizer": null, "dilation_rate": [1, 1]}, "inbound_nodes": [[["block_14_expand_relu", 0, 0, {}]]], "name": "block_14_depthwise"}, {"class_name": "BatchNormalization", "config": {"scale": true, "momentum": 0.999, "gamma_constraint": null, "name": "block_14_depthwise_BN", "epsilon": 0.001, "moving_mean_initializer": {"class_name": "Zeros", "config": {}}, "moving_variance_initializer": {"class_name": "Ones", "config": {}}, "beta_constraint": null, "gamma_regularizer": null, "beta_initializer": {"class_name": "Zeros", "config": {}}, "center": true, "trainable": true, "gamma_initializer": {"class_name": "Ones", "config": {}}, "axis": -1, "beta_regularizer": null}, "inbound_nodes": [[["block_14_depthwise", 0, 0, {}]]], "name": "block_14_depthwise_BN"}, {"class_name": "ReLU", "config": {"trainable": true, "max_value": 6.0, "threshold": 0.0, "name": "block_14_depthwise_relu", "negative_slope": 0.0}, "inbound_nodes": [[["block_14_depthwise_BN", 0, 0, {}]]], "name": "block_14_depthwise_relu"}, {"class_name": "Conv2D", "config": {"bias_constraint": null, "strides": [1, 1], "name": "block_14_project", "activity_regularizer": null, "activation": "linear", "bias_initializer": {"class_name": "Zeros", "config": {}}, "kernel_size": [1, 1], "kernel_constraint": null, "use_bias": false, "data_format": "channels_last", "padding": "same", "kernel_initializer": {"class_name": "VarianceScaling", "config": {"distribution": "uniform", "scale": 1.0, "mode": "fan_avg", "seed": null}}, "trainable": true, "filters": 160, "bias_regularizer": null, "kernel_regularizer": null, "dilation_rate": [1, 1]}, "inbound_nodes": [[["block_14_depthwise_relu", 0, 0, {}]]], "name": "block_14_project"}, {"class_name": "BatchNormalization", "config": {"scale": true, "momentum": 0.999, "gamma_constraint": null, "name": "block_14_project_BN", "epsilon": 0.001, "moving_mean_initializer": {"class_name": "Zeros", "config": {}}, "moving_variance_initializer": {"class_name": "Ones", "config": {}}, "beta_constraint": null, "gamma_regularizer": null, "beta_initializer": {"class_name": "Zeros", "config": {}}, "center": true, "trainable": true, "gamma_initializer": {"class_name": "Ones", "config": {}}, "axis": -1, "beta_regularizer": null}, "inbound_nodes": [[["block_14_project", 0, 0, {}]]], "name": "block_14_project_BN"}, {"class_name": "Add", "config": {"trainable": true, "name": "block_14_add"}, "inbound_nodes": [[["block_13_project_BN", 0, 0, {}], ["block_14_project_BN", 0, 0, {}]]], "name": "block_14_add"}, {"class_name": "Conv2D", "config": {"bias_constraint": null, "strides": [1, 1], "name": "block_15_expand", "activity_regularizer": null, "activation": "linear", "bias_initializer": {"class_name": "Zeros", "config": {}}, "kernel_size": [1, 1], "kernel_constraint": null, "use_bias": false, "data_format": "channels_last", "padding": "same", "kernel_initializer": {"class_name": "VarianceScaling", "config": {"distribution": "uniform", "scale": 1.0, "mode": "fan_avg", "seed": null}}, "trainable": true, "filters": 960, "bias_regularizer": null, "kernel_regularizer": null, "dilation_rate": [1, 1]}, "inbound_nodes": [[["block_14_add", 0, 0, {}]]], "name": "block_15_expand"}, {"class_name": "BatchNormalization", "config": {"scale": true, "momentum": 0.999, "gamma_constraint": null, "name": "block_15_expand_BN", "epsilon": 0.001, "moving_mean_initializer": {"class_name": "Zeros", "config": {}}, "moving_variance_initializer": {"class_name": "Ones", "config": {}}, "beta_constraint": null, "gamma_regularizer": null, "beta_initializer": {"class_name": "Zeros", "config": {}}, "center": true, "trainable": true, "gamma_initializer": {"class_name": "Ones", "config": {}}, "axis": -1, "beta_regularizer": null}, "inbound_nodes": [[["block_15_expand", 0, 0, {}]]], "name": "block_15_expand_BN"}, {"class_name": "ReLU", "config": {"trainable": true, "max_value": 6.0, "threshold": 0.0, "name": "block_15_expand_relu", "negative_slope": 0.0}, "inbound_nodes": [[["block_15_expand_BN", 0, 0, {}]]], "name": "block_15_expand_relu"}, {"class_name": "DepthwiseConv2D", "config": {"bias_constraint": null, "strides": [1, 1], "kernel_size": [3, 3], "activity_regularizer": null, "activation": "linear", "bias_initializer": {"class_name": "Zeros", "config": {}}, "name": "block_15_depthwise", "depthwise_constraint": null, "use_bias": false, "data_format": "channels_last", "padding": "same", "trainable": true, "depth_multiplier": 1, "depthwise_initializer": {"class_name": "VarianceScaling", "config": {"distribution": "uniform", "scale": 1.0, "mode": "fan_avg", "seed": null}}, "bias_regularizer": null, "depthwise_regularizer": null, "dilation_rate": [1, 1]}, "inbound_nodes": [[["block_15_expand_relu", 0, 0, {}]]], "name": "block_15_depthwise"}, {"class_name": "BatchNormalization", "config": {"scale": true, "momentum": 0.999, "gamma_constraint": null, "name": "block_15_depthwise_BN", "epsilon": 0.001, "moving_mean_initializer": {"class_name": "Zeros", "config": {}}, "moving_variance_initializer": {"class_name": "Ones", "config": {}}, "beta_constraint": null, "gamma_regularizer": null, "beta_initializer": {"class_name": "Zeros", "config": {}}, "center": true, "trainable": true, "gamma_initializer": {"class_name": "Ones", "config": {}}, "axis": -1, "beta_regularizer": null}, "inbound_nodes": [[["block_15_depthwise", 0, 0, {}]]], "name": "block_15_depthwise_BN"}, {"class_name": "ReLU", "config": {"trainable": true, "max_value": 6.0, "threshold": 0.0, "name": "block_15_depthwise_relu", "negative_slope": 0.0}, "inbound_nodes": [[["block_15_depthwise_BN", 0, 0, {}]]], "name": "block_15_depthwise_relu"}, {"class_name": "Conv2D", "config": {"bias_constraint": null, "strides": [1, 1], "name": "block_15_project", "activity_regularizer": null, "activation": "linear", "bias_initializer": {"class_name": "Zeros", "config": {}}, "kernel_size": [1, 1], "kernel_constraint": null, "use_bias": false, "data_format": "channels_last", "padding": "same", "kernel_initializer": {"class_name": "VarianceScaling", "config": {"distribution": "uniform", "scale": 1.0, "mode": "fan_avg", "seed": null}}, "trainable": true, "filters": 160, "bias_regularizer": null, "kernel_regularizer": null, "dilation_rate": [1, 1]}, "inbound_nodes": [[["block_15_depthwise_relu", 0, 0, {}]]], "name": "block_15_project"}, {"class_name": "BatchNormalization", "config": {"scale": true, "momentum": 0.999, "gamma_constraint": null, "name": "block_15_project_BN", "epsilon": 0.001, "moving_mean_initializer": {"class_name": "Zeros", "config": {}}, "moving_variance_initializer": {"class_name": "Ones", "config": {}}, "beta_constraint": null, "gamma_regularizer": null, "beta_initializer": {"class_name": "Zeros", "config": {}}, "center": true, "trainable": true, "gamma_initializer": {"class_name": "Ones", "config": {}}, "axis": -1, "beta_regularizer": null}, "inbound_nodes": [[["block_15_project", 0, 0, {}]]], "name": "block_15_project_BN"}, {"class_name": "Add", "config": {"trainable": true, "name": "block_15_add"}, "inbound_nodes": [[["block_14_add", 0, 0, {}], ["block_15_project_BN", 0, 0, {}]]], "name": "block_15_add"}, {"class_name": "Conv2D", "config": {"bias_constraint": null, "strides": [1, 1], "name": "block_16_expand", "activity_regularizer": null, "activation": "linear", "bias_initializer": {"class_name": "Zeros", "config": {}}, "kernel_size": [1, 1], "kernel_constraint": null, "use_bias": false, "data_format": "channels_last", "padding": "same", "kernel_initializer": {"class_name": "VarianceScaling", "config": {"distribution": "uniform", "scale": 1.0, "mode": "fan_avg", "seed": null}}, "trainable": true, "filters": 960, "bias_regularizer": null, "kernel_regularizer": null, "dilation_rate": [1, 1]}, "inbound_nodes": [[["block_15_add", 0, 0, {}]]], "name": "block_16_expand"}, {"class_name": "BatchNormalization", "config": {"scale": true, "momentum": 0.999, "gamma_constraint": null, "name": "block_16_expand_BN", "epsilon": 0.001, "moving_mean_initializer": {"class_name": "Zeros", "config": {}}, "moving_variance_initializer": {"class_name": "Ones", "config": {}}, "beta_constraint": null, "gamma_regularizer": null, "beta_initializer": {"class_name": "Zeros", "config": {}}, "center": true, "trainable": true, "gamma_initializer": {"class_name": "Ones", "config": {}}, "axis": -1, "beta_regularizer": null}, "inbound_nodes": [[["block_16_expand", 0, 0, {}]]], "name": "block_16_expand_BN"}, {"class_name": "ReLU", "config": {"trainable": true, "max_value": 6.0, "threshold": 0.0, "name": "block_16_expand_relu", "negative_slope": 0.0}, "inbound_nodes": [[["block_16_expand_BN", 0, 0, {}]]], "name": "block_16_expand_relu"}, {"class_name": "DepthwiseConv2D", "config": {"bias_constraint": null, "strides": [1, 1], "kernel_size": [3, 3], "activity_regularizer": null, "activation": "linear", "bias_initializer": {"class_name": "Zeros", "config": {}}, "name": "block_16_depthwise", "depthwise_constraint": null, "use_bias": false, "data_format": "channels_last", "padding": "same", "trainable": true, "depth_multiplier": 1, "depthwise_initializer": {"class_name": "VarianceScaling", "config": {"distribution": "uniform", "scale": 1.0, "mode": "fan_avg", "seed": null}}, "bias_regularizer": null, "depthwise_regularizer": null, "dilation_rate": [1, 1]}, "inbound_nodes": [[["block_16_expand_relu", 0, 0, {}]]], "name": "block_16_depthwise"}, {"class_name": "BatchNormalization", "config": {"scale": true, "momentum": 0.999, "gamma_constraint": null, "name": "block_16_depthwise_BN", "epsilon": 0.001, "moving_mean_initializer": {"class_name": "Zeros", "config": {}}, "moving_variance_initializer": {"class_name": "Ones", "config": {}}, "beta_constraint": null, "gamma_regularizer": null, "beta_initializer": {"class_name": "Zeros", "config": {}}, "center": true, "trainable": true, "gamma_initializer": {"class_name": "Ones", "config": {}}, "axis": -1, "beta_regularizer": null}, "inbound_nodes": [[["block_16_depthwise", 0, 0, {}]]], "name": "block_16_depthwise_BN"}, {"class_name": "ReLU", "config": {"trainable": true, "max_value": 6.0, "threshold": 0.0, "name": "block_16_depthwise_relu", "negative_slope": 0.0}, "inbound_nodes": [[["block_16_depthwise_BN", 0, 0, {}]]], "name": "block_16_depthwise_relu"}, {"class_name": "Conv2D", "config": {"bias_constraint": null, "strides": [1, 1], "name": "block_16_project", "activity_regularizer": null, "activation": "linear", "bias_initializer": {"class_name": "Zeros", "config": {}}, "kernel_size": [1, 1], "kernel_constraint": null, "use_bias": false, "data_format": "channels_last", "padding": "same", "kernel_initializer": {"class_name": "VarianceScaling", "config": {"distribution": "uniform", "scale": 1.0, "mode": "fan_avg", "seed": null}}, "trainable": true, "filters": 320, "bias_regularizer": null, "kernel_regularizer": null, "dilation_rate": [1, 1]}, "inbound_nodes": [[["block_16_depthwise_relu", 0, 0, {}]]], "name": "block_16_project"}, {"class_name": "BatchNormalization", "config": {"scale": true, "momentum": 0.999, "gamma_constraint": null, "name": "block_16_project_BN", "epsilon": 0.001, "moving_mean_initializer": {"class_name": "Zeros", "config": {}}, "moving_variance_initializer": {"class_name": "Ones", "config": {}}, "beta_constraint": null, "gamma_regularizer": null, "beta_initializer": {"class_name": "Zeros", "config": {}}, "center": true, "trainable": true, "gamma_initializer": {"class_name": "Ones", "config": {}}, "axis": -1, "beta_regularizer": null}, "inbound_nodes": [[["block_16_project", 0, 0, {}]]], "name": "block_16_project_BN"}, {"class_name": "Conv2D", "config": {"bias_constraint": null, "strides": [1, 1], "name": "Conv_1", "activity_regularizer": null, "activation": "linear", "bias_initializer": {"class_name": "Zeros", "config": {}}, "kernel_size": [1, 1], "kernel_constraint": null, "use_bias": false, "data_format": "channels_last", "padding": "valid", "kernel_initializer": {"class_name": "VarianceScaling", "config": {"distribution": "uniform", "scale": 1.0, "mode": "fan_avg", "seed": null}}, "trainable": true, "filters": 1280, "bias_regularizer": null, "kernel_regularizer": null, "dilation_rate": [1, 1]}, "inbound_nodes": [[["block_16_project_BN", 0, 0, {}]]], "name": "Conv_1"}, {"class_name": "BatchNormalization", "config": {"scale": true, "momentum": 0.999, "gamma_constraint": null, "name": "Conv_1_bn", "epsilon": 0.001, "moving_mean_initializer": {"class_name": "Zeros", "config": {}}, "moving_variance_initializer": {"class_name": "Ones", "config": {}}, "beta_constraint": null, "gamma_regularizer": null, "beta_initializer": {"class_name": "Zeros", "config": {}}, "center": true, "trainable": true, "gamma_initializer": {"class_name": "Ones", "config": {}}, "axis": -1, "beta_regularizer": null}, "inbound_nodes": [[["Conv_1", 0, 0, {}]]], "name": "Conv_1_bn"}, {"class_name": "ReLU", "config": {"trainable": true, "max_value": 6.0, "threshold": 0.0, "name": "out_relu", "negative_slope": 0.0}, "inbound_nodes": [[["Conv_1_bn", 0, 0, {}]]], "name": "out_relu"}, {"class_name": "Conv2D", "config": {"bias_constraint": null, "strides": [1, 1], "name": "conv2d_151", "activity_regularizer": null, "activation": "relu", "bias_initializer": {"class_name": "Zeros", "config": {}}, "kernel_size": [1, 1], "kernel_constraint": null, "use_bias": false, "data_format": "channels_last", "padding": "same", "kernel_initializer": {"class_name": "VarianceScaling", "config": {"distribution": "uniform", "scale": 1.0, "mode": "fan_avg", "seed": null}}, "trainable": true, "filters": 160, "bias_regularizer": null, "kernel_regularizer": null, "dilation_rate": [1, 1]}, "inbound_nodes": [[["out_relu", 0, 0, {}]]], "name": "conv2d_151"}, {"class_name": "Conv2D", "config": {"bias_constraint": null, "strides": [1, 1], "name": "conv2d_154", "activity_regularizer": null, "activation": "relu", "bias_initializer": {"class_name": "Zeros", "config": {}}, "kernel_size": [1, 1], "kernel_constraint": null, "use_bias": false, "data_format": "channels_last", "padding": "same", "kernel_initializer": {"class_name": "VarianceScaling", "config": {"distribution": "uniform", "scale": 1.0, "mode": "fan_avg", "seed": null}}, "trainable": true, "filters": 160, "bias_regularizer": null, "kernel_regularizer": null, "dilation_rate": [1, 1]}, "inbound_nodes": [[["out_relu", 0, 0, {}]]], "name": "conv2d_154"}, {"class_name": "BatchNormalization", "config": {"scale": true, "momentum": 0.99, "gamma_constraint": null, "name": "batch_normalization_136", "epsilon": 1e-05, "moving_mean_initializer": {"class_name": "Zeros", "config": {}}, "moving_variance_initializer": {"class_name": "Ones", "config": {}}, "beta_constraint": null, "gamma_regularizer": null, "beta_initializer": {"class_name": "Zeros", "config": {}}, "center": true, "trainable": true, "gamma_initializer": {"class_name": "Ones", "config": {}}, "axis": -1, "beta_regularizer": null}, "inbound_nodes": [[["conv2d_151", 0, 0, {}]]], "name": "batch_normalization_136"}, {"class_name": "BatchNormalization", "config": {"scale": true, "momentum": 0.99, "gamma_constraint": null, "name": "batch_normalization_140", "epsilon": 1e-05, "moving_mean_initializer": {"class_name": "Zeros", "config": {}}, "moving_variance_initializer": {"class_name": "Ones", "config": {}}, "beta_constraint": null, "gamma_regularizer": null, "beta_initializer": {"class_name": "Zeros", "config": {}}, "center": true, "trainable": true, "gamma_initializer": {"class_name": "Ones", "config": {}}, "axis": -1, "beta_regularizer": null}, "inbound_nodes": [[["conv2d_154", 0, 0, {}]]], "name": "batch_normalization_140"}, {"class_name": "Conv2D", "config": {"bias_constraint": null, "strides": [1, 1], "name": "conv2d_152", "activity_regularizer": null, "activation": "relu", "bias_initializer": {"class_name": "Zeros", "config": {}}, "kernel_size": [1, 3], "kernel_constraint": null, "use_bias": false, "data_format": "channels_last", "padding": "same", "kernel_initializer": {"class_name": "VarianceScaling", "config": {"distribution": "uniform", "scale": 1.0, "mode": "fan_avg", "seed": null}}, "trainable": true, "filters": 240, "bias_regularizer": null, "kernel_regularizer": null, "dilation_rate": [1, 1]}, "inbound_nodes": [[["batch_normalization_136", 0, 0, {}]]], "name": "conv2d_152"}, {"class_name": "Conv2D", "config": {"bias_constraint": null, "strides": [1, 1], "name": "conv2d_155", "activity_regularizer": null, "activation": "relu", "bias_initializer": {"class_name": "Zeros", "config": {}}, "kernel_size": [3, 3], "kernel_constraint": null, "use_bias": false, "data_format": "channels_last", "padding": "same", "kernel_initializer": {"class_name": "VarianceScaling", "config": {"distribution": "uniform", "scale": 1.0, "mode": "fan_avg", "seed": null}}, "trainable": true, "filters": 240, "bias_regularizer": null, "kernel_regularizer": null, "dilation_rate": [1, 1]}, "inbound_nodes": [[["batch_normalization_140", 0, 0, {}]]], "name": "conv2d_155"}, {"class_name": "BatchNormalization", "config": {"scale": true, "momentum": 0.99, "gamma_constraint": null, "name": "batch_normalization_137", "epsilon": 1e-05, "moving_mean_initializer": {"class_name": "Zeros", "config": {}}, "moving_variance_initializer": {"class_name": "Ones", "config": {}}, "beta_constraint": null, "gamma_regularizer": null, "beta_initializer": {"class_name": "Zeros", "config": {}}, "center": true, "trainable": true, "gamma_initializer": {"class_name": "Ones", "config": {}}, "axis": -1, "beta_regularizer": null}, "inbound_nodes": [[["conv2d_152", 0, 0, {}]]], "name": "batch_normalization_137"}, {"class_name": "BatchNormalization", "config": {"scale": true, "momentum": 0.99, "gamma_constraint": null, "name": "batch_normalization_141", "epsilon": 1e-05, "moving_mean_initializer": {"class_name": "Zeros", "config": {}}, "moving_variance_initializer": {"class_name": "Ones", "config": {}}, "beta_constraint": null, "gamma_regularizer": null, "beta_initializer": {"class_name": "Zeros", "config": {}}, "center": true, "trainable": true, "gamma_initializer": {"class_name": "Ones", "config": {}}, "axis": -1, "beta_regularizer": null}, "inbound_nodes": [[["conv2d_155", 0, 0, {}]]], "name": "batch_normalization_141"}, {"class_name": "Conv2D", "config": {"bias_constraint": null, "strides": [2, 2], "name": "conv2d_149", "activity_regularizer": null, "activation": "relu", "bias_initializer": {"class_name": "Zeros", "config": {}}, "kernel_size": [1, 1], "kernel_constraint": null, "use_bias": false, "data_format": "channels_last", "padding": "same", "kernel_initializer": {"class_name": "VarianceScaling", "config": {"distribution": "uniform", "scale": 1.0, "mode": "fan_avg", "seed": null}}, "trainable": true, "filters": 320, "bias_regularizer": null, "kernel_regularizer": null, "dilation_rate": [1, 1]}, "inbound_nodes": [[["out_relu", 0, 0, {}]]], "name": "conv2d_149"}, {"class_name": "Conv2D", "config": {"bias_constraint": null, "strides": [2, 2], "name": "conv2d_153", "activity_regularizer": null, "activation": "relu", "bias_initializer": {"class_name": "Zeros", "config": {}}, "kernel_size": [3, 1], "kernel_constraint": null, "use_bias": false, "data_format": "channels_last", "padding": "same", "kernel_initializer": {"class_name": "VarianceScaling", "config": {"distribution": "uniform", "scale": 1.0, "mode": "fan_avg", "seed": null}}, "trainable": true, "filters": 240, "bias_regularizer": null, "kernel_regularizer": null, "dilation_rate": [1, 1]}, "inbound_nodes": [[["batch_normalization_137", 0, 0, {}]]], "name": "conv2d_153"}, {"class_name": "Conv2D", "config": {"bias_constraint": null, "strides": [2, 2], "name": "conv2d_156", "activity_regularizer": null, "activation": "relu", "bias_initializer": {"class_name": "Zeros", "config": {}}, "kernel_size": [3, 3], "kernel_constraint": null, "use_bias": false, "data_format": "channels_last", "padding": "same", "kernel_initializer": {"class_name": "VarianceScaling", "config": {"distribution": "uniform", "scale": 1.0, "mode": "fan_avg", "seed": null}}, "trainable": true, "filters": 240, "bias_regularizer": null, "kernel_regularizer": null, "dilation_rate": [1, 1]}, "inbound_nodes": [[["batch_normalization_141", 0, 0, {}]]], "name": "conv2d_156"}, {"class_name": "BatchNormalization", "config": {"scale": true, "momentum": 0.99, "gamma_constraint": null, "name": "batch_normalization_134", "epsilon": 1e-05, "moving_mean_initializer": {"class_name": "Zeros", "config": {}}, "moving_variance_initializer": {"class_name": "Ones", "config": {}}, "beta_constraint": null, "gamma_regularizer": null, "beta_initializer": {"class_name": "Zeros", "config": {}}, "center": true, "trainable": true, "gamma_initializer": {"class_name": "Ones", "config": {}}, "axis": -1, "beta_regularizer": null}, "inbound_nodes": [[["conv2d_149", 0, 0, {}]]], "name": "batch_normalization_134"}, {"class_name": "BatchNormalization", "config": {"scale": true, "momentum": 0.99, "gamma_constraint": null, "name": "batch_normalization_138", "epsilon": 1e-05, "moving_mean_initializer": {"class_name": "Zeros", "config": {}}, "moving_variance_initializer": {"class_name": "Ones", "config": {}}, "beta_constraint": null, "gamma_regularizer": null, "beta_initializer": {"class_name": "Zeros", "config": {}}, "center": true, "trainable": true, "gamma_initializer": {"class_name": "Ones", "config": {}}, "axis": -1, "beta_regularizer": null}, "inbound_nodes": [[["conv2d_153", 0, 0, {}]]], "name": "batch_normalization_138"}, {"class_name": "BatchNormalization", "config": {"scale": true, "momentum": 0.99, "gamma_constraint": null, "name": "batch_normalization_142", "epsilon": 1e-05, "moving_mean_initializer": {"class_name": "Zeros", "config": {}}, "moving_variance_initializer": {"class_name": "Ones", "config": {}}, "beta_constraint": null, "gamma_regularizer": null, "beta_initializer": {"class_name": "Zeros", "config": {}}, "center": true, "trainable": true, "gamma_initializer": {"class_name": "Ones", "config": {}}, "axis": -1, "beta_regularizer": null}, "inbound_nodes": [[["conv2d_156", 0, 0, {}]]], "name": "batch_normalization_142"}, {"class_name": "Conv2D", "config": {"bias_constraint": null, "strides": [1, 1], "name": "conv2d_150", "activity_regularizer": null, "activation": "linear", "bias_initializer": {"class_name": "Zeros", "config": {}}, "kernel_size": [3, 3], "kernel_constraint": null, "use_bias": false, "data_format": "channels_last", "padding": "same", "kernel_initializer": {"class_name": "VarianceScaling", "config": {"distribution": "uniform", "scale": 1.0, "mode": "fan_avg", "seed": null}}, "trainable": true, "filters": 320, "bias_regularizer": null, "kernel_regularizer": null, "dilation_rate": [1, 1]}, "inbound_nodes": [[["batch_normalization_134", 0, 0, {}]]], "name": "conv2d_150"}, {"class_name": "SeparableConv2D", "config": {"dilation_rate": [3, 3], "bias_constraint": null, "strides": [1, 1], "pointwise_constraint": null, "activity_regularizer": null, "activation": "linear", "bias_initializer": {"class_name": "Zeros", "config": {}}, "kernel_size": [3, 3], "name": "separable_conv2d_29", "depthwise_constraint": null, "use_bias": false, "data_format": "channels_last", "filters": 240, "pointwise_initializer": {"class_name": "VarianceScaling", "config": {"distribution": "uniform", "scale": 1.0, "mode": "fan_avg", "seed": null}}, "trainable": true, "depth_multiplier": 1, "depthwise_initializer": {"class_name": "VarianceScaling", "config": {"distribution": "uniform", "scale": 1.0, "mode": "fan_avg", "seed": null}}, "bias_regularizer": null, "pointwise_regularizer": null, "depthwise_regularizer": null, "padding": "same"}, "inbound_nodes": [[["batch_normalization_138", 0, 0, {}]]], "name": "separable_conv2d_29"}, {"class_name": "SeparableConv2D", "config": {"dilation_rate": [5, 5], "bias_constraint": null, "strides": [1, 1], "pointwise_constraint": null, "activity_regularizer": null, "activation": "linear", "bias_initializer": {"class_name": "Zeros", "config": {}}, "kernel_size": [3, 3], "name": "separable_conv2d_30", "depthwise_constraint": null, "use_bias": false, "data_format": "channels_last", "filters": 240, "pointwise_initializer": {"class_name": "VarianceScaling", "config": {"distribution": "uniform", "scale": 1.0, "mode": "fan_avg", "seed": null}}, "trainable": true, "depth_multiplier": 1, "depthwise_initializer": {"class_name": "VarianceScaling", "config": {"distribution": "uniform", "scale": 1.0, "mode": "fan_avg", "seed": null}}, "bias_regularizer": null, "pointwise_regularizer": null, "depthwise_regularizer": null, "padding": "same"}, "inbound_nodes": [[["batch_normalization_142", 0, 0, {}]]], "name": "separable_conv2d_30"}, {"class_name": "BatchNormalization", "config": {"scale": true, "momentum": 0.99, "gamma_constraint": null, "name": "batch_normalization_135", "epsilon": 1e-05, "moving_mean_initializer": {"class_name": "Zeros", "config": {}}, "moving_variance_initializer": {"class_name": "Ones", "config": {}}, "beta_constraint": null, "gamma_regularizer": null, "beta_initializer": {"class_name": "Zeros", "config": {}}, "center": true, "trainable": true, "gamma_initializer": {"class_name": "Ones", "config": {}}, "axis": -1, "beta_regularizer": null}, "inbound_nodes": [[["conv2d_150", 0, 0, {}]]], "name": "batch_normalization_135"}, {"class_name": "BatchNormalization", "config": {"scale": true, "momentum": 0.01, "gamma_constraint": null, "name": "batch_normalization_139", "epsilon": 1e-05, "moving_mean_initializer": {"class_name": "Zeros", "config": {}}, "moving_variance_initializer": {"class_name": "Ones", "config": {}}, "beta_constraint": null, "gamma_regularizer": null, "beta_initializer": {"class_name": "Zeros", "config": {}}, "center": true, "trainable": true, "gamma_initializer": {"class_name": "Ones", "config": {}}, "axis": -1, "beta_regularizer": null}, "inbound_nodes": [[["separable_conv2d_29", 0, 0, {}]]], "name": "batch_normalization_139"}, {"class_name": "BatchNormalization", "config": {"scale": true, "momentum": 0.01, "gamma_constraint": null, "name": "batch_normalization_143", "epsilon": 1e-05, "moving_mean_initializer": {"class_name": "Zeros", "config": {}}, "moving_variance_initializer": {"class_name": "Ones", "config": {}}, "beta_constraint": null, "gamma_regularizer": null, "beta_initializer": {"class_name": "Zeros", "config": {}}, "center": true, "trainable": true, "gamma_initializer": {"class_name": "Ones", "config": {}}, "axis": -1, "beta_regularizer": null}, "inbound_nodes": [[["separable_conv2d_30", 0, 0, {}]]], "name": "batch_normalization_143"}, {"class_name": "Concatenate", "config": {"trainable": true, "name": "concatenate_32", "axis": -1}, "inbound_nodes": [[["batch_normalization_135", 0, 0, {}], ["batch_normalization_139", 0, 0, {}], ["batch_normalization_143", 0, 0, {}]]], "name": "concatenate_32"}, {"class_name": "Conv2D", "config": {"bias_constraint": null, "strides": [1, 1], "name": "conv2d_157", "activity_regularizer": null, "activation": "linear", "bias_initializer": {"class_name": "Zeros", "config": {}}, "kernel_size": [1, 1], "kernel_constraint": null, "use_bias": false, "data_format": "channels_last", "padding": "same", "kernel_initializer": {"class_name": "VarianceScaling", "config": {"distribution": "uniform", "scale": 1.0, "mode": "fan_avg", "seed": null}}, "trainable": true, "filters": 512, "bias_regularizer": null, "kernel_regularizer": null, "dilation_rate": [1, 1]}, "inbound_nodes": [[["concatenate_32", 0, 0, {}]]], "name": "conv2d_157"}, {"class_name": "BatchNormalization", "config": {"scale": true, "momentum": 0.99, "gamma_constraint": null, "name": "batch_normalization_144", "epsilon": 1e-05, "moving_mean_initializer": {"class_name": "Zeros", "config": {}}, "moving_variance_initializer": {"class_name": "Ones", "config": {}}, "beta_constraint": null, "gamma_regularizer": null, "beta_initializer": {"class_name": "Zeros", "config": {}}, "center": true, "trainable": true, "gamma_initializer": {"class_name": "Ones", "config": {}}, "axis": -1, "beta_regularizer": null}, "inbound_nodes": [[["conv2d_157", 0, 0, {}]]], "name": "batch_normalization_144"}, {"class_name": "Conv2D", "config": {"bias_constraint": null, "strides": [1, 1], "name": "conv2d_158", "activity_regularizer": null, "activation": "linear", "bias_initializer": {"class_name": "Zeros", "config": {}}, "kernel_size": [1, 1], "kernel_constraint": null, "use_bias": false, "data_format": "channels_last", "padding": "same", "kernel_initializer": {"class_name": "VarianceScaling", "config": {"distribution": "uniform", "scale": 1.0, "mode": "fan_avg", "seed": null}}, "trainable": true, "filters": 512, "bias_regularizer": null, "kernel_regularizer": null, "dilation_rate": [1, 1]}, "inbound_nodes": [[["out_relu", 0, 0, {}]]], "name": "conv2d_158"}, {"class_name": "Lambda", "config": {"output_shape_type": "raw", "function": ["4wEAAAAAAAAAAQAAAAIAAAATAAAAcwgAAAB8AACIAAAUUykBTqkAKQHaAXgpAdoFc2NhbGVyAQAA\nAPooL2hvbWUvY2FpL3Byb2plY3QvUkZCTmV0LUtlcmFzL21vZHVsZS5wedoIPGxhbWJkYT5WAAAA\n8wAAAAA=\n", null, [1.0]], "output_shape": null, "name": "lambda_17", "function_type": "lambda", "trainable": true, "arguments": {}}, "inbound_nodes": [[["batch_normalization_144", 0, 0, {}]]], "name": "lambda_17"}, {"class_name": "MaxPooling2D", "config": {"pool_size": [2, 2], "strides": [2, 2], "padding": "same", "name": "max_pooling2d_4", "trainable": true, "data_format": "channels_last"}, "inbound_nodes": [[["conv2d_158", 0, 0, {}]]], "name": "max_pooling2d_4"}, {"class_name": "Add", "config": {"trainable": true, "name": "add_11"}, "inbound_nodes": [[["lambda_17", 0, 0, {}], ["max_pooling2d_4", 0, 0, {}]]], "name": "add_11"}, {"class_name": "Activation", "config": {"activation": "relu", "name": "activation_11", "trainable": true}, "inbound_nodes": [[["add_11", 0, 0, {}]]], "name": "activation_11"}, {"class_name": "Conv2D", "config": {"bias_constraint": null, "strides": [1, 1], "name": "conv2d_161", "activity_regularizer": null, "activation": "relu", "bias_initializer": {"class_name": "Zeros", "config": {}}, "kernel_size": [1, 1], "kernel_constraint": null, "use_bias": false, "data_format": "channels_last", "padding": "same", "kernel_initializer": {"class_name": "VarianceScaling", "config": {"distribution": "uniform", "scale": 1.0, "mode": "fan_avg", "seed": null}}, "trainable": true, "filters": 64, "bias_regularizer": null, "kernel_regularizer": null, "dilation_rate": [1, 1]}, "inbound_nodes": [[["activation_11", 0, 0, {}]]], "name": "conv2d_161"}, {"class_name": "Conv2D", "config": {"bias_constraint": null, "strides": [1, 1], "name": "conv2d_164", "activity_regularizer": null, "activation": "relu", "bias_initializer": {"class_name": "Zeros", "config": {}}, "kernel_size": [1, 1], "kernel_constraint": null, "use_bias": false, "data_format": "channels_last", "padding": "same", "kernel_initializer": {"class_name": "VarianceScaling", "config": {"distribution": "uniform", "scale": 1.0, "mode": "fan_avg", "seed": null}}, "trainable": true, "filters": 64, "bias_regularizer": null, "kernel_regularizer": null, "dilation_rate": [1, 1]}, "inbound_nodes": [[["activation_11", 0, 0, {}]]], "name": "conv2d_164"}, {"class_name": "BatchNormalization", "config": {"scale": true, "momentum": 0.99, "gamma_constraint": null, "name": "batch_normalization_147", "epsilon": 1e-05, "moving_mean_initializer": {"class_name": "Zeros", "config": {}}, "moving_variance_initializer": {"class_name": "Ones", "config": {}}, "beta_constraint": null, "gamma_regularizer": null, "beta_initializer": {"class_name": "Zeros", "config": {}}, "center": true, "trainable": true, "gamma_initializer": {"class_name": "Ones", "config": {}}, "axis": -1, "beta_regularizer": null}, "inbound_nodes": [[["conv2d_161", 0, 0, {}]]], "name": "batch_normalization_147"}, {"class_name": "BatchNormalization", "config": {"scale": true, "momentum": 0.99, "gamma_constraint": null, "name": "batch_normalization_151", "epsilon": 1e-05, "moving_mean_initializer": {"class_name": "Zeros", "config": {}}, "moving_variance_initializer": {"class_name": "Ones", "config": {}}, "beta_constraint": null, "gamma_regularizer": null, "beta_initializer": {"class_name": "Zeros", "config": {}}, "center": true, "trainable": true, "gamma_initializer": {"class_name": "Ones", "config": {}}, "axis": -1, "beta_regularizer": null}, "inbound_nodes": [[["conv2d_164", 0, 0, {}]]], "name": "batch_normalization_151"}, {"class_name": "Conv2D", "config": {"bias_constraint": null, "strides": [1, 1], "name": "conv2d_162", "activity_regularizer": null, "activation": "relu", "bias_initializer": {"class_name": "Zeros", "config": {}}, "kernel_size": [1, 3], "kernel_constraint": null, "use_bias": false, "data_format": "channels_last", "padding": "same", "kernel_initializer": {"class_name": "VarianceScaling", "config": {"distribution": "uniform", "scale": 1.0, "mode": "fan_avg", "seed": null}}, "trainable": true, "filters": 96, "bias_regularizer": null, "kernel_regularizer": null, "dilation_rate": [1, 1]}, "inbound_nodes": [[["batch_normalization_147", 0, 0, {}]]], "name": "conv2d_162"}, {"class_name": "Conv2D", "config": {"bias_constraint": null, "strides": [1, 1], "name": "conv2d_165", "activity_regularizer": null, "activation": "relu", "bias_initializer": {"class_name": "Zeros", "config": {}}, "kernel_size": [3, 3], "kernel_constraint": null, "use_bias": false, "data_format": "channels_last", "padding": "same", "kernel_initializer": {"class_name": "VarianceScaling", "config": {"distribution": "uniform", "scale": 1.0, "mode": "fan_avg", "seed": null}}, "trainable": true, "filters": 96, "bias_regularizer": null, "kernel_regularizer": null, "dilation_rate": [1, 1]}, "inbound_nodes": [[["batch_normalization_151", 0, 0, {}]]], "name": "conv2d_165"}, {"class_name": "BatchNormalization", "config": {"scale": true, "momentum": 0.99, "gamma_constraint": null, "name": "batch_normalization_148", "epsilon": 1e-05, "moving_mean_initializer": {"class_name": "Zeros", "config": {}}, "moving_variance_initializer": {"class_name": "Ones", "config": {}}, "beta_constraint": null, "gamma_regularizer": null, "beta_initializer": {"class_name": "Zeros", "config": {}}, "center": true, "trainable": true, "gamma_initializer": {"class_name": "Ones", "config": {}}, "axis": -1, "beta_regularizer": null}, "inbound_nodes": [[["conv2d_162", 0, 0, {}]]], "name": "batch_normalization_148"}, {"class_name": "BatchNormalization", "config": {"scale": true, "momentum": 0.99, "gamma_constraint": null, "name": "batch_normalization_152", "epsilon": 1e-05, "moving_mean_initializer": {"class_name": "Zeros", "config": {}}, "moving_variance_initializer": {"class_name": "Ones", "config": {}}, "beta_constraint": null, "gamma_regularizer": null, "beta_initializer": {"class_name": "Zeros", "config": {}}, "center": true, "trainable": true, "gamma_initializer": {"class_name": "Ones", "config": {}}, "axis": -1, "beta_regularizer": null}, "inbound_nodes": [[["conv2d_165", 0, 0, {}]]], "name": "batch_normalization_152"}, {"class_name": "Conv2D", "config": {"bias_constraint": null, "strides": [1, 1], "name": "conv2d_159", "activity_regularizer": null, "activation": "relu", "bias_initializer": {"class_name": "Zeros", "config": {}}, "kernel_size": [1, 1], "kernel_constraint": null, "use_bias": false, "data_format": "channels_last", "padding": "same", "kernel_initializer": {"class_name": "VarianceScaling", "config": {"distribution": "uniform", "scale": 1.0, "mode": "fan_avg", "seed": null}}, "trainable": true, "filters": 128, "bias_regularizer": null, "kernel_regularizer": null, "dilation_rate": [1, 1]}, "inbound_nodes": [[["activation_11", 0, 0, {}]]], "name": "conv2d_159"}, {"class_name": "Conv2D", "config": {"bias_constraint": null, "strides": [1, 1], "name": "conv2d_163", "activity_regularizer": null, "activation": "relu", "bias_initializer": {"class_name": "Zeros", "config": {}}, "kernel_size": [3, 1], "kernel_constraint": null, "use_bias": false, "data_format": "channels_last", "padding": "same", "kernel_initializer": {"class_name": "VarianceScaling", "config": {"distribution": "uniform", "scale": 1.0, "mode": "fan_avg", "seed": null}}, "trainable": true, "filters": 96, "bias_regularizer": null, "kernel_regularizer": null, "dilation_rate": [1, 1]}, "inbound_nodes": [[["batch_normalization_148", 0, 0, {}]]], "name": "conv2d_163"}, {"class_name": "Conv2D", "config": {"bias_constraint": null, "strides": [1, 1], "name": "conv2d_166", "activity_regularizer": null, "activation": "relu", "bias_initializer": {"class_name": "Zeros", "config": {}}, "kernel_size": [3, 3], "kernel_constraint": null, "use_bias": false, "data_format": "channels_last", "padding": "same", "kernel_initializer": {"class_name": "VarianceScaling", "config": {"distribution": "uniform", "scale": 1.0, "mode": "fan_avg", "seed": null}}, "trainable": true, "filters": 96, "bias_regularizer": null, "kernel_regularizer": null, "dilation_rate": [1, 1]}, "inbound_nodes": [[["batch_normalization_152", 0, 0, {}]]], "name": "conv2d_166"}, {"class_name": "BatchNormalization", "config": {"scale": true, "momentum": 0.99, "gamma_constraint": null, "name": "batch_normalization_145", "epsilon": 1e-05, "moving_mean_initializer": {"class_name": "Zeros", "config": {}}, "moving_variance_initializer": {"class_name": "Ones", "config": {}}, "beta_constraint": null, "gamma_regularizer": null, "beta_initializer": {"class_name": "Zeros", "config": {}}, "center": true, "trainable": true, "gamma_initializer": {"class_name": "Ones", "config": {}}, "axis": -1, "beta_regularizer": null}, "inbound_nodes": [[["conv2d_159", 0, 0, {}]]], "name": "batch_normalization_145"}, {"class_name": "BatchNormalization", "config": {"scale": true, "momentum": 0.99, "gamma_constraint": null, "name": "batch_normalization_149", "epsilon": 1e-05, "moving_mean_initializer": {"class_name": "Zeros", "config": {}}, "moving_variance_initializer": {"class_name": "Ones", "config": {}}, "beta_constraint": null, "gamma_regularizer": null, "beta_initializer": {"class_name": "Zeros", "config": {}}, "center": true, "trainable": true, "gamma_initializer": {"class_name": "Ones", "config": {}}, "axis": -1, "beta_regularizer": null}, "inbound_nodes": [[["conv2d_163", 0, 0, {}]]], "name": "batch_normalization_149"}, {"class_name": "BatchNormalization", "config": {"scale": true, "momentum": 0.99, "gamma_constraint": null, "name": "batch_normalization_153", "epsilon": 1e-05, "moving_mean_initializer": {"class_name": "Zeros", "config": {}}, "moving_variance_initializer": {"class_name": "Ones", "config": {}}, "beta_constraint": null, "gamma_regularizer": null, "beta_initializer": {"class_name": "Zeros", "config": {}}, "center": true, "trainable": true, "gamma_initializer": {"class_name": "Ones", "config": {}}, "axis": -1, "beta_regularizer": null}, "inbound_nodes": [[["conv2d_166", 0, 0, {}]]], "name": "batch_normalization_153"}, {"class_name": "Conv2D", "config": {"bias_constraint": null, "strides": [1, 1], "name": "conv2d_160", "activity_regularizer": null, "activation": "linear", "bias_initializer": {"class_name": "Zeros", "config": {}}, "kernel_size": [3, 3], "kernel_constraint": null, "use_bias": false, "data_format": "channels_last", "padding": "same", "kernel_initializer": {"class_name": "VarianceScaling", "config": {"distribution": "uniform", "scale": 1.0, "mode": "fan_avg", "seed": null}}, "trainable": true, "filters": 128, "bias_regularizer": null, "kernel_regularizer": null, "dilation_rate": [1, 1]}, "inbound_nodes": [[["batch_normalization_145", 0, 0, {}]]], "name": "conv2d_160"}, {"class_name": "SeparableConv2D", "config": {"dilation_rate": [3, 3], "bias_constraint": null, "strides": [1, 1], "pointwise_constraint": null, "activity_regularizer": null, "activation": "linear", "bias_initializer": {"class_name": "Zeros", "config": {}}, "kernel_size": [3, 3], "name": "separable_conv2d_31", "depthwise_constraint": null, "use_bias": false, "data_format": "channels_last", "filters": 96, "pointwise_initializer": {"class_name": "VarianceScaling", "config": {"distribution": "uniform", "scale": 1.0, "mode": "fan_avg", "seed": null}}, "trainable": true, "depth_multiplier": 1, "depthwise_initializer": {"class_name": "VarianceScaling", "config": {"distribution": "uniform", "scale": 1.0, "mode": "fan_avg", "seed": null}}, "bias_regularizer": null, "pointwise_regularizer": null, "depthwise_regularizer": null, "padding": "same"}, "inbound_nodes": [[["batch_normalization_149", 0, 0, {}]]], "name": "separable_conv2d_31"}, {"class_name": "SeparableConv2D", "config": {"dilation_rate": [5, 5], "bias_constraint": null, "strides": [1, 1], "pointwise_constraint": null, "activity_regularizer": null, "activation": "linear", "bias_initializer": {"class_name": "Zeros", "config": {}}, "kernel_size": [3, 3], "name": "separable_conv2d_32", "depthwise_constraint": null, "use_bias": false, "data_format": "channels_last", "filters": 96, "pointwise_initializer": {"class_name": "VarianceScaling", "config": {"distribution": "uniform", "scale": 1.0, "mode": "fan_avg", "seed": null}}, "trainable": true, "depth_multiplier": 1, "depthwise_initializer": {"class_name": "VarianceScaling", "config": {"distribution": "uniform", "scale": 1.0, "mode": "fan_avg", "seed": null}}, "bias_regularizer": null, "pointwise_regularizer": null, "depthwise_regularizer": null, "padding": "same"}, "inbound_nodes": [[["batch_normalization_153", 0, 0, {}]]], "name": "separable_conv2d_32"}, {"class_name": "BatchNormalization", "config": {"scale": true, "momentum": 0.99, "gamma_constraint": null, "name": "batch_normalization_146", "epsilon": 1e-05, "moving_mean_initializer": {"class_name": "Zeros", "config": {}}, "moving_variance_initializer": {"class_name": "Ones", "config": {}}, "beta_constraint": null, "gamma_regularizer": null, "beta_initializer": {"class_name": "Zeros", "config": {}}, "center": true, "trainable": true, "gamma_initializer": {"class_name": "Ones", "config": {}}, "axis": -1, "beta_regularizer": null}, "inbound_nodes": [[["conv2d_160", 0, 0, {}]]], "name": "batch_normalization_146"}, {"class_name": "BatchNormalization", "config": {"scale": true, "momentum": 0.01, "gamma_constraint": null, "name": "batch_normalization_150", "epsilon": 1e-05, "moving_mean_initializer": {"class_name": "Zeros", "config": {}}, "moving_variance_initializer": {"class_name": "Ones", "config": {}}, "beta_constraint": null, "gamma_regularizer": null, "beta_initializer": {"class_name": "Zeros", "config": {}}, "center": true, "trainable": true, "gamma_initializer": {"class_name": "Ones", "config": {}}, "axis": -1, "beta_regularizer": null}, "inbound_nodes": [[["separable_conv2d_31", 0, 0, {}]]], "name": "batch_normalization_150"}, {"class_name": "BatchNormalization", "config": {"scale": true, "momentum": 0.01, "gamma_constraint": null, "name": "batch_normalization_154", "epsilon": 1e-05, "moving_mean_initializer": {"class_name": "Zeros", "config": {}}, "moving_variance_initializer": {"class_name": "Ones", "config": {}}, "beta_constraint": null, "gamma_regularizer": null, "beta_initializer": {"class_name": "Zeros", "config": {}}, "center": true, "trainable": true, "gamma_initializer": {"class_name": "Ones", "config": {}}, "axis": -1, "beta_regularizer": null}, "inbound_nodes": [[["separable_conv2d_32", 0, 0, {}]]], "name": "batch_normalization_154"}, {"class_name": "Concatenate", "config": {"trainable": true, "name": "concatenate_33", "axis": -1}, "inbound_nodes": [[["batch_normalization_146", 0, 0, {}], ["batch_normalization_150", 0, 0, {}], ["batch_normalization_154", 0, 0, {}]]], "name": "concatenate_33"}, {"class_name": "Conv2D", "config": {"bias_constraint": null, "strides": [1, 1], "name": "conv2d_167", "activity_regularizer": null, "activation": "linear", "bias_initializer": {"class_name": "Zeros", "config": {}}, "kernel_size": [1, 1], "kernel_constraint": null, "use_bias": false, "data_format": "channels_last", "padding": "same", "kernel_initializer": {"class_name": "VarianceScaling", "config": {"distribution": "uniform", "scale": 1.0, "mode": "fan_avg", "seed": null}}, "trainable": true, "filters": 512, "bias_regularizer": null, "kernel_regularizer": null, "dilation_rate": [1, 1]}, "inbound_nodes": [[["concatenate_33", 0, 0, {}]]], "name": "conv2d_167"}, {"class_name": "Conv2D", "config": {"bias_constraint": null, "strides": [1, 1], "name": "conv2d_144", "activity_regularizer": null, "activation": "relu", "bias_initializer": {"class_name": "Zeros", "config": {}}, "kernel_size": [1, 1], "kernel_constraint": null, "use_bias": false, "data_format": "channels_last", "padding": "same", "kernel_initializer": {"class_name": "VarianceScaling", "config": {"distribution": "uniform", "scale": 1.0, "mode": "fan_avg", "seed": null}}, "trainable": true, "filters": 160, "bias_regularizer": null, "kernel_regularizer": null, "dilation_rate": [1, 1]}, "inbound_nodes": [[["out_relu", 0, 0, {}]]], "name": "conv2d_144"}, {"class_name": "BatchNormalization", "config": {"scale": true, "momentum": 0.99, "gamma_constraint": null, "name": "batch_normalization_155", "epsilon": 1e-05, "moving_mean_initializer": {"class_name": "Zeros", "config": {}}, "moving_variance_initializer": {"class_name": "Ones", "config": {}}, "beta_constraint": null, "gamma_regularizer": null, "beta_initializer": {"class_name": "Zeros", "config": {}}, "center": true, "trainable": true, "gamma_initializer": {"class_name": "Ones", "config": {}}, "axis": -1, "beta_regularizer": null}, "inbound_nodes": [[["conv2d_167", 0, 0, {}]]], "name": "batch_normalization_155"}, {"class_name": "BatchNormalization", "config": {"scale": true, "momentum": 0.99, "gamma_constraint": null, "name": "batch_normalization_129", "epsilon": 1e-05, "moving_mean_initializer": {"class_name": "Zeros", "config": {}}, "moving_variance_initializer": {"class_name": "Ones", "config": {}}, "beta_constraint": null, "gamma_regularizer": null, "beta_initializer": {"class_name": "Zeros", "config": {}}, "center": true, "trainable": true, "gamma_initializer": {"class_name": "Ones", "config": {}}, "axis": -1, "beta_regularizer": null}, "inbound_nodes": [[["conv2d_144", 0, 0, {}]]], "name": "batch_normalization_129"}, {"class_name": "Lambda", "config": {"output_shape_type": "raw", "function": ["4wEAAAAAAAAAAQAAAAIAAAATAAAAcwgAAAB8AACIAAAUUykBTqkAKQHaAXgpAdoFc2NhbGVyAQAA\nAPooL2hvbWUvY2FpL3Byb2plY3QvUkZCTmV0LUtlcmFzL21vZHVsZS5wedoIPGxhbWJkYT5WAAAA\n8wAAAAA=\n", null, [1.0]], "output_shape": null, "name": "lambda_18", "function_type": "lambda", "trainable": true, "arguments": {}}, "inbound_nodes": [[["batch_normalization_155", 0, 0, {}]]], "name": "lambda_18"}, {"class_name": "Conv2D", "config": {"bias_constraint": null, "strides": [1, 1], "name": "conv2d_140", "activity_regularizer": null, "activation": "relu", "bias_initializer": {"class_name": "Zeros", "config": {}}, "kernel_size": [1, 1], "kernel_constraint": null, "use_bias": false, "data_format": "channels_last", "padding": "same", "kernel_initializer": {"class_name": "VarianceScaling", "config": {"distribution": "uniform", "scale": 1.0, "mode": "fan_avg", "seed": null}}, "trainable": true, "filters": 320, "bias_regularizer": null, "kernel_regularizer": null, "dilation_rate": [1, 1]}, "inbound_nodes": [[["out_relu", 0, 0, {}]]], "name": "conv2d_140"}, {"class_name": "Conv2D", "config": {"bias_constraint": null, "strides": [1, 1], "name": "conv2d_142", "activity_regularizer": null, "activation": "relu", "bias_initializer": {"class_name": "Zeros", "config": {}}, "kernel_size": [1, 1], "kernel_constraint": null, "use_bias": false, "data_format": "channels_last", "padding": "same", "kernel_initializer": {"class_name": "VarianceScaling", "config": {"distribution": "uniform", "scale": 1.0, "mode": "fan_avg", "seed": null}}, "trainable": true, "filters": 320, "bias_regularizer": null, "kernel_regularizer": null, "dilation_rate": [1, 1]}, "inbound_nodes": [[["out_relu", 0, 0, {}]]], "name": "conv2d_142"}, {"class_name": "Conv2D", "config": {"bias_constraint": null, "strides": [1, 1], "name": "conv2d_145", "activity_regularizer": null, "activation": "relu", "bias_initializer": {"class_name": "Zeros", "config": {}}, "kernel_size": [1, 3], "kernel_constraint": null, "use_bias": false, "data_format": "channels_last", "padding": "same", "kernel_initializer": {"class_name": "VarianceScaling", "config": {"distribution": "uniform", "scale": 1.0, "mode": "fan_avg", "seed": null}}, "trainable": true, "filters": 240, "bias_regularizer": null, "kernel_regularizer": null, "dilation_rate": [1, 1]}, "inbound_nodes": [[["batch_normalization_129", 0, 0, {}]]], "name": "conv2d_145"}, {"class_name": "Add", "config": {"trainable": true, "name": "add_12"}, "inbound_nodes": [[["lambda_18", 0, 0, {}], ["activation_11", 0, 0, {}]]], "name": "add_12"}, {"class_name": "BatchNormalization", "config": {"scale": true, "momentum": 0.99, "gamma_constraint": null, "name": "batch_normalization_123", "epsilon": 1e-05, "moving_mean_initializer": {"class_name": "Zeros", "config": {}}, "moving_variance_initializer": {"class_name": "Ones", "config": {}}, "beta_constraint": null, "gamma_regularizer": null, "beta_initializer": {"class_name": "Zeros", "config": {}}, "center": true, "trainable": true, "gamma_initializer": {"class_name": "Ones", "config": {}}, "axis": -1, "beta_regularizer": null}, "inbound_nodes": [[["conv2d_140", 0, 0, {}]]], "name": "batch_normalization_123"}, {"class_name": "BatchNormalization", "config": {"scale": true, "momentum": 0.99, "gamma_constraint": null, "name": "batch_normalization_126", "epsilon": 1e-05, "moving_mean_initializer": {"class_name": "Zeros", "config": {}}, "moving_variance_initializer": {"class_name": "Ones", "config": {}}, "beta_constraint": null, "gamma_regularizer": null, "beta_initializer": {"class_name": "Zeros", "config": {}}, "center": true, "trainable": true, "gamma_initializer": {"class_name": "Ones", "config": {}}, "axis": -1, "beta_regularizer": null}, "inbound_nodes": [[["conv2d_142", 0, 0, {}]]], "name": "batch_normalization_126"}, {"class_name": "BatchNormalization", "config": {"scale": true, "momentum": 0.99, "gamma_constraint": null, "name": "batch_normalization_130", "epsilon": 1e-05, "moving_mean_initializer": {"class_name": "Zeros", "config": {}}, "moving_variance_initializer": {"class_name": "Ones", "config": {}}, "beta_constraint": null, "gamma_regularizer": null, "beta_initializer": {"class_name": "Zeros", "config": {}}, "center": true, "trainable": true, "gamma_initializer": {"class_name": "Ones", "config": {}}, "axis": -1, "beta_regularizer": null}, "inbound_nodes": [[["conv2d_145", 0, 0, {}]]], "name": "batch_normalization_130"}, {"class_name": "Activation", "config": {"activation": "relu", "name": "activation_12", "trainable": true}, "inbound_nodes": [[["add_12", 0, 0, {}]]], "name": "activation_12"}, {"class_name": "Conv2D", "config": {"bias_constraint": null, "strides": [1, 1], "name": "conv2d_139", "activity_regularizer": null, "activation": "relu", "bias_initializer": {"class_name": "Zeros", "config": {}}, "kernel_size": [1, 1], "kernel_constraint": null, "use_bias": false, "data_format": "channels_last", "padding": "same", "kernel_initializer": {"class_name": "VarianceScaling", "config": {"distribution": "uniform", "scale": 1.0, "mode": "fan_avg", "seed": null}}, "trainable": true, "filters": 320, "bias_regularizer": null, "kernel_regularizer": null, "dilation_rate": [1, 1]}, "inbound_nodes": [[["out_relu", 0, 0, {}]]], "name": "conv2d_139"}, {"class_name": "Conv2D", "config": {"bias_constraint": null, "strides": [1, 1], "name": "conv2d_141", "activity_regularizer": null, "activation": "relu", "bias_initializer": {"class_name": "Zeros", "config": {}}, "kernel_size": [3, 1], "kernel_constraint": null, "use_bias": false, "data_format": "channels_last", "padding": "same", "kernel_initializer": {"class_name": "VarianceScaling", "config": {"distribution": "uniform", "scale": 1.0, "mode": "fan_avg", "seed": null}}, "trainable": true, "filters": 320, "bias_regularizer": null, "kernel_regularizer": null, "dilation_rate": [1, 1]}, "inbound_nodes": [[["batch_normalization_123", 0, 0, {}]]], "name": "conv2d_141"}, {"class_name": "Conv2D", "config": {"bias_constraint": null, "strides": [1, 1], "name": "conv2d_143", "activity_regularizer": null, "activation": "relu", "bias_initializer": {"class_name": "Zeros", "config": {}}, "kernel_size": [1, 3], "kernel_constraint": null, "use_bias": false, "data_format": "channels_last", "padding": "same", "kernel_initializer": {"class_name": "VarianceScaling", "config": {"distribution": "uniform", "scale": 1.0, "mode": "fan_avg", "seed": null}}, "trainable": true, "filters": 320, "bias_regularizer": null, "kernel_regularizer": null, "dilation_rate": [1, 1]}, "inbound_nodes": [[["batch_normalization_126", 0, 0, {}]]], "name": "conv2d_143"}, {"class_name": "Conv2D", "config": {"bias_constraint": null, "strides": [1, 1], "name": "conv2d_146", "activity_regularizer": null, "activation": "relu", "bias_initializer": {"class_name": "Zeros", "config": {}}, "kernel_size": [3, 1], "kernel_constraint": null, "use_bias": false, "data_format": "channels_last", "padding": "same", "kernel_initializer": {"class_name": "VarianceScaling", "config": {"distribution": "uniform", "scale": 1.0, "mode": "fan_avg", "seed": null}}, "trainable": true, "filters": 320, "bias_regularizer": null, "kernel_regularizer": null, "dilation_rate": [1, 1]}, "inbound_nodes": [[["batch_normalization_130", 0, 0, {}]]], "name": "conv2d_146"}, {"class_name": "Conv2D", "config": {"bias_constraint": null, "strides": [1, 1], "name": "conv2d_168", "activity_regularizer": null, "activation": "relu", "bias_initializer": {"class_name": "Zeros", "config": {}}, "kernel_size": [1, 1], "kernel_constraint": null, "use_bias": false, "data_format": "channels_last", "padding": "same", "kernel_initializer": {"class_name": "VarianceScaling", "config": {"distribution": "uniform", "scale": 1.0, "mode": "fan_avg", "seed": null}}, "trainable": true, "filters": 128, "bias_regularizer": null, "kernel_regularizer": null, "dilation_rate": [1, 1]}, "inbound_nodes": [[["activation_12", 0, 0, {}]]], "name": "conv2d_168"}, {"class_name": "BatchNormalization", "config": {"scale": true, "momentum": 0.99, "gamma_constraint": null, "name": "batch_normalization_121", "epsilon": 1e-05, "moving_mean_initializer": {"class_name": "Zeros", "config": {}}, "moving_variance_initializer": {"class_name": "Ones", "config": {}}, "beta_constraint": null, "gamma_regularizer": null, "beta_initializer": {"class_name": "Zeros", "config": {}}, "center": true, "trainable": true, "gamma_initializer": {"class_name": "Ones", "config": {}}, "axis": -1, "beta_regularizer": null}, "inbound_nodes": [[["conv2d_139", 0, 0, {}]]], "name": "batch_normalization_121"}, {"class_name": "BatchNormalization", "config": {"scale": true, "momentum": 0.99, "gamma_constraint": null, "name": "batch_normalization_124", "epsilon": 1e-05, "moving_mean_initializer": {"class_name": "Zeros", "config": {}}, "moving_variance_initializer": {"class_name": "Ones", "config": {}}, "beta_constraint": null, "gamma_regularizer": null, "beta_initializer": {"class_name": "Zeros", "config": {}}, "center": true, "trainable": true, "gamma_initializer": {"class_name": "Ones", "config": {}}, "axis": -1, "beta_regularizer": null}, "inbound_nodes": [[["conv2d_141", 0, 0, {}]]], "name": "batch_normalization_124"}, {"class_name": "BatchNormalization", "config": {"scale": true, "momentum": 0.99, "gamma_constraint": null, "name": "batch_normalization_127", "epsilon": 1e-05, "moving_mean_initializer": {"class_name": "Zeros", "config": {}}, "moving_variance_initializer": {"class_name": "Ones", "config": {}}, "beta_constraint": null, "gamma_regularizer": null, "beta_initializer": {"class_name": "Zeros", "config": {}}, "center": true, "trainable": true, "gamma_initializer": {"class_name": "Ones", "config": {}}, "axis": -1, "beta_regularizer": null}, "inbound_nodes": [[["conv2d_143", 0, 0, {}]]], "name": "batch_normalization_127"}, {"class_name": "BatchNormalization", "config": {"scale": true, "momentum": 0.99, "gamma_constraint": null, "name": "batch_normalization_131", "epsilon": 1e-05, "moving_mean_initializer": {"class_name": "Zeros", "config": {}}, "moving_variance_initializer": {"class_name": "Ones", "config": {}}, "beta_constraint": null, "gamma_regularizer": null, "beta_initializer": {"class_name": "Zeros", "config": {}}, "center": true, "trainable": true, "gamma_initializer": {"class_name": "Ones", "config": {}}, "axis": -1, "beta_regularizer": null}, "inbound_nodes": [[["conv2d_146", 0, 0, {}]]], "name": "batch_normalization_131"}, {"class_name": "BatchNormalization", "config": {"scale": true, "momentum": 0.99, "gamma_constraint": null, "name": "batch_normalization_156", "epsilon": 1e-05, "moving_mean_initializer": {"class_name": "Zeros", "config": {}}, "moving_variance_initializer": {"class_name": "Ones", "config": {}}, "beta_constraint": null, "gamma_regularizer": null, "beta_initializer": {"class_name": "Zeros", "config": {}}, "center": true, "trainable": true, "gamma_initializer": {"class_name": "Ones", "config": {}}, "axis": -1, "beta_regularizer": null}, "inbound_nodes": [[["conv2d_168", 0, 0, {}]]], "name": "batch_normalization_156"}, {"class_name": "SeparableConv2D", "config": {"dilation_rate": [1, 1], "bias_constraint": null, "strides": [1, 1], "pointwise_constraint": null, "activity_regularizer": null, "activation": "linear", "bias_initializer": {"class_name": "Zeros", "config": {}}, "kernel_size": [3, 3], "name": "separable_conv2d_25", "depthwise_constraint": null, "use_bias": false, "data_format": "channels_last", "filters": 320, "pointwise_initializer": {"class_name": "VarianceScaling", "config": {"distribution": "uniform", "scale": 1.0, "mode": "fan_avg", "seed": null}}, "trainable": true, "depth_multiplier": 1, "depthwise_initializer": {"class_name": "VarianceScaling", "config": {"distribution": "uniform", "scale": 1.0, "mode": "fan_avg", "seed": null}}, "bias_regularizer": null, "pointwise_regularizer": null, "depthwise_regularizer": null, "padding": "same"}, "inbound_nodes": [[["batch_normalization_121", 0, 0, {}]]], "name": "separable_conv2d_25"}, {"class_name": "SeparableConv2D", "config": {"dilation_rate": [3, 3], "bias_constraint": null, "strides": [1, 1], "pointwise_constraint": null, "activity_regularizer": null, "activation": "linear", "bias_initializer": {"class_name": "Zeros", "config": {}}, "kernel_size": [3, 3], "name": "separable_conv2d_26", "depthwise_constraint": null, "use_bias": false, "data_format": "channels_last", "filters": 320, "pointwise_initializer": {"class_name": "VarianceScaling", "config": {"distribution": "uniform", "scale": 1.0, "mode": "fan_avg", "seed": null}}, "trainable": true, "depth_multiplier": 1, "depthwise_initializer": {"class_name": "VarianceScaling", "config": {"distribution": "uniform", "scale": 1.0, "mode": "fan_avg", "seed": null}}, "bias_regularizer": null, "pointwise_regularizer": null, "depthwise_regularizer": null, "padding": "same"}, "inbound_nodes": [[["batch_normalization_124", 0, 0, {}]]], "name": "separable_conv2d_26"}, {"class_name": "SeparableConv2D", "config": {"dilation_rate": [3, 3], "bias_constraint": null, "strides": [1, 1], "pointwise_constraint": null, "activity_regularizer": null, "activation": "linear", "bias_initializer": {"class_name": "Zeros", "config": {}}, "kernel_size": [3, 3], "name": "separable_conv2d_27", "depthwise_constraint": null, "use_bias": false, "data_format": "channels_last", "filters": 320, "pointwise_initializer": {"class_name": "VarianceScaling", "config": {"distribution": "uniform", "scale": 1.0, "mode": "fan_avg", "seed": null}}, "trainable": true, "depth_multiplier": 1, "depthwise_initializer": {"class_name": "VarianceScaling", "config": {"distribution": "uniform", "scale": 1.0, "mode": "fan_avg", "seed": null}}, "bias_regularizer": null, "pointwise_regularizer": null, "depthwise_regularizer": null, "padding": "same"}, "inbound_nodes": [[["batch_normalization_127", 0, 0, {}]]], "name": "separable_conv2d_27"}, {"class_name": "SeparableConv2D", "config": {"dilation_rate": [5, 5], "bias_constraint": null, "strides": [1, 1], "pointwise_constraint": null, "activity_regularizer": null, "activation": "linear", "bias_initializer": {"class_name": "Zeros", "config": {}}, "kernel_size": [3, 3], "name": "separable_conv2d_28", "depthwise_constraint": null, "use_bias": false, "data_format": "channels_last", "filters": 320, "pointwise_initializer": {"class_name": "VarianceScaling", "config": {"distribution": "uniform", "scale": 1.0, "mode": "fan_avg", "seed": null}}, "trainable": true, "depth_multiplier": 1, "depthwise_initializer": {"class_name": "VarianceScaling", "config": {"distribution": "uniform", "scale": 1.0, "mode": "fan_avg", "seed": null}}, "bias_regularizer": null, "pointwise_regularizer": null, "depthwise_regularizer": null, "padding": "same"}, "inbound_nodes": [[["batch_normalization_131", 0, 0, {}]]], "name": "separable_conv2d_28"}, {"class_name": "Conv2D", "config": {"bias_constraint": null, "strides": [2, 2], "name": "conv2d_169", "activity_regularizer": null, "activation": "relu", "bias_initializer": {"class_name": "Zeros", "config": {}}, "kernel_size": [3, 3], "kernel_constraint": null, "use_bias": false, "data_format": "channels_last", "padding": "same", "kernel_initializer": {"class_name": "VarianceScaling", "config": {"distribution": "uniform", "scale": 1.0, "mode": "fan_avg", "seed": null}}, "trainable": true, "filters": 256, "bias_regularizer": null, "kernel_regularizer": null, "dilation_rate": [1, 1]}, "inbound_nodes": [[["batch_normalization_156", 0, 0, {}]]], "name": "conv2d_169"}, {"class_name": "BatchNormalization", "config": {"scale": true, "momentum": 0.01, "gamma_constraint": null, "name": "batch_normalization_122", "epsilon": 1e-05, "moving_mean_initializer": {"class_name": "Zeros", "config": {}}, "moving_variance_initializer": {"class_name": "Ones", "config": {}}, "beta_constraint": null, "gamma_regularizer": null, "beta_initializer": {"class_name": "Zeros", "config": {}}, "center": true, "trainable": true, "gamma_initializer": {"class_name": "Ones", "config": {}}, "axis": -1, "beta_regularizer": null}, "inbound_nodes": [[["separable_conv2d_25", 0, 0, {}]]], "name": "batch_normalization_122"}, {"class_name": "BatchNormalization", "config": {"scale": true, "momentum": 0.01, "gamma_constraint": null, "name": "batch_normalization_125", "epsilon": 1e-05, "moving_mean_initializer": {"class_name": "Zeros", "config": {}}, "moving_variance_initializer": {"class_name": "Ones", "config": {}}, "beta_constraint": null, "gamma_regularizer": null, "beta_initializer": {"class_name": "Zeros", "config": {}}, "center": true, "trainable": true, "gamma_initializer": {"class_name": "Ones", "config": {}}, "axis": -1, "beta_regularizer": null}, "inbound_nodes": [[["separable_conv2d_26", 0, 0, {}]]], "name": "batch_normalization_125"}, {"class_name": "BatchNormalization", "config": {"scale": true, "momentum": 0.01, "gamma_constraint": null, "name": "batch_normalization_128", "epsilon": 1e-05, "moving_mean_initializer": {"class_name": "Zeros", "config": {}}, "moving_variance_initializer": {"class_name": "Ones", "config": {}}, "beta_constraint": null, "gamma_regularizer": null, "beta_initializer": {"class_name": "Zeros", "config": {}}, "center": true, "trainable": true, "gamma_initializer": {"class_name": "Ones", "config": {}}, "axis": -1, "beta_regularizer": null}, "inbound_nodes": [[["separable_conv2d_27", 0, 0, {}]]], "name": "batch_normalization_128"}, {"class_name": "BatchNormalization", "config": {"scale": true, "momentum": 0.01, "gamma_constraint": null, "name": "batch_normalization_132", "epsilon": 1e-05, "moving_mean_initializer": {"class_name": "Zeros", "config": {}}, "moving_variance_initializer": {"class_name": "Ones", "config": {}}, "beta_constraint": null, "gamma_regularizer": null, "beta_initializer": {"class_name": "Zeros", "config": {}}, "center": true, "trainable": true, "gamma_initializer": {"class_name": "Ones", "config": {}}, "axis": -1, "beta_regularizer": null}, "inbound_nodes": [[["separable_conv2d_28", 0, 0, {}]]], "name": "batch_normalization_132"}, {"class_name": "BatchNormalization", "config": {"scale": true, "momentum": 0.99, "gamma_constraint": null, "name": "batch_normalization_157", "epsilon": 1e-05, "moving_mean_initializer": {"class_name": "Zeros", "config": {}}, "moving_variance_initializer": {"class_name": "Ones", "config": {}}, "beta_constraint": null, "gamma_regularizer": null, "beta_initializer": {"class_name": "Zeros", "config": {}}, "center": true, "trainable": true, "gamma_initializer": {"class_name": "Ones", "config": {}}, "axis": -1, "beta_regularizer": null}, "inbound_nodes": [[["conv2d_169", 0, 0, {}]]], "name": "batch_normalization_157"}, {"class_name": "Concatenate", "config": {"trainable": true, "name": "concatenate_31", "axis": -1}, "inbound_nodes": [[["batch_normalization_122", 0, 0, {}], ["batch_normalization_125", 0, 0, {}], ["batch_normalization_128", 0, 0, {}], ["batch_normalization_132", 0, 0, {}]]], "name": "concatenate_31"}, {"class_name": "Conv2D", "config": {"bias_constraint": null, "strides": [1, 1], "name": "conv2d_170", "activity_regularizer": null, "activation": "relu", "bias_initializer": {"class_name": "Zeros", "config": {}}, "kernel_size": [1, 1], "kernel_constraint": null, "use_bias": false, "data_format": "channels_last", "padding": "same", "kernel_initializer": {"class_name": "VarianceScaling", "config": {"distribution": "uniform", "scale": 1.0, "mode": "fan_avg", "seed": null}}, "trainable": true, "filters": 128, "bias_regularizer": null, "kernel_regularizer": null, "dilation_rate": [1, 1]}, "inbound_nodes": [[["batch_normalization_157", 0, 0, {}]]], "name": "conv2d_170"}, {"class_name": "Conv2D", "config": {"bias_constraint": null, "strides": [1, 1], "name": "conv2d_147", "activity_regularizer": null, "activation": "linear", "bias_initializer": {"class_name": "Zeros", "config": {}}, "kernel_size": [1, 1], "kernel_constraint": null, "use_bias": false, "data_format": "channels_last", "padding": "same", "kernel_initializer": {"class_name": "VarianceScaling", "config": {"distribution": "uniform", "scale": 1.0, "mode": "fan_avg", "seed": null}}, "trainable": true, "filters": 512, "bias_regularizer": null, "kernel_regularizer": null, "dilation_rate": [1, 1]}, "inbound_nodes": [[["concatenate_31", 0, 0, {}]]], "name": "conv2d_147"}, {"class_name": "BatchNormalization", "config": {"scale": true, "momentum": 0.99, "gamma_constraint": null, "name": "batch_normalization_158", "epsilon": 1e-05, "moving_mean_initializer": {"class_name": "Zeros", "config": {}}, "moving_variance_initializer": {"class_name": "Ones", "config": {}}, "beta_constraint": null, "gamma_regularizer": null, "beta_initializer": {"class_name": "Zeros", "config": {}}, "center": true, "trainable": true, "gamma_initializer": {"class_name": "Ones", "config": {}}, "axis": -1, "beta_regularizer": null}, "inbound_nodes": [[["conv2d_170", 0, 0, {}]]], "name": "batch_normalization_158"}, {"class_name": "BatchNormalization", "config": {"scale": true, "momentum": 0.99, "gamma_constraint": null, "name": "batch_normalization_133", "epsilon": 1e-05, "moving_mean_initializer": {"class_name": "Zeros", "config": {}}, "moving_variance_initializer": {"class_name": "Ones", "config": {}}, "beta_constraint": null, "gamma_regularizer": null, "beta_initializer": {"class_name": "Zeros", "config": {}}, "center": true, "trainable": true, "gamma_initializer": {"class_name": "Ones", "config": {}}, "axis": -1, "beta_regularizer": null}, "inbound_nodes": [[["conv2d_147", 0, 0, {}]]], "name": "batch_normalization_133"}, {"class_name": "Conv2D", "config": {"bias_constraint": null, "strides": [2, 2], "name": "conv2d_171", "activity_regularizer": null, "activation": "relu", "bias_initializer": {"class_name": "Zeros", "config": {}}, "kernel_size": [3, 3], "kernel_constraint": null, "use_bias": false, "data_format": "channels_last", "padding": "same", "kernel_initializer": {"class_name": "VarianceScaling", "config": {"distribution": "uniform", "scale": 1.0, "mode": "fan_avg", "seed": null}}, "trainable": true, "filters": 256, "bias_regularizer": null, "kernel_regularizer": null, "dilation_rate": [1, 1]}, "inbound_nodes": [[["batch_normalization_158", 0, 0, {}]]], "name": "conv2d_171"}, {"class_name": "Lambda", "config": {"output_shape_type": "raw", "function": ["4wEAAAAAAAAAAQAAAAIAAAATAAAAcwgAAAB8AACIAAAUUykBTqkAKQHaAXgpAdoFc2NhbGVyAQAA\nAPooL2hvbWUvY2FpL3Byb2plY3QvUkZCTmV0LUtlcmFzL21vZHVsZS5wedoIPGxhbWJkYT53AAAA\n8wAAAAA=\n", null, [1.0]], "output_shape": null, "name": "lambda_16", "function_type": "lambda", "trainable": true, "arguments": {}}, "inbound_nodes": [[["batch_normalization_133", 0, 0, {}]]], "name": "lambda_16"}, {"class_name": "Conv2D", "config": {"bias_constraint": null, "strides": [1, 1], "name": "conv2d_148", "activity_regularizer": null, "activation": "linear", "bias_initializer": {"class_name": "Zeros", "config": {}}, "kernel_size": [1, 1], "kernel_constraint": null, "use_bias": false, "data_format": "channels_last", "padding": "same", "kernel_initializer": {"class_name": "VarianceScaling", "config": {"distribution": "uniform", "scale": 1.0, "mode": "fan_avg", "seed": null}}, "trainable": true, "filters": 512, "bias_regularizer": null, "kernel_regularizer": null, "dilation_rate": [1, 1]}, "inbound_nodes": [[["out_relu", 0, 0, {}]]], "name": "conv2d_148"}, {"class_name": "BatchNormalization", "config": {"scale": true, "momentum": 0.99, "gamma_constraint": null, "name": "batch_normalization_159", "epsilon": 1e-05, "moving_mean_initializer": {"class_name": "Zeros", "config": {}}, "moving_variance_initializer": {"class_name": "Ones", "config": {}}, "beta_constraint": null, "gamma_regularizer": null, "beta_initializer": {"class_name": "Zeros", "config": {}}, "center": true, "trainable": true, "gamma_initializer": {"class_name": "Ones", "config": {}}, "axis": -1, "beta_regularizer": null}, "inbound_nodes": [[["conv2d_171", 0, 0, {}]]], "name": "batch_normalization_159"}, {"class_name": "Add", "config": {"trainable": true, "name": "add_10"}, "inbound_nodes": [[["lambda_16", 0, 0, {}], ["conv2d_148", 0, 0, {}]]], "name": "add_10"}, {"class_name": "Conv2D", "config": {"bias_constraint": null, "strides": [1, 1], "name": "conv2d_172", "activity_regularizer": null, "activation": "relu", "bias_initializer": {"class_name": "Zeros", "config": {}}, "kernel_size": [1, 1], "kernel_constraint": null, "use_bias": false, "data_format": "channels_last", "padding": "same", "kernel_initializer": {"class_name": "VarianceScaling", "config": {"distribution": "uniform", "scale": 1.0, "mode": "fan_avg", "seed": null}}, "trainable": true, "filters": 64, "bias_regularizer": null, "kernel_regularizer": null, "dilation_rate": [1, 1]}, "inbound_nodes": [[["batch_normalization_159", 0, 0, {}]]], "name": "conv2d_172"}, {"class_name": "Activation", "config": {"activation": "relu", "name": "activation_10", "trainable": true}, "inbound_nodes": [[["add_10", 0, 0, {}]]], "name": "activation_10"}, {"class_name": "BatchNormalization", "config": {"scale": true, "momentum": 0.99, "gamma_constraint": null, "name": "batch_normalization_160", "epsilon": 1e-05, "moving_mean_initializer": {"class_name": "Zeros", "config": {}}, "moving_variance_initializer": {"class_name": "Ones", "config": {}}, "beta_constraint": null, "gamma_regularizer": null, "beta_initializer": {"class_name": "Zeros", "config": {}}, "center": true, "trainable": true, "gamma_initializer": {"class_name": "Ones", "config": {}}, "axis": -1, "beta_regularizer": null}, "inbound_nodes": [[["conv2d_172", 0, 0, {}]]], "name": "batch_normalization_160"}, {"class_name": "Conv2D", "config": {"bias_constraint": null, "strides": [1, 1], "name": "conv2d_174", "activity_regularizer": null, "activation": "linear", "bias_initializer": {"class_name": "Zeros", "config": {}}, "kernel_size": [1, 1], "kernel_constraint": null, "use_bias": true, "data_format": "channels_last", "padding": "valid", "kernel_initializer": {"class_name": "VarianceScaling", "config": {"distribution": "uniform", "scale": 1.0, "mode": "fan_avg", "seed": null}}, "trainable": true, "filters": 126, "bias_regularizer": null, "kernel_regularizer": null, "dilation_rate": [1, 1]}, "inbound_nodes": [[["activation_10", 0, 0, {}]]], "name": "conv2d_174"}, {"class_name": "Conv2D", "config": {"bias_constraint": null, "strides": [1, 1], "name": "conv2d_176", "activity_regularizer": null, "activation": "linear", "bias_initializer": {"class_name": "Zeros", "config": {}}, "kernel_size": [1, 1], "kernel_constraint": null, "use_bias": true, "data_format": "channels_last", "padding": "valid", "kernel_initializer": {"class_name": "VarianceScaling", "config": {"distribution": "uniform", "scale": 1.0, "mode": "fan_avg", "seed": null}}, "trainable": true, "filters": 126, "bias_regularizer": null, "kernel_regularizer": null, "dilation_rate": [1, 1]}, "inbound_nodes": [[["out_relu", 0, 0, {}]]], "name": "conv2d_176"}, {"class_name": "Conv2D", "config": {"bias_constraint": null, "strides": [1, 1], "name": "conv2d_178", "activity_regularizer": null, "activation": "linear", "bias_initializer": {"class_name": "Zeros", "config": {}}, "kernel_size": [1, 1], "kernel_constraint": null, "use_bias": true, "data_format": "channels_last", "padding": "valid", "kernel_initializer": {"class_name": "VarianceScaling", "config": {"distribution": "uniform", "scale": 1.0, "mode": "fan_avg", "seed": null}}, "trainable": true, "filters": 126, "bias_regularizer": null, "kernel_regularizer": null, "dilation_rate": [1, 1]}, "inbound_nodes": [[["activation_11", 0, 0, {}]]], "name": "conv2d_178"}, {"class_name": "Conv2D", "config": {"bias_constraint": null, "strides": [1, 1], "name": "conv2d_180", "activity_regularizer": null, "activation": "linear", "bias_initializer": {"class_name": "Zeros", "config": {}}, "kernel_size": [1, 1], "kernel_constraint": null, "use_bias": true, "data_format": "channels_last", "padding": "valid", "kernel_initializer": {"class_name": "VarianceScaling", "config": {"distribution": "uniform", "scale": 1.0, "mode": "fan_avg", "seed": null}}, "trainable": true, "filters": 126, "bias_regularizer": null, "kernel_regularizer": null, "dilation_rate": [1, 1]}, "inbound_nodes": [[["batch_normalization_156", 0, 0, {}]]], "name": "conv2d_180"}, {"class_name": "Conv2D", "config": {"bias_constraint": null, "strides": [1, 1], "name": "conv2d_182", "activity_regularizer": null, "activation": "linear", "bias_initializer": {"class_name": "Zeros", "config": {}}, "kernel_size": [1, 1], "kernel_constraint": null, "use_bias": true, "data_format": "channels_last", "padding": "valid", "kernel_initializer": {"class_name": "VarianceScaling", "config": {"distribution": "uniform", "scale": 1.0, "mode": "fan_avg", "seed": null}}, "trainable": true, "filters": 84, "bias_regularizer": null, "kernel_regularizer": null, "dilation_rate": [1, 1]}, "inbound_nodes": [[["batch_normalization_158", 0, 0, {}]]], "name": "conv2d_182"}, {"class_name": "Conv2D", "config": {"bias_constraint": null, "strides": [1, 1], "name": "conv2d_184", "activity_regularizer": null, "activation": "linear", "bias_initializer": {"class_name": "Zeros", "config": {}}, "kernel_size": [1, 1], "kernel_constraint": null, "use_bias": true, "data_format": "channels_last", "padding": "valid", "kernel_initializer": {"class_name": "VarianceScaling", "config": {"distribution": "uniform", "scale": 1.0, "mode": "fan_avg", "seed": null}}, "trainable": true, "filters": 84, "bias_regularizer": null, "kernel_regularizer": null, "dilation_rate": [1, 1]}, "inbound_nodes": [[["batch_normalization_160", 0, 0, {}]]], "name": "conv2d_184"}, {"class_name": "Reshape", "config": {"trainable": true, "target_shape": [294, 21], "name": "reshape_38"}, "inbound_nodes": [[["conv2d_174", 0, 0, {}]]], "name": "reshape_38"}, {"class_name": "Conv2D", "config": {"bias_constraint": null, "strides": [1, 1], "name": "conv2d_173", "activity_regularizer": null, "activation": "linear", "bias_initializer": {"class_name": "Zeros", "config": {}}, "kernel_size": [1, 1], "kernel_constraint": null, "use_bias": true, "data_format": "channels_last", "padding": "valid", "kernel_initializer": {"class_name": "VarianceScaling", "config": {"distribution": "uniform", "scale": 1.0, "mode": "fan_avg", "seed": null}}, "trainable": true, "filters": 24, "bias_regularizer": null, "kernel_regularizer": null, "dilation_rate": [1, 1]}, "inbound_nodes": [[["activation_10", 0, 0, {}]]], "name": "conv2d_173"}, {"class_name": "Reshape", "config": {"trainable": true, "target_shape": [294, 21], "name": "reshape_40"}, "inbound_nodes": [[["conv2d_176", 0, 0, {}]]], "name": "reshape_40"}, {"class_name": "Conv2D", "config": {"bias_constraint": null, "strides": [1, 1], "name": "conv2d_175", "activity_regularizer": null, "activation": "linear", "bias_initializer": {"class_name": "Zeros", "config": {}}, "kernel_size": [1, 1], "kernel_constraint": null, "use_bias": true, "data_format": "channels_last", "padding": "valid", "kernel_initializer": {"class_name": "VarianceScaling", "config": {"distribution": "uniform", "scale": 1.0, "mode": "fan_avg", "seed": null}}, "trainable": true, "filters": 24, "bias_regularizer": null, "kernel_regularizer": null, "dilation_rate": [1, 1]}, "inbound_nodes": [[["out_relu", 0, 0, {}]]], "name": "conv2d_175"}, {"class_name": "Reshape", "config": {"trainable": true, "target_shape": [96, 21], "name": "reshape_42"}, "inbound_nodes": [[["conv2d_178", 0, 0, {}]]], "name": "reshape_42"}, {"class_name": "Conv2D", "config": {"bias_constraint": null, "strides": [1, 1], "name": "conv2d_177", "activity_regularizer": null, "activation": "linear", "bias_initializer": {"class_name": "Zeros", "config": {}}, "kernel_size": [1, 1], "kernel_constraint": null, "use_bias": true, "data_format": "channels_last", "padding": "valid", "kernel_initializer": {"class_name": "VarianceScaling", "config": {"distribution": "uniform", "scale": 1.0, "mode": "fan_avg", "seed": null}}, "trainable": true, "filters": 24, "bias_regularizer": null, "kernel_regularizer": null, "dilation_rate": [1, 1]}, "inbound_nodes": [[["activation_11", 0, 0, {}]]], "name": "conv2d_177"}, {"class_name": "Reshape", "config": {"trainable": true, "target_shape": [96, 21], "name": "reshape_44"}, "inbound_nodes": [[["conv2d_180", 0, 0, {}]]], "name": "reshape_44"}, {"class_name": "Conv2D", "config": {"bias_constraint": null, "strides": [1, 1], "name": "conv2d_179", "activity_regularizer": null, "activation": "linear", "bias_initializer": {"class_name": "Zeros", "config": {}}, "kernel_size": [1, 1], "kernel_constraint": null, "use_bias": true, "data_format": "channels_last", "padding": "valid", "kernel_initializer": {"class_name": "VarianceScaling", "config": {"distribution": "uniform", "scale": 1.0, "mode": "fan_avg", "seed": null}}, "trainable": true, "filters": 24, "bias_regularizer": null, "kernel_regularizer": null, "dilation_rate": [1, 1]}, "inbound_nodes": [[["batch_normalization_156", 0, 0, {}]]], "name": "conv2d_179"}, {"class_name": "Reshape", "config": {"trainable": true, "target_shape": [16, 21], "name": "reshape_46"}, "inbound_nodes": [[["conv2d_182", 0, 0, {}]]], "name": "reshape_46"}, {"class_name": "Conv2D", "config": {"bias_constraint": null, "strides": [1, 1], "name": "conv2d_181", "activity_regularizer": null, "activation": "linear", "bias_initializer": {"class_name": "Zeros", "config": {}}, "kernel_size": [1, 1], "kernel_constraint": null, "use_bias": true, "data_format": "channels_last", "padding": "valid", "kernel_initializer": {"class_name": "VarianceScaling", "config": {"distribution": "uniform", "scale": 1.0, "mode": "fan_avg", "seed": null}}, "trainable": true, "filters": 16, "bias_regularizer": null, "kernel_regularizer": null, "dilation_rate": [1, 1]}, "inbound_nodes": [[["batch_normalization_158", 0, 0, {}]]], "name": "conv2d_181"}, {"class_name": "Reshape", "config": {"trainable": true, "target_shape": [4, 21], "name": "reshape_48"}, "inbound_nodes": [[["conv2d_184", 0, 0, {}]]], "name": "reshape_48"}, {"class_name": "Conv2D", "config": {"bias_constraint": null, "strides": [1, 1], "name": "conv2d_183", "activity_regularizer": null, "activation": "linear", "bias_initializer": {"class_name": "Zeros", "config": {}}, "kernel_size": [1, 1], "kernel_constraint": null, "use_bias": true, "data_format": "channels_last", "padding": "valid", "kernel_initializer": {"class_name": "VarianceScaling", "config": {"distribution": "uniform", "scale": 1.0, "mode": "fan_avg", "seed": null}}, "trainable": true, "filters": 16, "bias_regularizer": null, "kernel_regularizer": null, "dilation_rate": [1, 1]}, "inbound_nodes": [[["batch_normalization_160", 0, 0, {}]]], "name": "conv2d_183"}, {"class_name": "Softmax", "config": {"trainable": true, "name": "softmax_19", "axis": -1}, "inbound_nodes": [[["reshape_38", 0, 0, {}]]], "name": "softmax_19"}, {"class_name": "Reshape", "config": {"trainable": true, "target_shape": [294, 4], "name": "reshape_37"}, "inbound_nodes": [[["conv2d_173", 0, 0, {}]]], "name": "reshape_37"}, {"class_name": "Softmax", "config": {"trainable": true, "name": "softmax_20", "axis": -1}, "inbound_nodes": [[["reshape_40", 0, 0, {}]]], "name": "softmax_20"}, {"class_name": "Reshape", "config": {"trainable": true, "target_shape": [294, 4], "name": "reshape_39"}, "inbound_nodes": [[["conv2d_175", 0, 0, {}]]], "name": "reshape_39"}, {"class_name": "Softmax", "config": {"trainable": true, "name": "softmax_21", "axis": -1}, "inbound_nodes": [[["reshape_42", 0, 0, {}]]], "name": "softmax_21"}, {"class_name": "Reshape", "config": {"trainable": true, "target_shape": [96, 4], "name": "reshape_41"}, "inbound_nodes": [[["conv2d_177", 0, 0, {}]]], "name": "reshape_41"}, {"class_name": "Softmax", "config": {"trainable": true, "name": "softmax_22", "axis": -1}, "inbound_nodes": [[["reshape_44", 0, 0, {}]]], "name": "softmax_22"}, {"class_name": "Reshape", "config": {"trainable": true, "target_shape": [96, 4], "name": "reshape_43"}, "inbound_nodes": [[["conv2d_179", 0, 0, {}]]], "name": "reshape_43"}, {"class_name": "Softmax", "config": {"trainable": true, "name": "softmax_23", "axis": -1}, "inbound_nodes": [[["reshape_46", 0, 0, {}]]], "name": "softmax_23"}, {"class_name": "Reshape", "config": {"trainable": true, "target_shape": [16, 4], "name": "reshape_45"}, "inbound_nodes": [[["conv2d_181", 0, 0, {}]]], "name": "reshape_45"}, {"class_name": "Softmax", "config": {"trainable": true, "name": "softmax_24", "axis": -1}, "inbound_nodes": [[["reshape_48", 0, 0, {}]]], "name": "softmax_24"}, {"class_name": "Reshape", "config": {"trainable": true, "target_shape": [4, 4], "name": "reshape_47"}, "inbound_nodes": [[["conv2d_183", 0, 0, {}]]], "name": "reshape_47"}, {"class_name": "Concatenate", "config": {"trainable": true, "name": "concatenate_34", "axis": -1}, "inbound_nodes": [[["softmax_19", 0, 0, {}], ["reshape_37", 0, 0, {}]]], "name": "concatenate_34"}, {"class_name": "Concatenate", "config": {"trainable": true, "name": "concatenate_35", "axis": -1}, "inbound_nodes": [[["softmax_20", 0, 0, {}], ["reshape_39", 0, 0, {}]]], "name": "concatenate_35"}, {"class_name": "Concatenate", "config": {"trainable": true, "name": "concatenate_36", "axis": -1}, "inbound_nodes": [[["softmax_21", 0, 0, {}], ["reshape_41", 0, 0, {}]]], "name": "concatenate_36"}, {"class_name": "Concatenate", "config": {"trainable": true, "name": "concatenate_37", "axis": -1}, "inbound_nodes": [[["softmax_22", 0, 0, {}], ["reshape_43", 0, 0, {}]]], "name": "concatenate_37"}, {"class_name": "Concatenate", "config": {"trainable": true, "name": "concatenate_38", "axis": -1}, "inbound_nodes": [[["softmax_23", 0, 0, {}], ["reshape_45", 0, 0, {}]]], "name": "concatenate_38"}, {"class_name": "Concatenate", "config": {"trainable": true, "name": "concatenate_39", "axis": -1}, "inbound_nodes": [[["softmax_24", 0, 0, {}], ["reshape_47", 0, 0, {}]]], "name": "concatenate_39"}, {"class_name": "Concatenate", "config": {"trainable": true, "name": "concatenate_40", "axis": 1}, "inbound_nodes": [[["concatenate_34", 0, 0, {}], ["concatenate_35", 0, 0, {}], ["concatenate_36", 0, 0, {}], ["concatenate_37", 0, 0, {}], ["concatenate_38", 0, 0, {}], ["concatenate_39", 0, 0, {}]]], "name": "concatenate_40"}], "name": "model_7"}, "keras_version": "2.2.4"}