{"keras_version": "2.2.4", "class_name": "Model", "config": {"output_layers": [["concatenate_3", 0, 0]], "name": "model_6", "input_layers": [["input_6", 0, 0]], "layers": [{"name": "input_6", "class_name": "InputLayer", "config": {"name": "input_6", "sparse": false, "dtype": "float32", "batch_input_shape": [null, 224, 224, 3]}, "inbound_nodes": []}, {"name": "Conv1_pad", "class_name": "ZeroPadding2D", "config": {"padding": [[0, 1], [0, 1]], "name": "Conv1_pad", "trainable": false, "data_format": "channels_last"}, "inbound_nodes": [[["input_6", 0, 0, {}]]]}, {"name": "Conv1", "class_name": "Conv2D", "config": {"name": "Conv1", "kernel_regularizer": null, "use_bias": false, "kernel_size": [3, 3], "activation": "linear", "dilation_rate": [1, 1], "activity_regularizer": null, "data_format": "channels_last", "filters": 32, "kernel_constraint": null, "strides": [2, 2], "bias_initializer": {"class_name": "Zeros", "config": {}}, "padding": "valid", "bias_regularizer": null, "trainable": false, "bias_constraint": null, "kernel_initializer": {"class_name": "VarianceScaling", "config": {"seed": null, "mode": "fan_avg", "scale": 1.0, "distribution": "uniform"}}}, "inbound_nodes": [[["Conv1_pad", 0, 0, {}]]]}, {"name": "bn_Conv1", "class_name": "BatchNormalization", "config": {"gamma_regularizer": null, "moving_mean_initializer": {"class_name": "Zeros", "config": {}}, "axis": -1, "name": "bn_Conv1", "moving_variance_initializer": {"class_name": "Ones", "config": {}}, "beta_constraint": null, "beta_initializer": {"class_name": "Zeros", "config": {}}, "trainable": false, "epsilon": 0.001, "gamma_initializer": {"class_name": "Ones", "config": {}}, "center": true, "momentum": 0.999, "gamma_constraint": null, "beta_regularizer": null, "scale": true}, "inbound_nodes": [[["Conv1", 0, 0, {}]]]}, {"name": "Conv1_relu", "class_name": "ReLU", "config": {"negative_slope": 0.0, "max_value": 6.0, "name": "Conv1_relu", "threshold": 0.0, "trainable": false}, "inbound_nodes": [[["bn_Conv1", 0, 0, {}]]]}, {"name": "expanded_conv_depthwise", "class_name": "DepthwiseConv2D", "config": {"name": "expanded_conv_depthwise", "use_bias": false, "kernel_size": [3, 3], "depthwise_regularizer": null, "bias_regularizer": null, "activation": "linear", "activity_regularizer": null, "data_format": "channels_last", "depth_multiplier": 1, "bias_constraint": null, "strides": [1, 1], "bias_initializer": {"class_name": "Zeros", "config": {}}, "padding": "same", "depthwise_initializer": {"class_name": "VarianceScaling", "config": {"seed": null, "mode": "fan_avg", "scale": 1.0, "distribution": "uniform"}}, "trainable": false, "depthwise_constraint": null, "dilation_rate": [1, 1]}, "inbound_nodes": [[["Conv1_relu", 0, 0, {}]]]}, {"name": "expanded_conv_depthwise_BN", "class_name": "BatchNormalization", "config": {"gamma_regularizer": null, "moving_mean_initializer": {"class_name": "Zeros", "config": {}}, "axis": -1, "name": "expanded_conv_depthwise_BN", "moving_variance_initializer": {"class_name": "Ones", "config": {}}, "beta_constraint": null, "beta_initializer": {"class_name": "Zeros", "config": {}}, "trainable": false, "epsilon": 0.001, "gamma_initializer": {"class_name": "Ones", "config": {}}, "center": true, "momentum": 0.999, "gamma_constraint": null, "beta_regularizer": null, "scale": true}, "inbound_nodes": [[["expanded_conv_depthwise", 0, 0, {}]]]}, {"name": "expanded_conv_depthwise_relu", "class_name": "ReLU", "config": {"negative_slope": 0.0, "max_value": 6.0, "name": "expanded_conv_depthwise_relu", "threshold": 0.0, "trainable": false}, "inbound_nodes": [[["expanded_conv_depthwise_BN", 0, 0, {}]]]}, {"name": "expanded_conv_project", "class_name": "Conv2D", "config": {"name": "expanded_conv_project", "kernel_regularizer": null, "use_bias": false, "kernel_size": [1, 1], "activation": "linear", "dilation_rate": [1, 1], "activity_regularizer": null, "data_format": "channels_last", "filters": 16, "kernel_constraint": null, "strides": [1, 1], "bias_initializer": {"class_name": "Zeros", "config": {}}, "padding": "same", "bias_regularizer": null, "trainable": false, "bias_constraint": null, "kernel_initializer": {"class_name": "VarianceScaling", "config": {"seed": null, "mode": "fan_avg", "scale": 1.0, "distribution": "uniform"}}}, "inbound_nodes": [[["expanded_conv_depthwise_relu", 0, 0, {}]]]}, {"name": "expanded_conv_project_BN", "class_name": "BatchNormalization", "config": {"gamma_regularizer": null, "moving_mean_initializer": {"class_name": "Zeros", "config": {}}, "axis": -1, "name": "expanded_conv_project_BN", "moving_variance_initializer": {"class_name": "Ones", "config": {}}, "beta_constraint": null, "beta_initializer": {"class_name": "Zeros", "config": {}}, "trainable": false, "epsilon": 0.001, "gamma_initializer": {"class_name": "Ones", "config": {}}, "center": true, "momentum": 0.999, "gamma_constraint": null, "beta_regularizer": null, "scale": true}, "inbound_nodes": [[["expanded_conv_project", 0, 0, {}]]]}, {"name": "block_1_expand", "class_name": "Conv2D", "config": {"name": "block_1_expand", "kernel_regularizer": null, "use_bias": false, "kernel_size": [1, 1], "activation": "linear", "dilation_rate": [1, 1], "activity_regularizer": null, "data_format": "channels_last", "filters": 96, "kernel_constraint": null, "strides": [1, 1], "bias_initializer": {"class_name": "Zeros", "config": {}}, "padding": "same", "bias_regularizer": null, "trainable": false, "bias_constraint": null, "kernel_initializer": {"class_name": "VarianceScaling", "config": {"seed": null, "mode": "fan_avg", "scale": 1.0, "distribution": "uniform"}}}, "inbound_nodes": [[["expanded_conv_project_BN", 0, 0, {}]]]}, {"name": "block_1_expand_BN", "class_name": "BatchNormalization", "config": {"gamma_regularizer": null, "moving_mean_initializer": {"class_name": "Zeros", "config": {}}, "axis": -1, "name": "block_1_expand_BN", "moving_variance_initializer": {"class_name": "Ones", "config": {}}, "beta_constraint": null, "beta_initializer": {"class_name": "Zeros", "config": {}}, "trainable": false, "epsilon": 0.001, "gamma_initializer": {"class_name": "Ones", "config": {}}, "center": true, "momentum": 0.999, "gamma_constraint": null, "beta_regularizer": null, "scale": true}, "inbound_nodes": [[["block_1_expand", 0, 0, {}]]]}, {"name": "block_1_expand_relu", "class_name": "ReLU", "config": {"negative_slope": 0.0, "max_value": 6.0, "name": "block_1_expand_relu", "threshold": 0.0, "trainable": false}, "inbound_nodes": [[["block_1_expand_BN", 0, 0, {}]]]}, {"name": "block_1_pad", "class_name": "ZeroPadding2D", "config": {"padding": [[0, 1], [0, 1]], "name": "block_1_pad", "trainable": false, "data_format": "channels_last"}, "inbound_nodes": [[["block_1_expand_relu", 0, 0, {}]]]}, {"name": "block_1_depthwise", "class_name": "DepthwiseConv2D", "config": {"name": "block_1_depthwise", "use_bias": false, "kernel_size": [3, 3], "depthwise_regularizer": null, "bias_regularizer": null, "activation": "linear", "activity_regularizer": null, "data_format": "channels_last", "depth_multiplier": 1, "bias_constraint": null, "strides": [2, 2], "bias_initializer": {"class_name": "Zeros", "config": {}}, "padding": "valid", "depthwise_initializer": {"class_name": "VarianceScaling", "config": {"seed": null, "mode": "fan_avg", "scale": 1.0, "distribution": "uniform"}}, "trainable": false, "depthwise_constraint": null, "dilation_rate": [1, 1]}, "inbound_nodes": [[["block_1_pad", 0, 0, {}]]]}, {"name": "block_1_depthwise_BN", "class_name": "BatchNormalization", "config": {"gamma_regularizer": null, "moving_mean_initializer": {"class_name": "Zeros", "config": {}}, "axis": -1, "name": "block_1_depthwise_BN", "moving_variance_initializer": {"class_name": "Ones", "config": {}}, "beta_constraint": null, "beta_initializer": {"class_name": "Zeros", "config": {}}, "trainable": false, "epsilon": 0.001, "gamma_initializer": {"class_name": "Ones", "config": {}}, "center": true, "momentum": 0.999, "gamma_constraint": null, "beta_regularizer": null, "scale": true}, "inbound_nodes": [[["block_1_depthwise", 0, 0, {}]]]}, {"name": "block_1_depthwise_relu", "class_name": "ReLU", "config": {"negative_slope": 0.0, "max_value": 6.0, "name": "block_1_depthwise_relu", "threshold": 0.0, "trainable": false}, "inbound_nodes": [[["block_1_depthwise_BN", 0, 0, {}]]]}, {"name": "block_1_project", "class_name": "Conv2D", "config": {"name": "block_1_project", "kernel_regularizer": null, "use_bias": false, "kernel_size": [1, 1], "activation": "linear", "dilation_rate": [1, 1], "activity_regularizer": null, "data_format": "channels_last", "filters": 24, "kernel_constraint": null, "strides": [1, 1], "bias_initializer": {"class_name": "Zeros", "config": {}}, "padding": "same", "bias_regularizer": null, "trainable": false, "bias_constraint": null, "kernel_initializer": {"class_name": "VarianceScaling", "config": {"seed": null, "mode": "fan_avg", "scale": 1.0, "distribution": "uniform"}}}, "inbound_nodes": [[["block_1_depthwise_relu", 0, 0, {}]]]}, {"name": "block_1_project_BN", "class_name": "BatchNormalization", "config": {"gamma_regularizer": null, "moving_mean_initializer": {"class_name": "Zeros", "config": {}}, "axis": -1, "name": "block_1_project_BN", "moving_variance_initializer": {"class_name": "Ones", "config": {}}, "beta_constraint": null, "beta_initializer": {"class_name": "Zeros", "config": {}}, "trainable": false, "epsilon": 0.001, "gamma_initializer": {"class_name": "Ones", "config": {}}, "center": true, "momentum": 0.999, "gamma_constraint": null, "beta_regularizer": null, "scale": true}, "inbound_nodes": [[["block_1_project", 0, 0, {}]]]}, {"name": "block_2_expand", "class_name": "Conv2D", "config": {"name": "block_2_expand", "kernel_regularizer": null, "use_bias": false, "kernel_size": [1, 1], "activation": "linear", "dilation_rate": [1, 1], "activity_regularizer": null, "data_format": "channels_last", "filters": 144, "kernel_constraint": null, "strides": [1, 1], "bias_initializer": {"class_name": "Zeros", "config": {}}, "padding": "same", "bias_regularizer": null, "trainable": false, "bias_constraint": null, "kernel_initializer": {"class_name": "VarianceScaling", "config": {"seed": null, "mode": "fan_avg", "scale": 1.0, "distribution": "uniform"}}}, "inbound_nodes": [[["block_1_project_BN", 0, 0, {}]]]}, {"name": "block_2_expand_BN", "class_name": "BatchNormalization", "config": {"gamma_regularizer": null, "moving_mean_initializer": {"class_name": "Zeros", "config": {}}, "axis": -1, "name": "block_2_expand_BN", "moving_variance_initializer": {"class_name": "Ones", "config": {}}, "beta_constraint": null, "beta_initializer": {"class_name": "Zeros", "config": {}}, "trainable": false, "epsilon": 0.001, "gamma_initializer": {"class_name": "Ones", "config": {}}, "center": true, "momentum": 0.999, "gamma_constraint": null, "beta_regularizer": null, "scale": true}, "inbound_nodes": [[["block_2_expand", 0, 0, {}]]]}, {"name": "block_2_expand_relu", "class_name": "ReLU", "config": {"negative_slope": 0.0, "max_value": 6.0, "name": "block_2_expand_relu", "threshold": 0.0, "trainable": false}, "inbound_nodes": [[["block_2_expand_BN", 0, 0, {}]]]}, {"name": "block_2_depthwise", "class_name": "DepthwiseConv2D", "config": {"name": "block_2_depthwise", "use_bias": false, "kernel_size": [3, 3], "depthwise_regularizer": null, "bias_regularizer": null, "activation": "linear", "activity_regularizer": null, "data_format": "channels_last", "depth_multiplier": 1, "bias_constraint": null, "strides": [1, 1], "bias_initializer": {"class_name": "Zeros", "config": {}}, "padding": "same", "depthwise_initializer": {"class_name": "VarianceScaling", "config": {"seed": null, "mode": "fan_avg", "scale": 1.0, "distribution": "uniform"}}, "trainable": false, "depthwise_constraint": null, "dilation_rate": [1, 1]}, "inbound_nodes": [[["block_2_expand_relu", 0, 0, {}]]]}, {"name": "block_2_depthwise_BN", "class_name": "BatchNormalization", "config": {"gamma_regularizer": null, "moving_mean_initializer": {"class_name": "Zeros", "config": {}}, "axis": -1, "name": "block_2_depthwise_BN", "moving_variance_initializer": {"class_name": "Ones", "config": {}}, "beta_constraint": null, "beta_initializer": {"class_name": "Zeros", "config": {}}, "trainable": false, "epsilon": 0.001, "gamma_initializer": {"class_name": "Ones", "config": {}}, "center": true, "momentum": 0.999, "gamma_constraint": null, "beta_regularizer": null, "scale": true}, "inbound_nodes": [[["block_2_depthwise", 0, 0, {}]]]}, {"name": "block_2_depthwise_relu", "class_name": "ReLU", "config": {"negative_slope": 0.0, "max_value": 6.0, "name": "block_2_depthwise_relu", "threshold": 0.0, "trainable": false}, "inbound_nodes": [[["block_2_depthwise_BN", 0, 0, {}]]]}, {"name": "block_2_project", "class_name": "Conv2D", "config": {"name": "block_2_project", "kernel_regularizer": null, "use_bias": false, "kernel_size": [1, 1], "activation": "linear", "dilation_rate": [1, 1], "activity_regularizer": null, "data_format": "channels_last", "filters": 24, "kernel_constraint": null, "strides": [1, 1], "bias_initializer": {"class_name": "Zeros", "config": {}}, "padding": "same", "bias_regularizer": null, "trainable": false, "bias_constraint": null, "kernel_initializer": {"class_name": "VarianceScaling", "config": {"seed": null, "mode": "fan_avg", "scale": 1.0, "distribution": "uniform"}}}, "inbound_nodes": [[["block_2_depthwise_relu", 0, 0, {}]]]}, {"name": "block_2_project_BN", "class_name": "BatchNormalization", "config": {"gamma_regularizer": null, "moving_mean_initializer": {"class_name": "Zeros", "config": {}}, "axis": -1, "name": "block_2_project_BN", "moving_variance_initializer": {"class_name": "Ones", "config": {}}, "beta_constraint": null, "beta_initializer": {"class_name": "Zeros", "config": {}}, "trainable": false, "epsilon": 0.001, "gamma_initializer": {"class_name": "Ones", "config": {}}, "center": true, "momentum": 0.999, "gamma_constraint": null, "beta_regularizer": null, "scale": true}, "inbound_nodes": [[["block_2_project", 0, 0, {}]]]}, {"name": "block_2_add", "class_name": "Add", "config": {"name": "block_2_add", "trainable": false}, "inbound_nodes": [[["block_1_project_BN", 0, 0, {}], ["block_2_project_BN", 0, 0, {}]]]}, {"name": "block_3_expand", "class_name": "Conv2D", "config": {"name": "block_3_expand", "kernel_regularizer": null, "use_bias": false, "kernel_size": [1, 1], "activation": "linear", "dilation_rate": [1, 1], "activity_regularizer": null, "data_format": "channels_last", "filters": 144, "kernel_constraint": null, "strides": [1, 1], "bias_initializer": {"class_name": "Zeros", "config": {}}, "padding": "same", "bias_regularizer": null, "trainable": false, "bias_constraint": null, "kernel_initializer": {"class_name": "VarianceScaling", "config": {"seed": null, "mode": "fan_avg", "scale": 1.0, "distribution": "uniform"}}}, "inbound_nodes": [[["block_2_add", 0, 0, {}]]]}, {"name": "block_3_expand_BN", "class_name": "BatchNormalization", "config": {"gamma_regularizer": null, "moving_mean_initializer": {"class_name": "Zeros", "config": {}}, "axis": -1, "name": "block_3_expand_BN", "moving_variance_initializer": {"class_name": "Ones", "config": {}}, "beta_constraint": null, "beta_initializer": {"class_name": "Zeros", "config": {}}, "trainable": false, "epsilon": 0.001, "gamma_initializer": {"class_name": "Ones", "config": {}}, "center": true, "momentum": 0.999, "gamma_constraint": null, "beta_regularizer": null, "scale": true}, "inbound_nodes": [[["block_3_expand", 0, 0, {}]]]}, {"name": "block_3_expand_relu", "class_name": "ReLU", "config": {"negative_slope": 0.0, "max_value": 6.0, "name": "block_3_expand_relu", "threshold": 0.0, "trainable": false}, "inbound_nodes": [[["block_3_expand_BN", 0, 0, {}]]]}, {"name": "block_3_pad", "class_name": "ZeroPadding2D", "config": {"padding": [[0, 1], [0, 1]], "name": "block_3_pad", "trainable": false, "data_format": "channels_last"}, "inbound_nodes": [[["block_3_expand_relu", 0, 0, {}]]]}, {"name": "block_3_depthwise", "class_name": "DepthwiseConv2D", "config": {"name": "block_3_depthwise", "use_bias": false, "kernel_size": [3, 3], "depthwise_regularizer": null, "bias_regularizer": null, "activation": "linear", "activity_regularizer": null, "data_format": "channels_last", "depth_multiplier": 1, "bias_constraint": null, "strides": [2, 2], "bias_initializer": {"class_name": "Zeros", "config": {}}, "padding": "valid", "depthwise_initializer": {"class_name": "VarianceScaling", "config": {"seed": null, "mode": "fan_avg", "scale": 1.0, "distribution": "uniform"}}, "trainable": false, "depthwise_constraint": null, "dilation_rate": [1, 1]}, "inbound_nodes": [[["block_3_pad", 0, 0, {}]]]}, {"name": "block_3_depthwise_BN", "class_name": "BatchNormalization", "config": {"gamma_regularizer": null, "moving_mean_initializer": {"class_name": "Zeros", "config": {}}, "axis": -1, "name": "block_3_depthwise_BN", "moving_variance_initializer": {"class_name": "Ones", "config": {}}, "beta_constraint": null, "beta_initializer": {"class_name": "Zeros", "config": {}}, "trainable": false, "epsilon": 0.001, "gamma_initializer": {"class_name": "Ones", "config": {}}, "center": true, "momentum": 0.999, "gamma_constraint": null, "beta_regularizer": null, "scale": true}, "inbound_nodes": [[["block_3_depthwise", 0, 0, {}]]]}, {"name": "block_3_depthwise_relu", "class_name": "ReLU", "config": {"negative_slope": 0.0, "max_value": 6.0, "name": "block_3_depthwise_relu", "threshold": 0.0, "trainable": false}, "inbound_nodes": [[["block_3_depthwise_BN", 0, 0, {}]]]}, {"name": "block_3_project", "class_name": "Conv2D", "config": {"name": "block_3_project", "kernel_regularizer": null, "use_bias": false, "kernel_size": [1, 1], "activation": "linear", "dilation_rate": [1, 1], "activity_regularizer": null, "data_format": "channels_last", "filters": 32, "kernel_constraint": null, "strides": [1, 1], "bias_initializer": {"class_name": "Zeros", "config": {}}, "padding": "same", "bias_regularizer": null, "trainable": false, "bias_constraint": null, "kernel_initializer": {"class_name": "VarianceScaling", "config": {"seed": null, "mode": "fan_avg", "scale": 1.0, "distribution": "uniform"}}}, "inbound_nodes": [[["block_3_depthwise_relu", 0, 0, {}]]]}, {"name": "block_3_project_BN", "class_name": "BatchNormalization", "config": {"gamma_regularizer": null, "moving_mean_initializer": {"class_name": "Zeros", "config": {}}, "axis": -1, "name": "block_3_project_BN", "moving_variance_initializer": {"class_name": "Ones", "config": {}}, "beta_constraint": null, "beta_initializer": {"class_name": "Zeros", "config": {}}, "trainable": false, "epsilon": 0.001, "gamma_initializer": {"class_name": "Ones", "config": {}}, "center": true, "momentum": 0.999, "gamma_constraint": null, "beta_regularizer": null, "scale": true}, "inbound_nodes": [[["block_3_project", 0, 0, {}]]]}, {"name": "block_4_expand", "class_name": "Conv2D", "config": {"name": "block_4_expand", "kernel_regularizer": null, "use_bias": false, "kernel_size": [1, 1], "activation": "linear", "dilation_rate": [1, 1], "activity_regularizer": null, "data_format": "channels_last", "filters": 192, "kernel_constraint": null, "strides": [1, 1], "bias_initializer": {"class_name": "Zeros", "config": {}}, "padding": "same", "bias_regularizer": null, "trainable": false, "bias_constraint": null, "kernel_initializer": {"class_name": "VarianceScaling", "config": {"seed": null, "mode": "fan_avg", "scale": 1.0, "distribution": "uniform"}}}, "inbound_nodes": [[["block_3_project_BN", 0, 0, {}]]]}, {"name": "block_4_expand_BN", "class_name": "BatchNormalization", "config": {"gamma_regularizer": null, "moving_mean_initializer": {"class_name": "Zeros", "config": {}}, "axis": -1, "name": "block_4_expand_BN", "moving_variance_initializer": {"class_name": "Ones", "config": {}}, "beta_constraint": null, "beta_initializer": {"class_name": "Zeros", "config": {}}, "trainable": false, "epsilon": 0.001, "gamma_initializer": {"class_name": "Ones", "config": {}}, "center": true, "momentum": 0.999, "gamma_constraint": null, "beta_regularizer": null, "scale": true}, "inbound_nodes": [[["block_4_expand", 0, 0, {}]]]}, {"name": "block_4_expand_relu", "class_name": "ReLU", "config": {"negative_slope": 0.0, "max_value": 6.0, "name": "block_4_expand_relu", "threshold": 0.0, "trainable": false}, "inbound_nodes": [[["block_4_expand_BN", 0, 0, {}]]]}, {"name": "block_4_depthwise", "class_name": "DepthwiseConv2D", "config": {"name": "block_4_depthwise", "use_bias": false, "kernel_size": [3, 3], "depthwise_regularizer": null, "bias_regularizer": null, "activation": "linear", "activity_regularizer": null, "data_format": "channels_last", "depth_multiplier": 1, "bias_constraint": null, "strides": [1, 1], "bias_initializer": {"class_name": "Zeros", "config": {}}, "padding": "same", "depthwise_initializer": {"class_name": "VarianceScaling", "config": {"seed": null, "mode": "fan_avg", "scale": 1.0, "distribution": "uniform"}}, "trainable": false, "depthwise_constraint": null, "dilation_rate": [1, 1]}, "inbound_nodes": [[["block_4_expand_relu", 0, 0, {}]]]}, {"name": "block_4_depthwise_BN", "class_name": "BatchNormalization", "config": {"gamma_regularizer": null, "moving_mean_initializer": {"class_name": "Zeros", "config": {}}, "axis": -1, "name": "block_4_depthwise_BN", "moving_variance_initializer": {"class_name": "Ones", "config": {}}, "beta_constraint": null, "beta_initializer": {"class_name": "Zeros", "config": {}}, "trainable": false, "epsilon": 0.001, "gamma_initializer": {"class_name": "Ones", "config": {}}, "center": true, "momentum": 0.999, "gamma_constraint": null, "beta_regularizer": null, "scale": true}, "inbound_nodes": [[["block_4_depthwise", 0, 0, {}]]]}, {"name": "block_4_depthwise_relu", "class_name": "ReLU", "config": {"negative_slope": 0.0, "max_value": 6.0, "name": "block_4_depthwise_relu", "threshold": 0.0, "trainable": false}, "inbound_nodes": [[["block_4_depthwise_BN", 0, 0, {}]]]}, {"name": "block_4_project", "class_name": "Conv2D", "config": {"name": "block_4_project", "kernel_regularizer": null, "use_bias": false, "kernel_size": [1, 1], "activation": "linear", "dilation_rate": [1, 1], "activity_regularizer": null, "data_format": "channels_last", "filters": 32, "kernel_constraint": null, "strides": [1, 1], "bias_initializer": {"class_name": "Zeros", "config": {}}, "padding": "same", "bias_regularizer": null, "trainable": false, "bias_constraint": null, "kernel_initializer": {"class_name": "VarianceScaling", "config": {"seed": null, "mode": "fan_avg", "scale": 1.0, "distribution": "uniform"}}}, "inbound_nodes": [[["block_4_depthwise_relu", 0, 0, {}]]]}, {"name": "block_4_project_BN", "class_name": "BatchNormalization", "config": {"gamma_regularizer": null, "moving_mean_initializer": {"class_name": "Zeros", "config": {}}, "axis": -1, "name": "block_4_project_BN", "moving_variance_initializer": {"class_name": "Ones", "config": {}}, "beta_constraint": null, "beta_initializer": {"class_name": "Zeros", "config": {}}, "trainable": false, "epsilon": 0.001, "gamma_initializer": {"class_name": "Ones", "config": {}}, "center": true, "momentum": 0.999, "gamma_constraint": null, "beta_regularizer": null, "scale": true}, "inbound_nodes": [[["block_4_project", 0, 0, {}]]]}, {"name": "block_4_add", "class_name": "Add", "config": {"name": "block_4_add", "trainable": false}, "inbound_nodes": [[["block_3_project_BN", 0, 0, {}], ["block_4_project_BN", 0, 0, {}]]]}, {"name": "block_5_expand", "class_name": "Conv2D", "config": {"name": "block_5_expand", "kernel_regularizer": null, "use_bias": false, "kernel_size": [1, 1], "activation": "linear", "dilation_rate": [1, 1], "activity_regularizer": null, "data_format": "channels_last", "filters": 192, "kernel_constraint": null, "strides": [1, 1], "bias_initializer": {"class_name": "Zeros", "config": {}}, "padding": "same", "bias_regularizer": null, "trainable": false, "bias_constraint": null, "kernel_initializer": {"class_name": "VarianceScaling", "config": {"seed": null, "mode": "fan_avg", "scale": 1.0, "distribution": "uniform"}}}, "inbound_nodes": [[["block_4_add", 0, 0, {}]]]}, {"name": "block_5_expand_BN", "class_name": "BatchNormalization", "config": {"gamma_regularizer": null, "moving_mean_initializer": {"class_name": "Zeros", "config": {}}, "axis": -1, "name": "block_5_expand_BN", "moving_variance_initializer": {"class_name": "Ones", "config": {}}, "beta_constraint": null, "beta_initializer": {"class_name": "Zeros", "config": {}}, "trainable": false, "epsilon": 0.001, "gamma_initializer": {"class_name": "Ones", "config": {}}, "center": true, "momentum": 0.999, "gamma_constraint": null, "beta_regularizer": null, "scale": true}, "inbound_nodes": [[["block_5_expand", 0, 0, {}]]]}, {"name": "block_5_expand_relu", "class_name": "ReLU", "config": {"negative_slope": 0.0, "max_value": 6.0, "name": "block_5_expand_relu", "threshold": 0.0, "trainable": false}, "inbound_nodes": [[["block_5_expand_BN", 0, 0, {}]]]}, {"name": "block_5_depthwise", "class_name": "DepthwiseConv2D", "config": {"name": "block_5_depthwise", "use_bias": false, "kernel_size": [3, 3], "depthwise_regularizer": null, "bias_regularizer": null, "activation": "linear", "activity_regularizer": null, "data_format": "channels_last", "depth_multiplier": 1, "bias_constraint": null, "strides": [1, 1], "bias_initializer": {"class_name": "Zeros", "config": {}}, "padding": "same", "depthwise_initializer": {"class_name": "VarianceScaling", "config": {"seed": null, "mode": "fan_avg", "scale": 1.0, "distribution": "uniform"}}, "trainable": false, "depthwise_constraint": null, "dilation_rate": [1, 1]}, "inbound_nodes": [[["block_5_expand_relu", 0, 0, {}]]]}, {"name": "block_5_depthwise_BN", "class_name": "BatchNormalization", "config": {"gamma_regularizer": null, "moving_mean_initializer": {"class_name": "Zeros", "config": {}}, "axis": -1, "name": "block_5_depthwise_BN", "moving_variance_initializer": {"class_name": "Ones", "config": {}}, "beta_constraint": null, "beta_initializer": {"class_name": "Zeros", "config": {}}, "trainable": false, "epsilon": 0.001, "gamma_initializer": {"class_name": "Ones", "config": {}}, "center": true, "momentum": 0.999, "gamma_constraint": null, "beta_regularizer": null, "scale": true}, "inbound_nodes": [[["block_5_depthwise", 0, 0, {}]]]}, {"name": "block_5_depthwise_relu", "class_name": "ReLU", "config": {"negative_slope": 0.0, "max_value": 6.0, "name": "block_5_depthwise_relu", "threshold": 0.0, "trainable": false}, "inbound_nodes": [[["block_5_depthwise_BN", 0, 0, {}]]]}, {"name": "block_5_project", "class_name": "Conv2D", "config": {"name": "block_5_project", "kernel_regularizer": null, "use_bias": false, "kernel_size": [1, 1], "activation": "linear", "dilation_rate": [1, 1], "activity_regularizer": null, "data_format": "channels_last", "filters": 32, "kernel_constraint": null, "strides": [1, 1], "bias_initializer": {"class_name": "Zeros", "config": {}}, "padding": "same", "bias_regularizer": null, "trainable": false, "bias_constraint": null, "kernel_initializer": {"class_name": "VarianceScaling", "config": {"seed": null, "mode": "fan_avg", "scale": 1.0, "distribution": "uniform"}}}, "inbound_nodes": [[["block_5_depthwise_relu", 0, 0, {}]]]}, {"name": "block_5_project_BN", "class_name": "BatchNormalization", "config": {"gamma_regularizer": null, "moving_mean_initializer": {"class_name": "Zeros", "config": {}}, "axis": -1, "name": "block_5_project_BN", "moving_variance_initializer": {"class_name": "Ones", "config": {}}, "beta_constraint": null, "beta_initializer": {"class_name": "Zeros", "config": {}}, "trainable": false, "epsilon": 0.001, "gamma_initializer": {"class_name": "Ones", "config": {}}, "center": true, "momentum": 0.999, "gamma_constraint": null, "beta_regularizer": null, "scale": true}, "inbound_nodes": [[["block_5_project", 0, 0, {}]]]}, {"name": "block_5_add", "class_name": "Add", "config": {"name": "block_5_add", "trainable": false}, "inbound_nodes": [[["block_4_add", 0, 0, {}], ["block_5_project_BN", 0, 0, {}]]]}, {"name": "block_6_expand", "class_name": "Conv2D", "config": {"name": "block_6_expand", "kernel_regularizer": null, "use_bias": false, "kernel_size": [1, 1], "activation": "linear", "dilation_rate": [1, 1], "activity_regularizer": null, "data_format": "channels_last", "filters": 192, "kernel_constraint": null, "strides": [1, 1], "bias_initializer": {"class_name": "Zeros", "config": {}}, "padding": "same", "bias_regularizer": null, "trainable": false, "bias_constraint": null, "kernel_initializer": {"class_name": "VarianceScaling", "config": {"seed": null, "mode": "fan_avg", "scale": 1.0, "distribution": "uniform"}}}, "inbound_nodes": [[["block_5_add", 0, 0, {}]]]}, {"name": "block_6_expand_BN", "class_name": "BatchNormalization", "config": {"gamma_regularizer": null, "moving_mean_initializer": {"class_name": "Zeros", "config": {}}, "axis": -1, "name": "block_6_expand_BN", "moving_variance_initializer": {"class_name": "Ones", "config": {}}, "beta_constraint": null, "beta_initializer": {"class_name": "Zeros", "config": {}}, "trainable": false, "epsilon": 0.001, "gamma_initializer": {"class_name": "Ones", "config": {}}, "center": true, "momentum": 0.999, "gamma_constraint": null, "beta_regularizer": null, "scale": true}, "inbound_nodes": [[["block_6_expand", 0, 0, {}]]]}, {"name": "block_6_expand_relu", "class_name": "ReLU", "config": {"negative_slope": 0.0, "max_value": 6.0, "name": "block_6_expand_relu", "threshold": 0.0, "trainable": false}, "inbound_nodes": [[["block_6_expand_BN", 0, 0, {}]]]}, {"name": "block_6_pad", "class_name": "ZeroPadding2D", "config": {"padding": [[0, 1], [0, 1]], "name": "block_6_pad", "trainable": false, "data_format": "channels_last"}, "inbound_nodes": [[["block_6_expand_relu", 0, 0, {}]]]}, {"name": "block_6_depthwise", "class_name": "DepthwiseConv2D", "config": {"name": "block_6_depthwise", "use_bias": false, "kernel_size": [3, 3], "depthwise_regularizer": null, "bias_regularizer": null, "activation": "linear", "activity_regularizer": null, "data_format": "channels_last", "depth_multiplier": 1, "bias_constraint": null, "strides": [2, 2], "bias_initializer": {"class_name": "Zeros", "config": {}}, "padding": "valid", "depthwise_initializer": {"class_name": "VarianceScaling", "config": {"seed": null, "mode": "fan_avg", "scale": 1.0, "distribution": "uniform"}}, "trainable": false, "depthwise_constraint": null, "dilation_rate": [1, 1]}, "inbound_nodes": [[["block_6_pad", 0, 0, {}]]]}, {"name": "block_6_depthwise_BN", "class_name": "BatchNormalization", "config": {"gamma_regularizer": null, "moving_mean_initializer": {"class_name": "Zeros", "config": {}}, "axis": -1, "name": "block_6_depthwise_BN", "moving_variance_initializer": {"class_name": "Ones", "config": {}}, "beta_constraint": null, "beta_initializer": {"class_name": "Zeros", "config": {}}, "trainable": false, "epsilon": 0.001, "gamma_initializer": {"class_name": "Ones", "config": {}}, "center": true, "momentum": 0.999, "gamma_constraint": null, "beta_regularizer": null, "scale": true}, "inbound_nodes": [[["block_6_depthwise", 0, 0, {}]]]}, {"name": "block_6_depthwise_relu", "class_name": "ReLU", "config": {"negative_slope": 0.0, "max_value": 6.0, "name": "block_6_depthwise_relu", "threshold": 0.0, "trainable": false}, "inbound_nodes": [[["block_6_depthwise_BN", 0, 0, {}]]]}, {"name": "block_6_project", "class_name": "Conv2D", "config": {"name": "block_6_project", "kernel_regularizer": null, "use_bias": false, "kernel_size": [1, 1], "activation": "linear", "dilation_rate": [1, 1], "activity_regularizer": null, "data_format": "channels_last", "filters": 64, "kernel_constraint": null, "strides": [1, 1], "bias_initializer": {"class_name": "Zeros", "config": {}}, "padding": "same", "bias_regularizer": null, "trainable": false, "bias_constraint": null, "kernel_initializer": {"class_name": "VarianceScaling", "config": {"seed": null, "mode": "fan_avg", "scale": 1.0, "distribution": "uniform"}}}, "inbound_nodes": [[["block_6_depthwise_relu", 0, 0, {}]]]}, {"name": "block_6_project_BN", "class_name": "BatchNormalization", "config": {"gamma_regularizer": null, "moving_mean_initializer": {"class_name": "Zeros", "config": {}}, "axis": -1, "name": "block_6_project_BN", "moving_variance_initializer": {"class_name": "Ones", "config": {}}, "beta_constraint": null, "beta_initializer": {"class_name": "Zeros", "config": {}}, "trainable": false, "epsilon": 0.001, "gamma_initializer": {"class_name": "Ones", "config": {}}, "center": true, "momentum": 0.999, "gamma_constraint": null, "beta_regularizer": null, "scale": true}, "inbound_nodes": [[["block_6_project", 0, 0, {}]]]}, {"name": "block_7_expand", "class_name": "Conv2D", "config": {"name": "block_7_expand", "kernel_regularizer": null, "use_bias": false, "kernel_size": [1, 1], "activation": "linear", "dilation_rate": [1, 1], "activity_regularizer": null, "data_format": "channels_last", "filters": 384, "kernel_constraint": null, "strides": [1, 1], "bias_initializer": {"class_name": "Zeros", "config": {}}, "padding": "same", "bias_regularizer": null, "trainable": false, "bias_constraint": null, "kernel_initializer": {"class_name": "VarianceScaling", "config": {"seed": null, "mode": "fan_avg", "scale": 1.0, "distribution": "uniform"}}}, "inbound_nodes": [[["block_6_project_BN", 0, 0, {}]]]}, {"name": "block_7_expand_BN", "class_name": "BatchNormalization", "config": {"gamma_regularizer": null, "moving_mean_initializer": {"class_name": "Zeros", "config": {}}, "axis": -1, "name": "block_7_expand_BN", "moving_variance_initializer": {"class_name": "Ones", "config": {}}, "beta_constraint": null, "beta_initializer": {"class_name": "Zeros", "config": {}}, "trainable": false, "epsilon": 0.001, "gamma_initializer": {"class_name": "Ones", "config": {}}, "center": true, "momentum": 0.999, "gamma_constraint": null, "beta_regularizer": null, "scale": true}, "inbound_nodes": [[["block_7_expand", 0, 0, {}]]]}, {"name": "block_7_expand_relu", "class_name": "ReLU", "config": {"negative_slope": 0.0, "max_value": 6.0, "name": "block_7_expand_relu", "threshold": 0.0, "trainable": false}, "inbound_nodes": [[["block_7_expand_BN", 0, 0, {}]]]}, {"name": "block_7_depthwise", "class_name": "DepthwiseConv2D", "config": {"name": "block_7_depthwise", "use_bias": false, "kernel_size": [3, 3], "depthwise_regularizer": null, "bias_regularizer": null, "activation": "linear", "activity_regularizer": null, "data_format": "channels_last", "depth_multiplier": 1, "bias_constraint": null, "strides": [1, 1], "bias_initializer": {"class_name": "Zeros", "config": {}}, "padding": "same", "depthwise_initializer": {"class_name": "VarianceScaling", "config": {"seed": null, "mode": "fan_avg", "scale": 1.0, "distribution": "uniform"}}, "trainable": false, "depthwise_constraint": null, "dilation_rate": [1, 1]}, "inbound_nodes": [[["block_7_expand_relu", 0, 0, {}]]]}, {"name": "block_7_depthwise_BN", "class_name": "BatchNormalization", "config": {"gamma_regularizer": null, "moving_mean_initializer": {"class_name": "Zeros", "config": {}}, "axis": -1, "name": "block_7_depthwise_BN", "moving_variance_initializer": {"class_name": "Ones", "config": {}}, "beta_constraint": null, "beta_initializer": {"class_name": "Zeros", "config": {}}, "trainable": false, "epsilon": 0.001, "gamma_initializer": {"class_name": "Ones", "config": {}}, "center": true, "momentum": 0.999, "gamma_constraint": null, "beta_regularizer": null, "scale": true}, "inbound_nodes": [[["block_7_depthwise", 0, 0, {}]]]}, {"name": "block_7_depthwise_relu", "class_name": "ReLU", "config": {"negative_slope": 0.0, "max_value": 6.0, "name": "block_7_depthwise_relu", "threshold": 0.0, "trainable": false}, "inbound_nodes": [[["block_7_depthwise_BN", 0, 0, {}]]]}, {"name": "block_7_project", "class_name": "Conv2D", "config": {"name": "block_7_project", "kernel_regularizer": null, "use_bias": false, "kernel_size": [1, 1], "activation": "linear", "dilation_rate": [1, 1], "activity_regularizer": null, "data_format": "channels_last", "filters": 64, "kernel_constraint": null, "strides": [1, 1], "bias_initializer": {"class_name": "Zeros", "config": {}}, "padding": "same", "bias_regularizer": null, "trainable": false, "bias_constraint": null, "kernel_initializer": {"class_name": "VarianceScaling", "config": {"seed": null, "mode": "fan_avg", "scale": 1.0, "distribution": "uniform"}}}, "inbound_nodes": [[["block_7_depthwise_relu", 0, 0, {}]]]}, {"name": "block_7_project_BN", "class_name": "BatchNormalization", "config": {"gamma_regularizer": null, "moving_mean_initializer": {"class_name": "Zeros", "config": {}}, "axis": -1, "name": "block_7_project_BN", "moving_variance_initializer": {"class_name": "Ones", "config": {}}, "beta_constraint": null, "beta_initializer": {"class_name": "Zeros", "config": {}}, "trainable": false, "epsilon": 0.001, "gamma_initializer": {"class_name": "Ones", "config": {}}, "center": true, "momentum": 0.999, "gamma_constraint": null, "beta_regularizer": null, "scale": true}, "inbound_nodes": [[["block_7_project", 0, 0, {}]]]}, {"name": "block_7_add", "class_name": "Add", "config": {"name": "block_7_add", "trainable": false}, "inbound_nodes": [[["block_6_project_BN", 0, 0, {}], ["block_7_project_BN", 0, 0, {}]]]}, {"name": "block_8_expand", "class_name": "Conv2D", "config": {"name": "block_8_expand", "kernel_regularizer": null, "use_bias": false, "kernel_size": [1, 1], "activation": "linear", "dilation_rate": [1, 1], "activity_regularizer": null, "data_format": "channels_last", "filters": 384, "kernel_constraint": null, "strides": [1, 1], "bias_initializer": {"class_name": "Zeros", "config": {}}, "padding": "same", "bias_regularizer": null, "trainable": false, "bias_constraint": null, "kernel_initializer": {"class_name": "VarianceScaling", "config": {"seed": null, "mode": "fan_avg", "scale": 1.0, "distribution": "uniform"}}}, "inbound_nodes": [[["block_7_add", 0, 0, {}]]]}, {"name": "block_8_expand_BN", "class_name": "BatchNormalization", "config": {"gamma_regularizer": null, "moving_mean_initializer": {"class_name": "Zeros", "config": {}}, "axis": -1, "name": "block_8_expand_BN", "moving_variance_initializer": {"class_name": "Ones", "config": {}}, "beta_constraint": null, "beta_initializer": {"class_name": "Zeros", "config": {}}, "trainable": false, "epsilon": 0.001, "gamma_initializer": {"class_name": "Ones", "config": {}}, "center": true, "momentum": 0.999, "gamma_constraint": null, "beta_regularizer": null, "scale": true}, "inbound_nodes": [[["block_8_expand", 0, 0, {}]]]}, {"name": "block_8_expand_relu", "class_name": "ReLU", "config": {"negative_slope": 0.0, "max_value": 6.0, "name": "block_8_expand_relu", "threshold": 0.0, "trainable": false}, "inbound_nodes": [[["block_8_expand_BN", 0, 0, {}]]]}, {"name": "block_8_depthwise", "class_name": "DepthwiseConv2D", "config": {"name": "block_8_depthwise", "use_bias": false, "kernel_size": [3, 3], "depthwise_regularizer": null, "bias_regularizer": null, "activation": "linear", "activity_regularizer": null, "data_format": "channels_last", "depth_multiplier": 1, "bias_constraint": null, "strides": [1, 1], "bias_initializer": {"class_name": "Zeros", "config": {}}, "padding": "same", "depthwise_initializer": {"class_name": "VarianceScaling", "config": {"seed": null, "mode": "fan_avg", "scale": 1.0, "distribution": "uniform"}}, "trainable": false, "depthwise_constraint": null, "dilation_rate": [1, 1]}, "inbound_nodes": [[["block_8_expand_relu", 0, 0, {}]]]}, {"name": "block_8_depthwise_BN", "class_name": "BatchNormalization", "config": {"gamma_regularizer": null, "moving_mean_initializer": {"class_name": "Zeros", "config": {}}, "axis": -1, "name": "block_8_depthwise_BN", "moving_variance_initializer": {"class_name": "Ones", "config": {}}, "beta_constraint": null, "beta_initializer": {"class_name": "Zeros", "config": {}}, "trainable": false, "epsilon": 0.001, "gamma_initializer": {"class_name": "Ones", "config": {}}, "center": true, "momentum": 0.999, "gamma_constraint": null, "beta_regularizer": null, "scale": true}, "inbound_nodes": [[["block_8_depthwise", 0, 0, {}]]]}, {"name": "block_8_depthwise_relu", "class_name": "ReLU", "config": {"negative_slope": 0.0, "max_value": 6.0, "name": "block_8_depthwise_relu", "threshold": 0.0, "trainable": false}, "inbound_nodes": [[["block_8_depthwise_BN", 0, 0, {}]]]}, {"name": "block_8_project", "class_name": "Conv2D", "config": {"name": "block_8_project", "kernel_regularizer": null, "use_bias": false, "kernel_size": [1, 1], "activation": "linear", "dilation_rate": [1, 1], "activity_regularizer": null, "data_format": "channels_last", "filters": 64, "kernel_constraint": null, "strides": [1, 1], "bias_initializer": {"class_name": "Zeros", "config": {}}, "padding": "same", "bias_regularizer": null, "trainable": false, "bias_constraint": null, "kernel_initializer": {"class_name": "VarianceScaling", "config": {"seed": null, "mode": "fan_avg", "scale": 1.0, "distribution": "uniform"}}}, "inbound_nodes": [[["block_8_depthwise_relu", 0, 0, {}]]]}, {"name": "block_8_project_BN", "class_name": "BatchNormalization", "config": {"gamma_regularizer": null, "moving_mean_initializer": {"class_name": "Zeros", "config": {}}, "axis": -1, "name": "block_8_project_BN", "moving_variance_initializer": {"class_name": "Ones", "config": {}}, "beta_constraint": null, "beta_initializer": {"class_name": "Zeros", "config": {}}, "trainable": false, "epsilon": 0.001, "gamma_initializer": {"class_name": "Ones", "config": {}}, "center": true, "momentum": 0.999, "gamma_constraint": null, "beta_regularizer": null, "scale": true}, "inbound_nodes": [[["block_8_project", 0, 0, {}]]]}, {"name": "block_8_add", "class_name": "Add", "config": {"name": "block_8_add", "trainable": false}, "inbound_nodes": [[["block_7_add", 0, 0, {}], ["block_8_project_BN", 0, 0, {}]]]}, {"name": "block_9_expand", "class_name": "Conv2D", "config": {"name": "block_9_expand", "kernel_regularizer": null, "use_bias": false, "kernel_size": [1, 1], "activation": "linear", "dilation_rate": [1, 1], "activity_regularizer": null, "data_format": "channels_last", "filters": 384, "kernel_constraint": null, "strides": [1, 1], "bias_initializer": {"class_name": "Zeros", "config": {}}, "padding": "same", "bias_regularizer": null, "trainable": false, "bias_constraint": null, "kernel_initializer": {"class_name": "VarianceScaling", "config": {"seed": null, "mode": "fan_avg", "scale": 1.0, "distribution": "uniform"}}}, "inbound_nodes": [[["block_8_add", 0, 0, {}]]]}, {"name": "block_9_expand_BN", "class_name": "BatchNormalization", "config": {"gamma_regularizer": null, "moving_mean_initializer": {"class_name": "Zeros", "config": {}}, "axis": -1, "name": "block_9_expand_BN", "moving_variance_initializer": {"class_name": "Ones", "config": {}}, "beta_constraint": null, "beta_initializer": {"class_name": "Zeros", "config": {}}, "trainable": false, "epsilon": 0.001, "gamma_initializer": {"class_name": "Ones", "config": {}}, "center": true, "momentum": 0.999, "gamma_constraint": null, "beta_regularizer": null, "scale": true}, "inbound_nodes": [[["block_9_expand", 0, 0, {}]]]}, {"name": "block_9_expand_relu", "class_name": "ReLU", "config": {"negative_slope": 0.0, "max_value": 6.0, "name": "block_9_expand_relu", "threshold": 0.0, "trainable": false}, "inbound_nodes": [[["block_9_expand_BN", 0, 0, {}]]]}, {"name": "block_9_depthwise", "class_name": "DepthwiseConv2D", "config": {"name": "block_9_depthwise", "use_bias": false, "kernel_size": [3, 3], "depthwise_regularizer": null, "bias_regularizer": null, "activation": "linear", "activity_regularizer": null, "data_format": "channels_last", "depth_multiplier": 1, "bias_constraint": null, "strides": [1, 1], "bias_initializer": {"class_name": "Zeros", "config": {}}, "padding": "same", "depthwise_initializer": {"class_name": "VarianceScaling", "config": {"seed": null, "mode": "fan_avg", "scale": 1.0, "distribution": "uniform"}}, "trainable": false, "depthwise_constraint": null, "dilation_rate": [1, 1]}, "inbound_nodes": [[["block_9_expand_relu", 0, 0, {}]]]}, {"name": "block_9_depthwise_BN", "class_name": "BatchNormalization", "config": {"gamma_regularizer": null, "moving_mean_initializer": {"class_name": "Zeros", "config": {}}, "axis": -1, "name": "block_9_depthwise_BN", "moving_variance_initializer": {"class_name": "Ones", "config": {}}, "beta_constraint": null, "beta_initializer": {"class_name": "Zeros", "config": {}}, "trainable": false, "epsilon": 0.001, "gamma_initializer": {"class_name": "Ones", "config": {}}, "center": true, "momentum": 0.999, "gamma_constraint": null, "beta_regularizer": null, "scale": true}, "inbound_nodes": [[["block_9_depthwise", 0, 0, {}]]]}, {"name": "block_9_depthwise_relu", "class_name": "ReLU", "config": {"negative_slope": 0.0, "max_value": 6.0, "name": "block_9_depthwise_relu", "threshold": 0.0, "trainable": false}, "inbound_nodes": [[["block_9_depthwise_BN", 0, 0, {}]]]}, {"name": "block_9_project", "class_name": "Conv2D", "config": {"name": "block_9_project", "kernel_regularizer": null, "use_bias": false, "kernel_size": [1, 1], "activation": "linear", "dilation_rate": [1, 1], "activity_regularizer": null, "data_format": "channels_last", "filters": 64, "kernel_constraint": null, "strides": [1, 1], "bias_initializer": {"class_name": "Zeros", "config": {}}, "padding": "same", "bias_regularizer": null, "trainable": false, "bias_constraint": null, "kernel_initializer": {"class_name": "VarianceScaling", "config": {"seed": null, "mode": "fan_avg", "scale": 1.0, "distribution": "uniform"}}}, "inbound_nodes": [[["block_9_depthwise_relu", 0, 0, {}]]]}, {"name": "block_9_project_BN", "class_name": "BatchNormalization", "config": {"gamma_regularizer": null, "moving_mean_initializer": {"class_name": "Zeros", "config": {}}, "axis": -1, "name": "block_9_project_BN", "moving_variance_initializer": {"class_name": "Ones", "config": {}}, "beta_constraint": null, "beta_initializer": {"class_name": "Zeros", "config": {}}, "trainable": false, "epsilon": 0.001, "gamma_initializer": {"class_name": "Ones", "config": {}}, "center": true, "momentum": 0.999, "gamma_constraint": null, "beta_regularizer": null, "scale": true}, "inbound_nodes": [[["block_9_project", 0, 0, {}]]]}, {"name": "block_9_add", "class_name": "Add", "config": {"name": "block_9_add", "trainable": false}, "inbound_nodes": [[["block_8_add", 0, 0, {}], ["block_9_project_BN", 0, 0, {}]]]}, {"name": "block_10_expand", "class_name": "Conv2D", "config": {"name": "block_10_expand", "kernel_regularizer": null, "use_bias": false, "kernel_size": [1, 1], "activation": "linear", "dilation_rate": [1, 1], "activity_regularizer": null, "data_format": "channels_last", "filters": 384, "kernel_constraint": null, "strides": [1, 1], "bias_initializer": {"class_name": "Zeros", "config": {}}, "padding": "same", "bias_regularizer": null, "trainable": false, "bias_constraint": null, "kernel_initializer": {"class_name": "VarianceScaling", "config": {"seed": null, "mode": "fan_avg", "scale": 1.0, "distribution": "uniform"}}}, "inbound_nodes": [[["block_9_add", 0, 0, {}]]]}, {"name": "block_10_expand_BN", "class_name": "BatchNormalization", "config": {"gamma_regularizer": null, "moving_mean_initializer": {"class_name": "Zeros", "config": {}}, "axis": -1, "name": "block_10_expand_BN", "moving_variance_initializer": {"class_name": "Ones", "config": {}}, "beta_constraint": null, "beta_initializer": {"class_name": "Zeros", "config": {}}, "trainable": false, "epsilon": 0.001, "gamma_initializer": {"class_name": "Ones", "config": {}}, "center": true, "momentum": 0.999, "gamma_constraint": null, "beta_regularizer": null, "scale": true}, "inbound_nodes": [[["block_10_expand", 0, 0, {}]]]}, {"name": "block_10_expand_relu", "class_name": "ReLU", "config": {"negative_slope": 0.0, "max_value": 6.0, "name": "block_10_expand_relu", "threshold": 0.0, "trainable": false}, "inbound_nodes": [[["block_10_expand_BN", 0, 0, {}]]]}, {"name": "block_10_depthwise", "class_name": "DepthwiseConv2D", "config": {"name": "block_10_depthwise", "use_bias": false, "kernel_size": [3, 3], "depthwise_regularizer": null, "bias_regularizer": null, "activation": "linear", "activity_regularizer": null, "data_format": "channels_last", "depth_multiplier": 1, "bias_constraint": null, "strides": [1, 1], "bias_initializer": {"class_name": "Zeros", "config": {}}, "padding": "same", "depthwise_initializer": {"class_name": "VarianceScaling", "config": {"seed": null, "mode": "fan_avg", "scale": 1.0, "distribution": "uniform"}}, "trainable": false, "depthwise_constraint": null, "dilation_rate": [1, 1]}, "inbound_nodes": [[["block_10_expand_relu", 0, 0, {}]]]}, {"name": "block_10_depthwise_BN", "class_name": "BatchNormalization", "config": {"gamma_regularizer": null, "moving_mean_initializer": {"class_name": "Zeros", "config": {}}, "axis": -1, "name": "block_10_depthwise_BN", "moving_variance_initializer": {"class_name": "Ones", "config": {}}, "beta_constraint": null, "beta_initializer": {"class_name": "Zeros", "config": {}}, "trainable": false, "epsilon": 0.001, "gamma_initializer": {"class_name": "Ones", "config": {}}, "center": true, "momentum": 0.999, "gamma_constraint": null, "beta_regularizer": null, "scale": true}, "inbound_nodes": [[["block_10_depthwise", 0, 0, {}]]]}, {"name": "block_10_depthwise_relu", "class_name": "ReLU", "config": {"negative_slope": 0.0, "max_value": 6.0, "name": "block_10_depthwise_relu", "threshold": 0.0, "trainable": false}, "inbound_nodes": [[["block_10_depthwise_BN", 0, 0, {}]]]}, {"name": "block_10_project", "class_name": "Conv2D", "config": {"name": "block_10_project", "kernel_regularizer": null, "use_bias": false, "kernel_size": [1, 1], "activation": "linear", "dilation_rate": [1, 1], "activity_regularizer": null, "data_format": "channels_last", "filters": 96, "kernel_constraint": null, "strides": [1, 1], "bias_initializer": {"class_name": "Zeros", "config": {}}, "padding": "same", "bias_regularizer": null, "trainable": false, "bias_constraint": null, "kernel_initializer": {"class_name": "VarianceScaling", "config": {"seed": null, "mode": "fan_avg", "scale": 1.0, "distribution": "uniform"}}}, "inbound_nodes": [[["block_10_depthwise_relu", 0, 0, {}]]]}, {"name": "block_10_project_BN", "class_name": "BatchNormalization", "config": {"gamma_regularizer": null, "moving_mean_initializer": {"class_name": "Zeros", "config": {}}, "axis": -1, "name": "block_10_project_BN", "moving_variance_initializer": {"class_name": "Ones", "config": {}}, "beta_constraint": null, "beta_initializer": {"class_name": "Zeros", "config": {}}, "trainable": false, "epsilon": 0.001, "gamma_initializer": {"class_name": "Ones", "config": {}}, "center": true, "momentum": 0.999, "gamma_constraint": null, "beta_regularizer": null, "scale": true}, "inbound_nodes": [[["block_10_project", 0, 0, {}]]]}, {"name": "block_11_expand", "class_name": "Conv2D", "config": {"name": "block_11_expand", "kernel_regularizer": null, "use_bias": false, "kernel_size": [1, 1], "activation": "linear", "dilation_rate": [1, 1], "activity_regularizer": null, "data_format": "channels_last", "filters": 576, "kernel_constraint": null, "strides": [1, 1], "bias_initializer": {"class_name": "Zeros", "config": {}}, "padding": "same", "bias_regularizer": null, "trainable": false, "bias_constraint": null, "kernel_initializer": {"class_name": "VarianceScaling", "config": {"seed": null, "mode": "fan_avg", "scale": 1.0, "distribution": "uniform"}}}, "inbound_nodes": [[["block_10_project_BN", 0, 0, {}]]]}, {"name": "block_11_expand_BN", "class_name": "BatchNormalization", "config": {"gamma_regularizer": null, "moving_mean_initializer": {"class_name": "Zeros", "config": {}}, "axis": -1, "name": "block_11_expand_BN", "moving_variance_initializer": {"class_name": "Ones", "config": {}}, "beta_constraint": null, "beta_initializer": {"class_name": "Zeros", "config": {}}, "trainable": false, "epsilon": 0.001, "gamma_initializer": {"class_name": "Ones", "config": {}}, "center": true, "momentum": 0.999, "gamma_constraint": null, "beta_regularizer": null, "scale": true}, "inbound_nodes": [[["block_11_expand", 0, 0, {}]]]}, {"name": "block_11_expand_relu", "class_name": "ReLU", "config": {"negative_slope": 0.0, "max_value": 6.0, "name": "block_11_expand_relu", "threshold": 0.0, "trainable": false}, "inbound_nodes": [[["block_11_expand_BN", 0, 0, {}]]]}, {"name": "block_11_depthwise", "class_name": "DepthwiseConv2D", "config": {"name": "block_11_depthwise", "use_bias": false, "kernel_size": [3, 3], "depthwise_regularizer": null, "bias_regularizer": null, "activation": "linear", "activity_regularizer": null, "data_format": "channels_last", "depth_multiplier": 1, "bias_constraint": null, "strides": [1, 1], "bias_initializer": {"class_name": "Zeros", "config": {}}, "padding": "same", "depthwise_initializer": {"class_name": "VarianceScaling", "config": {"seed": null, "mode": "fan_avg", "scale": 1.0, "distribution": "uniform"}}, "trainable": false, "depthwise_constraint": null, "dilation_rate": [1, 1]}, "inbound_nodes": [[["block_11_expand_relu", 0, 0, {}]]]}, {"name": "block_11_depthwise_BN", "class_name": "BatchNormalization", "config": {"gamma_regularizer": null, "moving_mean_initializer": {"class_name": "Zeros", "config": {}}, "axis": -1, "name": "block_11_depthwise_BN", "moving_variance_initializer": {"class_name": "Ones", "config": {}}, "beta_constraint": null, "beta_initializer": {"class_name": "Zeros", "config": {}}, "trainable": false, "epsilon": 0.001, "gamma_initializer": {"class_name": "Ones", "config": {}}, "center": true, "momentum": 0.999, "gamma_constraint": null, "beta_regularizer": null, "scale": true}, "inbound_nodes": [[["block_11_depthwise", 0, 0, {}]]]}, {"name": "block_11_depthwise_relu", "class_name": "ReLU", "config": {"negative_slope": 0.0, "max_value": 6.0, "name": "block_11_depthwise_relu", "threshold": 0.0, "trainable": false}, "inbound_nodes": [[["block_11_depthwise_BN", 0, 0, {}]]]}, {"name": "block_11_project", "class_name": "Conv2D", "config": {"name": "block_11_project", "kernel_regularizer": null, "use_bias": false, "kernel_size": [1, 1], "activation": "linear", "dilation_rate": [1, 1], "activity_regularizer": null, "data_format": "channels_last", "filters": 96, "kernel_constraint": null, "strides": [1, 1], "bias_initializer": {"class_name": "Zeros", "config": {}}, "padding": "same", "bias_regularizer": null, "trainable": false, "bias_constraint": null, "kernel_initializer": {"class_name": "VarianceScaling", "config": {"seed": null, "mode": "fan_avg", "scale": 1.0, "distribution": "uniform"}}}, "inbound_nodes": [[["block_11_depthwise_relu", 0, 0, {}]]]}, {"name": "block_11_project_BN", "class_name": "BatchNormalization", "config": {"gamma_regularizer": null, "moving_mean_initializer": {"class_name": "Zeros", "config": {}}, "axis": -1, "name": "block_11_project_BN", "moving_variance_initializer": {"class_name": "Ones", "config": {}}, "beta_constraint": null, "beta_initializer": {"class_name": "Zeros", "config": {}}, "trainable": false, "epsilon": 0.001, "gamma_initializer": {"class_name": "Ones", "config": {}}, "center": true, "momentum": 0.999, "gamma_constraint": null, "beta_regularizer": null, "scale": true}, "inbound_nodes": [[["block_11_project", 0, 0, {}]]]}, {"name": "block_11_add", "class_name": "Add", "config": {"name": "block_11_add", "trainable": false}, "inbound_nodes": [[["block_10_project_BN", 0, 0, {}], ["block_11_project_BN", 0, 0, {}]]]}, {"name": "block_12_expand", "class_name": "Conv2D", "config": {"name": "block_12_expand", "kernel_regularizer": null, "use_bias": false, "kernel_size": [1, 1], "activation": "linear", "dilation_rate": [1, 1], "activity_regularizer": null, "data_format": "channels_last", "filters": 576, "kernel_constraint": null, "strides": [1, 1], "bias_initializer": {"class_name": "Zeros", "config": {}}, "padding": "same", "bias_regularizer": null, "trainable": false, "bias_constraint": null, "kernel_initializer": {"class_name": "VarianceScaling", "config": {"seed": null, "mode": "fan_avg", "scale": 1.0, "distribution": "uniform"}}}, "inbound_nodes": [[["block_11_add", 0, 0, {}]]]}, {"name": "block_12_expand_BN", "class_name": "BatchNormalization", "config": {"gamma_regularizer": null, "moving_mean_initializer": {"class_name": "Zeros", "config": {}}, "axis": -1, "name": "block_12_expand_BN", "moving_variance_initializer": {"class_name": "Ones", "config": {}}, "beta_constraint": null, "beta_initializer": {"class_name": "Zeros", "config": {}}, "trainable": false, "epsilon": 0.001, "gamma_initializer": {"class_name": "Ones", "config": {}}, "center": true, "momentum": 0.999, "gamma_constraint": null, "beta_regularizer": null, "scale": true}, "inbound_nodes": [[["block_12_expand", 0, 0, {}]]]}, {"name": "block_12_expand_relu", "class_name": "ReLU", "config": {"negative_slope": 0.0, "max_value": 6.0, "name": "block_12_expand_relu", "threshold": 0.0, "trainable": false}, "inbound_nodes": [[["block_12_expand_BN", 0, 0, {}]]]}, {"name": "block_12_depthwise", "class_name": "DepthwiseConv2D", "config": {"name": "block_12_depthwise", "use_bias": false, "kernel_size": [3, 3], "depthwise_regularizer": null, "bias_regularizer": null, "activation": "linear", "activity_regularizer": null, "data_format": "channels_last", "depth_multiplier": 1, "bias_constraint": null, "strides": [1, 1], "bias_initializer": {"class_name": "Zeros", "config": {}}, "padding": "same", "depthwise_initializer": {"class_name": "VarianceScaling", "config": {"seed": null, "mode": "fan_avg", "scale": 1.0, "distribution": "uniform"}}, "trainable": false, "depthwise_constraint": null, "dilation_rate": [1, 1]}, "inbound_nodes": [[["block_12_expand_relu", 0, 0, {}]]]}, {"name": "block_12_depthwise_BN", "class_name": "BatchNormalization", "config": {"gamma_regularizer": null, "moving_mean_initializer": {"class_name": "Zeros", "config": {}}, "axis": -1, "name": "block_12_depthwise_BN", "moving_variance_initializer": {"class_name": "Ones", "config": {}}, "beta_constraint": null, "beta_initializer": {"class_name": "Zeros", "config": {}}, "trainable": false, "epsilon": 0.001, "gamma_initializer": {"class_name": "Ones", "config": {}}, "center": true, "momentum": 0.999, "gamma_constraint": null, "beta_regularizer": null, "scale": true}, "inbound_nodes": [[["block_12_depthwise", 0, 0, {}]]]}, {"name": "block_12_depthwise_relu", "class_name": "ReLU", "config": {"negative_slope": 0.0, "max_value": 6.0, "name": "block_12_depthwise_relu", "threshold": 0.0, "trainable": false}, "inbound_nodes": [[["block_12_depthwise_BN", 0, 0, {}]]]}, {"name": "block_12_project", "class_name": "Conv2D", "config": {"name": "block_12_project", "kernel_regularizer": null, "use_bias": false, "kernel_size": [1, 1], "activation": "linear", "dilation_rate": [1, 1], "activity_regularizer": null, "data_format": "channels_last", "filters": 96, "kernel_constraint": null, "strides": [1, 1], "bias_initializer": {"class_name": "Zeros", "config": {}}, "padding": "same", "bias_regularizer": null, "trainable": false, "bias_constraint": null, "kernel_initializer": {"class_name": "VarianceScaling", "config": {"seed": null, "mode": "fan_avg", "scale": 1.0, "distribution": "uniform"}}}, "inbound_nodes": [[["block_12_depthwise_relu", 0, 0, {}]]]}, {"name": "block_12_project_BN", "class_name": "BatchNormalization", "config": {"gamma_regularizer": null, "moving_mean_initializer": {"class_name": "Zeros", "config": {}}, "axis": -1, "name": "block_12_project_BN", "moving_variance_initializer": {"class_name": "Ones", "config": {}}, "beta_constraint": null, "beta_initializer": {"class_name": "Zeros", "config": {}}, "trainable": false, "epsilon": 0.001, "gamma_initializer": {"class_name": "Ones", "config": {}}, "center": true, "momentum": 0.999, "gamma_constraint": null, "beta_regularizer": null, "scale": true}, "inbound_nodes": [[["block_12_project", 0, 0, {}]]]}, {"name": "block_12_add", "class_name": "Add", "config": {"name": "block_12_add", "trainable": false}, "inbound_nodes": [[["block_11_add", 0, 0, {}], ["block_12_project_BN", 0, 0, {}]]]}, {"name": "block_13_expand", "class_name": "Conv2D", "config": {"name": "block_13_expand", "kernel_regularizer": null, "use_bias": false, "kernel_size": [1, 1], "activation": "linear", "dilation_rate": [1, 1], "activity_regularizer": null, "data_format": "channels_last", "filters": 576, "kernel_constraint": null, "strides": [1, 1], "bias_initializer": {"class_name": "Zeros", "config": {}}, "padding": "same", "bias_regularizer": null, "trainable": false, "bias_constraint": null, "kernel_initializer": {"class_name": "VarianceScaling", "config": {"seed": null, "mode": "fan_avg", "scale": 1.0, "distribution": "uniform"}}}, "inbound_nodes": [[["block_12_add", 0, 0, {}]]]}, {"name": "block_13_expand_BN", "class_name": "BatchNormalization", "config": {"gamma_regularizer": null, "moving_mean_initializer": {"class_name": "Zeros", "config": {}}, "axis": -1, "name": "block_13_expand_BN", "moving_variance_initializer": {"class_name": "Ones", "config": {}}, "beta_constraint": null, "beta_initializer": {"class_name": "Zeros", "config": {}}, "trainable": false, "epsilon": 0.001, "gamma_initializer": {"class_name": "Ones", "config": {}}, "center": true, "momentum": 0.999, "gamma_constraint": null, "beta_regularizer": null, "scale": true}, "inbound_nodes": [[["block_13_expand", 0, 0, {}]]]}, {"name": "block_13_expand_relu", "class_name": "ReLU", "config": {"negative_slope": 0.0, "max_value": 6.0, "name": "block_13_expand_relu", "threshold": 0.0, "trainable": false}, "inbound_nodes": [[["block_13_expand_BN", 0, 0, {}]]]}, {"name": "block_13_pad", "class_name": "ZeroPadding2D", "config": {"padding": [[0, 1], [0, 1]], "name": "block_13_pad", "trainable": false, "data_format": "channels_last"}, "inbound_nodes": [[["block_13_expand_relu", 0, 0, {}]]]}, {"name": "block_13_depthwise", "class_name": "DepthwiseConv2D", "config": {"name": "block_13_depthwise", "use_bias": false, "kernel_size": [3, 3], "depthwise_regularizer": null, "bias_regularizer": null, "activation": "linear", "activity_regularizer": null, "data_format": "channels_last", "depth_multiplier": 1, "bias_constraint": null, "strides": [2, 2], "bias_initializer": {"class_name": "Zeros", "config": {}}, "padding": "valid", "depthwise_initializer": {"class_name": "VarianceScaling", "config": {"seed": null, "mode": "fan_avg", "scale": 1.0, "distribution": "uniform"}}, "trainable": true, "depthwise_constraint": null, "dilation_rate": [1, 1]}, "inbound_nodes": [[["block_13_pad", 0, 0, {}]]]}, {"name": "block_13_depthwise_BN", "class_name": "BatchNormalization", "config": {"gamma_regularizer": null, "moving_mean_initializer": {"class_name": "Zeros", "config": {}}, "axis": -1, "name": "block_13_depthwise_BN", "moving_variance_initializer": {"class_name": "Ones", "config": {}}, "beta_constraint": null, "beta_initializer": {"class_name": "Zeros", "config": {}}, "trainable": true, "epsilon": 0.001, "gamma_initializer": {"class_name": "Ones", "config": {}}, "center": true, "momentum": 0.999, "gamma_constraint": null, "beta_regularizer": null, "scale": true}, "inbound_nodes": [[["block_13_depthwise", 0, 0, {}]]]}, {"name": "block_13_depthwise_relu", "class_name": "ReLU", "config": {"negative_slope": 0.0, "max_value": 6.0, "name": "block_13_depthwise_relu", "threshold": 0.0, "trainable": true}, "inbound_nodes": [[["block_13_depthwise_BN", 0, 0, {}]]]}, {"name": "block_13_project", "class_name": "Conv2D", "config": {"name": "block_13_project", "kernel_regularizer": null, "use_bias": false, "kernel_size": [1, 1], "activation": "linear", "dilation_rate": [1, 1], "activity_regularizer": null, "data_format": "channels_last", "filters": 160, "kernel_constraint": null, "strides": [1, 1], "bias_initializer": {"class_name": "Zeros", "config": {}}, "padding": "same", "bias_regularizer": null, "trainable": true, "bias_constraint": null, "kernel_initializer": {"class_name": "VarianceScaling", "config": {"seed": null, "mode": "fan_avg", "scale": 1.0, "distribution": "uniform"}}}, "inbound_nodes": [[["block_13_depthwise_relu", 0, 0, {}]]]}, {"name": "block_13_project_BN", "class_name": "BatchNormalization", "config": {"gamma_regularizer": null, "moving_mean_initializer": {"class_name": "Zeros", "config": {}}, "axis": -1, "name": "block_13_project_BN", "moving_variance_initializer": {"class_name": "Ones", "config": {}}, "beta_constraint": null, "beta_initializer": {"class_name": "Zeros", "config": {}}, "trainable": true, "epsilon": 0.001, "gamma_initializer": {"class_name": "Ones", "config": {}}, "center": true, "momentum": 0.999, "gamma_constraint": null, "beta_regularizer": null, "scale": true}, "inbound_nodes": [[["block_13_project", 0, 0, {}]]]}, {"name": "block_14_expand", "class_name": "Conv2D", "config": {"name": "block_14_expand", "kernel_regularizer": null, "use_bias": false, "kernel_size": [1, 1], "activation": "linear", "dilation_rate": [1, 1], "activity_regularizer": null, "data_format": "channels_last", "filters": 960, "kernel_constraint": null, "strides": [1, 1], "bias_initializer": {"class_name": "Zeros", "config": {}}, "padding": "same", "bias_regularizer": null, "trainable": true, "bias_constraint": null, "kernel_initializer": {"class_name": "VarianceScaling", "config": {"seed": null, "mode": "fan_avg", "scale": 1.0, "distribution": "uniform"}}}, "inbound_nodes": [[["block_13_project_BN", 0, 0, {}]]]}, {"name": "block_14_expand_BN", "class_name": "BatchNormalization", "config": {"gamma_regularizer": null, "moving_mean_initializer": {"class_name": "Zeros", "config": {}}, "axis": -1, "name": "block_14_expand_BN", "moving_variance_initializer": {"class_name": "Ones", "config": {}}, "beta_constraint": null, "beta_initializer": {"class_name": "Zeros", "config": {}}, "trainable": true, "epsilon": 0.001, "gamma_initializer": {"class_name": "Ones", "config": {}}, "center": true, "momentum": 0.999, "gamma_constraint": null, "beta_regularizer": null, "scale": true}, "inbound_nodes": [[["block_14_expand", 0, 0, {}]]]}, {"name": "block_14_expand_relu", "class_name": "ReLU", "config": {"negative_slope": 0.0, "max_value": 6.0, "name": "block_14_expand_relu", "threshold": 0.0, "trainable": true}, "inbound_nodes": [[["block_14_expand_BN", 0, 0, {}]]]}, {"name": "block_14_depthwise", "class_name": "DepthwiseConv2D", "config": {"name": "block_14_depthwise", "use_bias": false, "kernel_size": [3, 3], "depthwise_regularizer": null, "bias_regularizer": null, "activation": "linear", "activity_regularizer": null, "data_format": "channels_last", "depth_multiplier": 1, "bias_constraint": null, "strides": [1, 1], "bias_initializer": {"class_name": "Zeros", "config": {}}, "padding": "same", "depthwise_initializer": {"class_name": "VarianceScaling", "config": {"seed": null, "mode": "fan_avg", "scale": 1.0, "distribution": "uniform"}}, "trainable": true, "depthwise_constraint": null, "dilation_rate": [1, 1]}, "inbound_nodes": [[["block_14_expand_relu", 0, 0, {}]]]}, {"name": "block_14_depthwise_BN", "class_name": "BatchNormalization", "config": {"gamma_regularizer": null, "moving_mean_initializer": {"class_name": "Zeros", "config": {}}, "axis": -1, "name": "block_14_depthwise_BN", "moving_variance_initializer": {"class_name": "Ones", "config": {}}, "beta_constraint": null, "beta_initializer": {"class_name": "Zeros", "config": {}}, "trainable": true, "epsilon": 0.001, "gamma_initializer": {"class_name": "Ones", "config": {}}, "center": true, "momentum": 0.999, "gamma_constraint": null, "beta_regularizer": null, "scale": true}, "inbound_nodes": [[["block_14_depthwise", 0, 0, {}]]]}, {"name": "block_14_depthwise_relu", "class_name": "ReLU", "config": {"negative_slope": 0.0, "max_value": 6.0, "name": "block_14_depthwise_relu", "threshold": 0.0, "trainable": true}, "inbound_nodes": [[["block_14_depthwise_BN", 0, 0, {}]]]}, {"name": "block_14_project", "class_name": "Conv2D", "config": {"name": "block_14_project", "kernel_regularizer": null, "use_bias": false, "kernel_size": [1, 1], "activation": "linear", "dilation_rate": [1, 1], "activity_regularizer": null, "data_format": "channels_last", "filters": 160, "kernel_constraint": null, "strides": [1, 1], "bias_initializer": {"class_name": "Zeros", "config": {}}, "padding": "same", "bias_regularizer": null, "trainable": true, "bias_constraint": null, "kernel_initializer": {"class_name": "VarianceScaling", "config": {"seed": null, "mode": "fan_avg", "scale": 1.0, "distribution": "uniform"}}}, "inbound_nodes": [[["block_14_depthwise_relu", 0, 0, {}]]]}, {"name": "block_14_project_BN", "class_name": "BatchNormalization", "config": {"gamma_regularizer": null, "moving_mean_initializer": {"class_name": "Zeros", "config": {}}, "axis": -1, "name": "block_14_project_BN", "moving_variance_initializer": {"class_name": "Ones", "config": {}}, "beta_constraint": null, "beta_initializer": {"class_name": "Zeros", "config": {}}, "trainable": true, "epsilon": 0.001, "gamma_initializer": {"class_name": "Ones", "config": {}}, "center": true, "momentum": 0.999, "gamma_constraint": null, "beta_regularizer": null, "scale": true}, "inbound_nodes": [[["block_14_project", 0, 0, {}]]]}, {"name": "block_14_add", "class_name": "Add", "config": {"name": "block_14_add", "trainable": true}, "inbound_nodes": [[["block_13_project_BN", 0, 0, {}], ["block_14_project_BN", 0, 0, {}]]]}, {"name": "block_15_expand", "class_name": "Conv2D", "config": {"name": "block_15_expand", "kernel_regularizer": null, "use_bias": false, "kernel_size": [1, 1], "activation": "linear", "dilation_rate": [1, 1], "activity_regularizer": null, "data_format": "channels_last", "filters": 960, "kernel_constraint": null, "strides": [1, 1], "bias_initializer": {"class_name": "Zeros", "config": {}}, "padding": "same", "bias_regularizer": null, "trainable": true, "bias_constraint": null, "kernel_initializer": {"class_name": "VarianceScaling", "config": {"seed": null, "mode": "fan_avg", "scale": 1.0, "distribution": "uniform"}}}, "inbound_nodes": [[["block_14_add", 0, 0, {}]]]}, {"name": "block_15_expand_BN", "class_name": "BatchNormalization", "config": {"gamma_regularizer": null, "moving_mean_initializer": {"class_name": "Zeros", "config": {}}, "axis": -1, "name": "block_15_expand_BN", "moving_variance_initializer": {"class_name": "Ones", "config": {}}, "beta_constraint": null, "beta_initializer": {"class_name": "Zeros", "config": {}}, "trainable": true, "epsilon": 0.001, "gamma_initializer": {"class_name": "Ones", "config": {}}, "center": true, "momentum": 0.999, "gamma_constraint": null, "beta_regularizer": null, "scale": true}, "inbound_nodes": [[["block_15_expand", 0, 0, {}]]]}, {"name": "block_15_expand_relu", "class_name": "ReLU", "config": {"negative_slope": 0.0, "max_value": 6.0, "name": "block_15_expand_relu", "threshold": 0.0, "trainable": true}, "inbound_nodes": [[["block_15_expand_BN", 0, 0, {}]]]}, {"name": "block_15_depthwise", "class_name": "DepthwiseConv2D", "config": {"name": "block_15_depthwise", "use_bias": false, "kernel_size": [3, 3], "depthwise_regularizer": null, "bias_regularizer": null, "activation": "linear", "activity_regularizer": null, "data_format": "channels_last", "depth_multiplier": 1, "bias_constraint": null, "strides": [1, 1], "bias_initializer": {"class_name": "Zeros", "config": {}}, "padding": "same", "depthwise_initializer": {"class_name": "VarianceScaling", "config": {"seed": null, "mode": "fan_avg", "scale": 1.0, "distribution": "uniform"}}, "trainable": true, "depthwise_constraint": null, "dilation_rate": [1, 1]}, "inbound_nodes": [[["block_15_expand_relu", 0, 0, {}]]]}, {"name": "block_15_depthwise_BN", "class_name": "BatchNormalization", "config": {"gamma_regularizer": null, "moving_mean_initializer": {"class_name": "Zeros", "config": {}}, "axis": -1, "name": "block_15_depthwise_BN", "moving_variance_initializer": {"class_name": "Ones", "config": {}}, "beta_constraint": null, "beta_initializer": {"class_name": "Zeros", "config": {}}, "trainable": true, "epsilon": 0.001, "gamma_initializer": {"class_name": "Ones", "config": {}}, "center": true, "momentum": 0.999, "gamma_constraint": null, "beta_regularizer": null, "scale": true}, "inbound_nodes": [[["block_15_depthwise", 0, 0, {}]]]}, {"name": "block_15_depthwise_relu", "class_name": "ReLU", "config": {"negative_slope": 0.0, "max_value": 6.0, "name": "block_15_depthwise_relu", "threshold": 0.0, "trainable": true}, "inbound_nodes": [[["block_15_depthwise_BN", 0, 0, {}]]]}, {"name": "block_15_project", "class_name": "Conv2D", "config": {"name": "block_15_project", "kernel_regularizer": null, "use_bias": false, "kernel_size": [1, 1], "activation": "linear", "dilation_rate": [1, 1], "activity_regularizer": null, "data_format": "channels_last", "filters": 160, "kernel_constraint": null, "strides": [1, 1], "bias_initializer": {"class_name": "Zeros", "config": {}}, "padding": "same", "bias_regularizer": null, "trainable": true, "bias_constraint": null, "kernel_initializer": {"class_name": "VarianceScaling", "config": {"seed": null, "mode": "fan_avg", "scale": 1.0, "distribution": "uniform"}}}, "inbound_nodes": [[["block_15_depthwise_relu", 0, 0, {}]]]}, {"name": "block_15_project_BN", "class_name": "BatchNormalization", "config": {"gamma_regularizer": null, "moving_mean_initializer": {"class_name": "Zeros", "config": {}}, "axis": -1, "name": "block_15_project_BN", "moving_variance_initializer": {"class_name": "Ones", "config": {}}, "beta_constraint": null, "beta_initializer": {"class_name": "Zeros", "config": {}}, "trainable": true, "epsilon": 0.001, "gamma_initializer": {"class_name": "Ones", "config": {}}, "center": true, "momentum": 0.999, "gamma_constraint": null, "beta_regularizer": null, "scale": true}, "inbound_nodes": [[["block_15_project", 0, 0, {}]]]}, {"name": "block_15_add", "class_name": "Add", "config": {"name": "block_15_add", "trainable": true}, "inbound_nodes": [[["block_14_add", 0, 0, {}], ["block_15_project_BN", 0, 0, {}]]]}, {"name": "block_16_expand", "class_name": "Conv2D", "config": {"name": "block_16_expand", "kernel_regularizer": null, "use_bias": false, "kernel_size": [1, 1], "activation": "linear", "dilation_rate": [1, 1], "activity_regularizer": null, "data_format": "channels_last", "filters": 960, "kernel_constraint": null, "strides": [1, 1], "bias_initializer": {"class_name": "Zeros", "config": {}}, "padding": "same", "bias_regularizer": null, "trainable": true, "bias_constraint": null, "kernel_initializer": {"class_name": "VarianceScaling", "config": {"seed": null, "mode": "fan_avg", "scale": 1.0, "distribution": "uniform"}}}, "inbound_nodes": [[["block_15_add", 0, 0, {}]]]}, {"name": "block_16_expand_BN", "class_name": "BatchNormalization", "config": {"gamma_regularizer": null, "moving_mean_initializer": {"class_name": "Zeros", "config": {}}, "axis": -1, "name": "block_16_expand_BN", "moving_variance_initializer": {"class_name": "Ones", "config": {}}, "beta_constraint": null, "beta_initializer": {"class_name": "Zeros", "config": {}}, "trainable": true, "epsilon": 0.001, "gamma_initializer": {"class_name": "Ones", "config": {}}, "center": true, "momentum": 0.999, "gamma_constraint": null, "beta_regularizer": null, "scale": true}, "inbound_nodes": [[["block_16_expand", 0, 0, {}]]]}, {"name": "block_16_expand_relu", "class_name": "ReLU", "config": {"negative_slope": 0.0, "max_value": 6.0, "name": "block_16_expand_relu", "threshold": 0.0, "trainable": true}, "inbound_nodes": [[["block_16_expand_BN", 0, 0, {}]]]}, {"name": "block_16_depthwise", "class_name": "DepthwiseConv2D", "config": {"name": "block_16_depthwise", "use_bias": false, "kernel_size": [3, 3], "depthwise_regularizer": null, "bias_regularizer": null, "activation": "linear", "activity_regularizer": null, "data_format": "channels_last", "depth_multiplier": 1, "bias_constraint": null, "strides": [1, 1], "bias_initializer": {"class_name": "Zeros", "config": {}}, "padding": "same", "depthwise_initializer": {"class_name": "VarianceScaling", "config": {"seed": null, "mode": "fan_avg", "scale": 1.0, "distribution": "uniform"}}, "trainable": true, "depthwise_constraint": null, "dilation_rate": [1, 1]}, "inbound_nodes": [[["block_16_expand_relu", 0, 0, {}]]]}, {"name": "block_16_depthwise_BN", "class_name": "BatchNormalization", "config": {"gamma_regularizer": null, "moving_mean_initializer": {"class_name": "Zeros", "config": {}}, "axis": -1, "name": "block_16_depthwise_BN", "moving_variance_initializer": {"class_name": "Ones", "config": {}}, "beta_constraint": null, "beta_initializer": {"class_name": "Zeros", "config": {}}, "trainable": true, "epsilon": 0.001, "gamma_initializer": {"class_name": "Ones", "config": {}}, "center": true, "momentum": 0.999, "gamma_constraint": null, "beta_regularizer": null, "scale": true}, "inbound_nodes": [[["block_16_depthwise", 0, 0, {}]]]}, {"name": "block_16_depthwise_relu", "class_name": "ReLU", "config": {"negative_slope": 0.0, "max_value": 6.0, "name": "block_16_depthwise_relu", "threshold": 0.0, "trainable": true}, "inbound_nodes": [[["block_16_depthwise_BN", 0, 0, {}]]]}, {"name": "block_16_project", "class_name": "Conv2D", "config": {"name": "block_16_project", "kernel_regularizer": null, "use_bias": false, "kernel_size": [1, 1], "activation": "linear", "dilation_rate": [1, 1], "activity_regularizer": null, "data_format": "channels_last", "filters": 320, "kernel_constraint": null, "strides": [1, 1], "bias_initializer": {"class_name": "Zeros", "config": {}}, "padding": "same", "bias_regularizer": null, "trainable": true, "bias_constraint": null, "kernel_initializer": {"class_name": "VarianceScaling", "config": {"seed": null, "mode": "fan_avg", "scale": 1.0, "distribution": "uniform"}}}, "inbound_nodes": [[["block_16_depthwise_relu", 0, 0, {}]]]}, {"name": "block_16_project_BN", "class_name": "BatchNormalization", "config": {"gamma_regularizer": null, "moving_mean_initializer": {"class_name": "Zeros", "config": {}}, "axis": -1, "name": "block_16_project_BN", "moving_variance_initializer": {"class_name": "Ones", "config": {}}, "beta_constraint": null, "beta_initializer": {"class_name": "Zeros", "config": {}}, "trainable": true, "epsilon": 0.001, "gamma_initializer": {"class_name": "Ones", "config": {}}, "center": true, "momentum": 0.999, "gamma_constraint": null, "beta_regularizer": null, "scale": true}, "inbound_nodes": [[["block_16_project", 0, 0, {}]]]}, {"name": "Conv_1", "class_name": "Conv2D", "config": {"name": "Conv_1", "kernel_regularizer": null, "use_bias": false, "kernel_size": [1, 1], "activation": "linear", "dilation_rate": [1, 1], "activity_regularizer": null, "data_format": "channels_last", "filters": 1280, "kernel_constraint": null, "strides": [1, 1], "bias_initializer": {"class_name": "Zeros", "config": {}}, "padding": "valid", "bias_regularizer": null, "trainable": true, "bias_constraint": null, "kernel_initializer": {"class_name": "VarianceScaling", "config": {"seed": null, "mode": "fan_avg", "scale": 1.0, "distribution": "uniform"}}}, "inbound_nodes": [[["block_16_project_BN", 0, 0, {}]]]}, {"name": "Conv_1_bn", "class_name": "BatchNormalization", "config": {"gamma_regularizer": null, "moving_mean_initializer": {"class_name": "Zeros", "config": {}}, "axis": -1, "name": "Conv_1_bn", "moving_variance_initializer": {"class_name": "Ones", "config": {}}, "beta_constraint": null, "beta_initializer": {"class_name": "Zeros", "config": {}}, "trainable": true, "epsilon": 0.001, "gamma_initializer": {"class_name": "Ones", "config": {}}, "center": true, "momentum": 0.999, "gamma_constraint": null, "beta_regularizer": null, "scale": true}, "inbound_nodes": [[["Conv_1", 0, 0, {}]]]}, {"name": "out_relu", "class_name": "ReLU", "config": {"negative_slope": 0.0, "max_value": 6.0, "name": "out_relu", "threshold": 0.0, "trainable": true}, "inbound_nodes": [[["Conv_1_bn", 0, 0, {}]]]}, {"name": "average_pooling2d_6", "class_name": "AveragePooling2D", "config": {"name": "average_pooling2d_6", "strides": [2, 2], "padding": "valid", "data_format": "channels_last", "pool_size": [2, 2], "trainable": true}, "inbound_nodes": [[["out_relu", 0, 0, {}]]]}, {"name": "flatten_6", "class_name": "Flatten", "config": {"name": "flatten_6", "trainable": true, "data_format": "channels_last"}, "inbound_nodes": [[["average_pooling2d_6", 0, 0, {}]]]}, {"name": "dropout_6", "class_name": "Dropout", "config": {"rate": 0.5, "noise_shape": null, "name": "dropout_6", "seed": null, "trainable": true}, "inbound_nodes": [[["flatten_6", 0, 0, {}]]]}, {"name": "dense_13", "class_name": "Dense", "config": {"name": "dense_13", "kernel_regularizer": null, "use_bias": true, "units": 100, "activation": "relu", "bias_initializer": {"class_name": "Zeros", "config": {}}, "kernel_constraint": null, "activity_regularizer": null, "bias_regularizer": null, "trainable": true, "bias_constraint": null, "kernel_initializer": {"class_name": "VarianceScaling", "config": {"seed": null, "mode": "fan_avg", "scale": 1.0, "distribution": "uniform"}}}, "inbound_nodes": [[["dropout_6", 0, 0, {}]]]}, {"name": "dense_15", "class_name": "Dense", "config": {"name": "dense_15", "kernel_regularizer": null, "use_bias": true, "units": 37, "activation": "softmax", "bias_initializer": {"class_name": "Zeros", "config": {}}, "kernel_constraint": null, "activity_regularizer": null, "bias_regularizer": null, "trainable": true, "bias_constraint": null, "kernel_initializer": {"class_name": "VarianceScaling", "config": {"seed": null, "mode": "fan_avg", "scale": 1.0, "distribution": "uniform"}}}, "inbound_nodes": [[["dense_13", 0, 0, {}]]]}, {"name": "dense_14", "class_name": "Dense", "config": {"name": "dense_14", "kernel_regularizer": null, "use_bias": true, "units": 4, "activation": "sigmoid", "bias_initializer": {"class_name": "Zeros", "config": {}}, "kernel_constraint": null, "activity_regularizer": null, "bias_regularizer": null, "trainable": true, "bias_constraint": null, "kernel_initializer": {"class_name": "VarianceScaling", "config": {"seed": null, "mode": "fan_avg", "scale": 1.0, "distribution": "uniform"}}}, "inbound_nodes": [[["dense_13", 0, 0, {}]]]}, {"name": "concatenate_3", "class_name": "Concatenate", "config": {"name": "concatenate_3", "axis": -1, "trainable": true}, "inbound_nodes": [[["dense_15", 0, 0, {}], ["dense_14", 0, 0, {}]]]}]}, "backend": "tensorflow"}