{"config": {"name": "model_4", "input_layers": [["input_4", 0, 0]], "layers": [{"name": "input_4", "class_name": "InputLayer", "inbound_nodes": [], "config": {"name": "input_4", "sparse": false, "batch_input_shape": [null, 224, 224, 3], "dtype": "float32"}}, {"name": "Conv1_pad", "class_name": "ZeroPadding2D", "inbound_nodes": [[["input_4", 0, 0, {}]]], "config": {"name": "Conv1_pad", "padding": [[0, 1], [0, 1]], "trainable": false, "data_format": "channels_last"}}, {"name": "Conv1", "class_name": "Conv2D", "inbound_nodes": [[["Conv1_pad", 0, 0, {}]]], "config": {"name": "Conv1", "use_bias": false, "activity_regularizer": null, "bias_constraint": null, "activation": "linear", "kernel_regularizer": null, "kernel_initializer": {"class_name": "VarianceScaling", "config": {"distribution": "uniform", "mode": "fan_avg", "scale": 1.0, "seed": null}}, "bias_regularizer": null, "filters": 32, "strides": [2, 2], "bias_initializer": {"class_name": "Zeros", "config": {}}, "kernel_constraint": null, "data_format": "channels_last", "padding": "valid", "trainable": false, "kernel_size": [3, 3], "dilation_rate": [1, 1]}}, {"name": "bn_Conv1", "class_name": "BatchNormalization", "inbound_nodes": [[["Conv1", 0, 0, {}]]], "config": {"name": "bn_Conv1", "epsilon": 0.001, "gamma_regularizer": null, "moving_variance_initializer": {"class_name": "Ones", "config": {}}, "moving_mean_initializer": {"class_name": "Zeros", "config": {}}, "momentum": 0.999, "beta_initializer": {"class_name": "Zeros", "config": {}}, "gamma_constraint": null, "beta_regularizer": null, "axis": -1, "beta_constraint": null, "gamma_initializer": {"class_name": "Ones", "config": {}}, "center": true, "trainable": false, "scale": true}}, {"name": "Conv1_relu", "class_name": "ReLU", "inbound_nodes": [[["bn_Conv1", 0, 0, {}]]], "config": {"name": "Conv1_relu", "max_value": 6.0, "threshold": 0.0, "trainable": false, "negative_slope": 0.0}}, {"name": "expanded_conv_depthwise", "class_name": "DepthwiseConv2D", "inbound_nodes": [[["Conv1_relu", 0, 0, {}]]], "config": {"name": "expanded_conv_depthwise", "activity_regularizer": null, "depthwise_regularizer": null, "bias_constraint": null, "activation": "linear", "data_format": "channels_last", "depthwise_constraint": null, "bias_regularizer": null, "use_bias": false, "strides": [1, 1], "depthwise_initializer": {"class_name": "VarianceScaling", "config": {"distribution": "uniform", "mode": "fan_avg", "scale": 1.0, "seed": null}}, "bias_initializer": {"class_name": "Zeros", "config": {}}, "depth_multiplier": 1, "padding": "same", "trainable": false, "kernel_size": [3, 3], "dilation_rate": [1, 1]}}, {"name": "expanded_conv_depthwise_BN", "class_name": "BatchNormalization", "inbound_nodes": [[["expanded_conv_depthwise", 0, 0, {}]]], "config": {"name": "expanded_conv_depthwise_BN", "epsilon": 0.001, "gamma_regularizer": null, "moving_variance_initializer": {"class_name": "Ones", "config": {}}, "moving_mean_initializer": {"class_name": "Zeros", "config": {}}, "momentum": 0.999, "beta_initializer": {"class_name": "Zeros", "config": {}}, "gamma_constraint": null, "beta_regularizer": null, "axis": -1, "beta_constraint": null, "gamma_initializer": {"class_name": "Ones", "config": {}}, "center": true, "trainable": false, "scale": true}}, {"name": "expanded_conv_depthwise_relu", "class_name": "ReLU", "inbound_nodes": [[["expanded_conv_depthwise_BN", 0, 0, {}]]], "config": {"name": "expanded_conv_depthwise_relu", "max_value": 6.0, "threshold": 0.0, "trainable": false, "negative_slope": 0.0}}, {"name": "expanded_conv_project", "class_name": "Conv2D", "inbound_nodes": [[["expanded_conv_depthwise_relu", 0, 0, {}]]], "config": {"name": "expanded_conv_project", "use_bias": false, "activity_regularizer": null, "bias_constraint": null, "activation": "linear", "kernel_regularizer": null, "kernel_initializer": {"class_name": "VarianceScaling", "config": {"distribution": "uniform", "mode": "fan_avg", "scale": 1.0, "seed": null}}, "bias_regularizer": null, "filters": 16, "strides": [1, 1], "bias_initializer": {"class_name": "Zeros", "config": {}}, "kernel_constraint": null, "data_format": "channels_last", "padding": "same", "trainable": false, "kernel_size": [1, 1], "dilation_rate": [1, 1]}}, {"name": "expanded_conv_project_BN", "class_name": "BatchNormalization", "inbound_nodes": [[["expanded_conv_project", 0, 0, {}]]], "config": {"name": "expanded_conv_project_BN", "epsilon": 0.001, "gamma_regularizer": null, "moving_variance_initializer": {"class_name": "Ones", "config": {}}, "moving_mean_initializer": {"class_name": "Zeros", "config": {}}, "momentum": 0.999, "beta_initializer": {"class_name": "Zeros", "config": {}}, "gamma_constraint": null, "beta_regularizer": null, "axis": -1, "beta_constraint": null, "gamma_initializer": {"class_name": "Ones", "config": {}}, "center": true, "trainable": false, "scale": true}}, {"name": "block_1_expand", "class_name": "Conv2D", "inbound_nodes": [[["expanded_conv_project_BN", 0, 0, {}]]], "config": {"name": "block_1_expand", "use_bias": false, "activity_regularizer": null, "bias_constraint": null, "activation": "linear", "kernel_regularizer": null, "kernel_initializer": {"class_name": "VarianceScaling", "config": {"distribution": "uniform", "mode": "fan_avg", "scale": 1.0, "seed": null}}, "bias_regularizer": null, "filters": 96, "strides": [1, 1], "bias_initializer": {"class_name": "Zeros", "config": {}}, "kernel_constraint": null, "data_format": "channels_last", "padding": "same", "trainable": false, "kernel_size": [1, 1], "dilation_rate": [1, 1]}}, {"name": "block_1_expand_BN", "class_name": "BatchNormalization", "inbound_nodes": [[["block_1_expand", 0, 0, {}]]], "config": {"name": "block_1_expand_BN", "epsilon": 0.001, "gamma_regularizer": null, "moving_variance_initializer": {"class_name": "Ones", "config": {}}, "moving_mean_initializer": {"class_name": "Zeros", "config": {}}, "momentum": 0.999, "beta_initializer": {"class_name": "Zeros", "config": {}}, "gamma_constraint": null, "beta_regularizer": null, "axis": -1, "beta_constraint": null, "gamma_initializer": {"class_name": "Ones", "config": {}}, "center": true, "trainable": false, "scale": true}}, {"name": "block_1_expand_relu", "class_name": "ReLU", "inbound_nodes": [[["block_1_expand_BN", 0, 0, {}]]], "config": {"name": "block_1_expand_relu", "max_value": 6.0, "threshold": 0.0, "trainable": false, "negative_slope": 0.0}}, {"name": "block_1_pad", "class_name": "ZeroPadding2D", "inbound_nodes": [[["block_1_expand_relu", 0, 0, {}]]], "config": {"name": "block_1_pad", "padding": [[0, 1], [0, 1]], "trainable": false, "data_format": "channels_last"}}, {"name": "block_1_depthwise", "class_name": "DepthwiseConv2D", "inbound_nodes": [[["block_1_pad", 0, 0, {}]]], "config": {"name": "block_1_depthwise", "activity_regularizer": null, "depthwise_regularizer": null, "bias_constraint": null, "activation": "linear", "data_format": "channels_last", "depthwise_constraint": null, "bias_regularizer": null, "use_bias": false, "strides": [2, 2], "depthwise_initializer": {"class_name": "VarianceScaling", "config": {"distribution": "uniform", "mode": "fan_avg", "scale": 1.0, "seed": null}}, "bias_initializer": {"class_name": "Zeros", "config": {}}, "depth_multiplier": 1, "padding": "valid", "trainable": false, "kernel_size": [3, 3], "dilation_rate": [1, 1]}}, {"name": "block_1_depthwise_BN", "class_name": "BatchNormalization", "inbound_nodes": [[["block_1_depthwise", 0, 0, {}]]], "config": {"name": "block_1_depthwise_BN", "epsilon": 0.001, "gamma_regularizer": null, "moving_variance_initializer": {"class_name": "Ones", "config": {}}, "moving_mean_initializer": {"class_name": "Zeros", "config": {}}, "momentum": 0.999, "beta_initializer": {"class_name": "Zeros", "config": {}}, "gamma_constraint": null, "beta_regularizer": null, "axis": -1, "beta_constraint": null, "gamma_initializer": {"class_name": "Ones", "config": {}}, "center": true, "trainable": false, "scale": true}}, {"name": "block_1_depthwise_relu", "class_name": "ReLU", "inbound_nodes": [[["block_1_depthwise_BN", 0, 0, {}]]], "config": {"name": "block_1_depthwise_relu", "max_value": 6.0, "threshold": 0.0, "trainable": false, "negative_slope": 0.0}}, {"name": "block_1_project", "class_name": "Conv2D", "inbound_nodes": [[["block_1_depthwise_relu", 0, 0, {}]]], "config": {"name": "block_1_project", "use_bias": false, "activity_regularizer": null, "bias_constraint": null, "activation": "linear", "kernel_regularizer": null, "kernel_initializer": {"class_name": "VarianceScaling", "config": {"distribution": "uniform", "mode": "fan_avg", "scale": 1.0, "seed": null}}, "bias_regularizer": null, "filters": 24, "strides": [1, 1], "bias_initializer": {"class_name": "Zeros", "config": {}}, "kernel_constraint": null, "data_format": "channels_last", "padding": "same", "trainable": false, "kernel_size": [1, 1], "dilation_rate": [1, 1]}}, {"name": "block_1_project_BN", "class_name": "BatchNormalization", "inbound_nodes": [[["block_1_project", 0, 0, {}]]], "config": {"name": "block_1_project_BN", "epsilon": 0.001, "gamma_regularizer": null, "moving_variance_initializer": {"class_name": "Ones", "config": {}}, "moving_mean_initializer": {"class_name": "Zeros", "config": {}}, "momentum": 0.999, "beta_initializer": {"class_name": "Zeros", "config": {}}, "gamma_constraint": null, "beta_regularizer": null, "axis": -1, "beta_constraint": null, "gamma_initializer": {"class_name": "Ones", "config": {}}, "center": true, "trainable": false, "scale": true}}, {"name": "block_2_expand", "class_name": "Conv2D", "inbound_nodes": [[["block_1_project_BN", 0, 0, {}]]], "config": {"name": "block_2_expand", "use_bias": false, "activity_regularizer": null, "bias_constraint": null, "activation": "linear", "kernel_regularizer": null, "kernel_initializer": {"class_name": "VarianceScaling", "config": {"distribution": "uniform", "mode": "fan_avg", "scale": 1.0, "seed": null}}, "bias_regularizer": null, "filters": 144, "strides": [1, 1], "bias_initializer": {"class_name": "Zeros", "config": {}}, "kernel_constraint": null, "data_format": "channels_last", "padding": "same", "trainable": false, "kernel_size": [1, 1], "dilation_rate": [1, 1]}}, {"name": "block_2_expand_BN", "class_name": "BatchNormalization", "inbound_nodes": [[["block_2_expand", 0, 0, {}]]], "config": {"name": "block_2_expand_BN", "epsilon": 0.001, "gamma_regularizer": null, "moving_variance_initializer": {"class_name": "Ones", "config": {}}, "moving_mean_initializer": {"class_name": "Zeros", "config": {}}, "momentum": 0.999, "beta_initializer": {"class_name": "Zeros", "config": {}}, "gamma_constraint": null, "beta_regularizer": null, "axis": -1, "beta_constraint": null, "gamma_initializer": {"class_name": "Ones", "config": {}}, "center": true, "trainable": false, "scale": true}}, {"name": "block_2_expand_relu", "class_name": "ReLU", "inbound_nodes": [[["block_2_expand_BN", 0, 0, {}]]], "config": {"name": "block_2_expand_relu", "max_value": 6.0, "threshold": 0.0, "trainable": false, "negative_slope": 0.0}}, {"name": "block_2_depthwise", "class_name": "DepthwiseConv2D", "inbound_nodes": [[["block_2_expand_relu", 0, 0, {}]]], "config": {"name": "block_2_depthwise", "activity_regularizer": null, "depthwise_regularizer": null, "bias_constraint": null, "activation": "linear", "data_format": "channels_last", "depthwise_constraint": null, "bias_regularizer": null, "use_bias": false, "strides": [1, 1], "depthwise_initializer": {"class_name": "VarianceScaling", "config": {"distribution": "uniform", "mode": "fan_avg", "scale": 1.0, "seed": null}}, "bias_initializer": {"class_name": "Zeros", "config": {}}, "depth_multiplier": 1, "padding": "same", "trainable": false, "kernel_size": [3, 3], "dilation_rate": [1, 1]}}, {"name": "block_2_depthwise_BN", "class_name": "BatchNormalization", "inbound_nodes": [[["block_2_depthwise", 0, 0, {}]]], "config": {"name": "block_2_depthwise_BN", "epsilon": 0.001, "gamma_regularizer": null, "moving_variance_initializer": {"class_name": "Ones", "config": {}}, "moving_mean_initializer": {"class_name": "Zeros", "config": {}}, "momentum": 0.999, "beta_initializer": {"class_name": "Zeros", "config": {}}, "gamma_constraint": null, "beta_regularizer": null, "axis": -1, "beta_constraint": null, "gamma_initializer": {"class_name": "Ones", "config": {}}, "center": true, "trainable": false, "scale": true}}, {"name": "block_2_depthwise_relu", "class_name": "ReLU", "inbound_nodes": [[["block_2_depthwise_BN", 0, 0, {}]]], "config": {"name": "block_2_depthwise_relu", "max_value": 6.0, "threshold": 0.0, "trainable": false, "negative_slope": 0.0}}, {"name": "block_2_project", "class_name": "Conv2D", "inbound_nodes": [[["block_2_depthwise_relu", 0, 0, {}]]], "config": {"name": "block_2_project", "use_bias": false, "activity_regularizer": null, "bias_constraint": null, "activation": "linear", "kernel_regularizer": null, "kernel_initializer": {"class_name": "VarianceScaling", "config": {"distribution": "uniform", "mode": "fan_avg", "scale": 1.0, "seed": null}}, "bias_regularizer": null, "filters": 24, "strides": [1, 1], "bias_initializer": {"class_name": "Zeros", "config": {}}, "kernel_constraint": null, "data_format": "channels_last", "padding": "same", "trainable": false, "kernel_size": [1, 1], "dilation_rate": [1, 1]}}, {"name": "block_2_project_BN", "class_name": "BatchNormalization", "inbound_nodes": [[["block_2_project", 0, 0, {}]]], "config": {"name": "block_2_project_BN", "epsilon": 0.001, "gamma_regularizer": null, "moving_variance_initializer": {"class_name": "Ones", "config": {}}, "moving_mean_initializer": {"class_name": "Zeros", "config": {}}, "momentum": 0.999, "beta_initializer": {"class_name": "Zeros", "config": {}}, "gamma_constraint": null, "beta_regularizer": null, "axis": -1, "beta_constraint": null, "gamma_initializer": {"class_name": "Ones", "config": {}}, "center": true, "trainable": false, "scale": true}}, {"name": "block_2_add", "class_name": "Add", "inbound_nodes": [[["block_1_project_BN", 0, 0, {}], ["block_2_project_BN", 0, 0, {}]]], "config": {"name": "block_2_add", "trainable": false}}, {"name": "block_3_expand", "class_name": "Conv2D", "inbound_nodes": [[["block_2_add", 0, 0, {}]]], "config": {"name": "block_3_expand", "use_bias": false, "activity_regularizer": null, "bias_constraint": null, "activation": "linear", "kernel_regularizer": null, "kernel_initializer": {"class_name": "VarianceScaling", "config": {"distribution": "uniform", "mode": "fan_avg", "scale": 1.0, "seed": null}}, "bias_regularizer": null, "filters": 144, "strides": [1, 1], "bias_initializer": {"class_name": "Zeros", "config": {}}, "kernel_constraint": null, "data_format": "channels_last", "padding": "same", "trainable": false, "kernel_size": [1, 1], "dilation_rate": [1, 1]}}, {"name": "block_3_expand_BN", "class_name": "BatchNormalization", "inbound_nodes": [[["block_3_expand", 0, 0, {}]]], "config": {"name": "block_3_expand_BN", "epsilon": 0.001, "gamma_regularizer": null, "moving_variance_initializer": {"class_name": "Ones", "config": {}}, "moving_mean_initializer": {"class_name": "Zeros", "config": {}}, "momentum": 0.999, "beta_initializer": {"class_name": "Zeros", "config": {}}, "gamma_constraint": null, "beta_regularizer": null, "axis": -1, "beta_constraint": null, "gamma_initializer": {"class_name": "Ones", "config": {}}, "center": true, "trainable": false, "scale": true}}, {"name": "block_3_expand_relu", "class_name": "ReLU", "inbound_nodes": [[["block_3_expand_BN", 0, 0, {}]]], "config": {"name": "block_3_expand_relu", "max_value": 6.0, "threshold": 0.0, "trainable": false, "negative_slope": 0.0}}, {"name": "block_3_pad", "class_name": "ZeroPadding2D", "inbound_nodes": [[["block_3_expand_relu", 0, 0, {}]]], "config": {"name": "block_3_pad", "padding": [[0, 1], [0, 1]], "trainable": false, "data_format": "channels_last"}}, {"name": "block_3_depthwise", "class_name": "DepthwiseConv2D", "inbound_nodes": [[["block_3_pad", 0, 0, {}]]], "config": {"name": "block_3_depthwise", "activity_regularizer": null, "depthwise_regularizer": null, "bias_constraint": null, "activation": "linear", "data_format": "channels_last", "depthwise_constraint": null, "bias_regularizer": null, "use_bias": false, "strides": [2, 2], "depthwise_initializer": {"class_name": "VarianceScaling", "config": {"distribution": "uniform", "mode": "fan_avg", "scale": 1.0, "seed": null}}, "bias_initializer": {"class_name": "Zeros", "config": {}}, "depth_multiplier": 1, "padding": "valid", "trainable": false, "kernel_size": [3, 3], "dilation_rate": [1, 1]}}, {"name": "block_3_depthwise_BN", "class_name": "BatchNormalization", "inbound_nodes": [[["block_3_depthwise", 0, 0, {}]]], "config": {"name": "block_3_depthwise_BN", "epsilon": 0.001, "gamma_regularizer": null, "moving_variance_initializer": {"class_name": "Ones", "config": {}}, "moving_mean_initializer": {"class_name": "Zeros", "config": {}}, "momentum": 0.999, "beta_initializer": {"class_name": "Zeros", "config": {}}, "gamma_constraint": null, "beta_regularizer": null, "axis": -1, "beta_constraint": null, "gamma_initializer": {"class_name": "Ones", "config": {}}, "center": true, "trainable": false, "scale": true}}, {"name": "block_3_depthwise_relu", "class_name": "ReLU", "inbound_nodes": [[["block_3_depthwise_BN", 0, 0, {}]]], "config": {"name": "block_3_depthwise_relu", "max_value": 6.0, "threshold": 0.0, "trainable": false, "negative_slope": 0.0}}, {"name": "block_3_project", "class_name": "Conv2D", "inbound_nodes": [[["block_3_depthwise_relu", 0, 0, {}]]], "config": {"name": "block_3_project", "use_bias": false, "activity_regularizer": null, "bias_constraint": null, "activation": "linear", "kernel_regularizer": null, "kernel_initializer": {"class_name": "VarianceScaling", "config": {"distribution": "uniform", "mode": "fan_avg", "scale": 1.0, "seed": null}}, "bias_regularizer": null, "filters": 32, "strides": [1, 1], "bias_initializer": {"class_name": "Zeros", "config": {}}, "kernel_constraint": null, "data_format": "channels_last", "padding": "same", "trainable": false, "kernel_size": [1, 1], "dilation_rate": [1, 1]}}, {"name": "block_3_project_BN", "class_name": "BatchNormalization", "inbound_nodes": [[["block_3_project", 0, 0, {}]]], "config": {"name": "block_3_project_BN", "epsilon": 0.001, "gamma_regularizer": null, "moving_variance_initializer": {"class_name": "Ones", "config": {}}, "moving_mean_initializer": {"class_name": "Zeros", "config": {}}, "momentum": 0.999, "beta_initializer": {"class_name": "Zeros", "config": {}}, "gamma_constraint": null, "beta_regularizer": null, "axis": -1, "beta_constraint": null, "gamma_initializer": {"class_name": "Ones", "config": {}}, "center": true, "trainable": false, "scale": true}}, {"name": "block_4_expand", "class_name": "Conv2D", "inbound_nodes": [[["block_3_project_BN", 0, 0, {}]]], "config": {"name": "block_4_expand", "use_bias": false, "activity_regularizer": null, "bias_constraint": null, "activation": "linear", "kernel_regularizer": null, "kernel_initializer": {"class_name": "VarianceScaling", "config": {"distribution": "uniform", "mode": "fan_avg", "scale": 1.0, "seed": null}}, "bias_regularizer": null, "filters": 192, "strides": [1, 1], "bias_initializer": {"class_name": "Zeros", "config": {}}, "kernel_constraint": null, "data_format": "channels_last", "padding": "same", "trainable": false, "kernel_size": [1, 1], "dilation_rate": [1, 1]}}, {"name": "block_4_expand_BN", "class_name": "BatchNormalization", "inbound_nodes": [[["block_4_expand", 0, 0, {}]]], "config": {"name": "block_4_expand_BN", "epsilon": 0.001, "gamma_regularizer": null, "moving_variance_initializer": {"class_name": "Ones", "config": {}}, "moving_mean_initializer": {"class_name": "Zeros", "config": {}}, "momentum": 0.999, "beta_initializer": {"class_name": "Zeros", "config": {}}, "gamma_constraint": null, "beta_regularizer": null, "axis": -1, "beta_constraint": null, "gamma_initializer": {"class_name": "Ones", "config": {}}, "center": true, "trainable": false, "scale": true}}, {"name": "block_4_expand_relu", "class_name": "ReLU", "inbound_nodes": [[["block_4_expand_BN", 0, 0, {}]]], "config": {"name": "block_4_expand_relu", "max_value": 6.0, "threshold": 0.0, "trainable": false, "negative_slope": 0.0}}, {"name": "block_4_depthwise", "class_name": "DepthwiseConv2D", "inbound_nodes": [[["block_4_expand_relu", 0, 0, {}]]], "config": {"name": "block_4_depthwise", "activity_regularizer": null, "depthwise_regularizer": null, "bias_constraint": null, "activation": "linear", "data_format": "channels_last", "depthwise_constraint": null, "bias_regularizer": null, "use_bias": false, "strides": [1, 1], "depthwise_initializer": {"class_name": "VarianceScaling", "config": {"distribution": "uniform", "mode": "fan_avg", "scale": 1.0, "seed": null}}, "bias_initializer": {"class_name": "Zeros", "config": {}}, "depth_multiplier": 1, "padding": "same", "trainable": false, "kernel_size": [3, 3], "dilation_rate": [1, 1]}}, {"name": "block_4_depthwise_BN", "class_name": "BatchNormalization", "inbound_nodes": [[["block_4_depthwise", 0, 0, {}]]], "config": {"name": "block_4_depthwise_BN", "epsilon": 0.001, "gamma_regularizer": null, "moving_variance_initializer": {"class_name": "Ones", "config": {}}, "moving_mean_initializer": {"class_name": "Zeros", "config": {}}, "momentum": 0.999, "beta_initializer": {"class_name": "Zeros", "config": {}}, "gamma_constraint": null, "beta_regularizer": null, "axis": -1, "beta_constraint": null, "gamma_initializer": {"class_name": "Ones", "config": {}}, "center": true, "trainable": false, "scale": true}}, {"name": "block_4_depthwise_relu", "class_name": "ReLU", "inbound_nodes": [[["block_4_depthwise_BN", 0, 0, {}]]], "config": {"name": "block_4_depthwise_relu", "max_value": 6.0, "threshold": 0.0, "trainable": false, "negative_slope": 0.0}}, {"name": "block_4_project", "class_name": "Conv2D", "inbound_nodes": [[["block_4_depthwise_relu", 0, 0, {}]]], "config": {"name": "block_4_project", "use_bias": false, "activity_regularizer": null, "bias_constraint": null, "activation": "linear", "kernel_regularizer": null, "kernel_initializer": {"class_name": "VarianceScaling", "config": {"distribution": "uniform", "mode": "fan_avg", "scale": 1.0, "seed": null}}, "bias_regularizer": null, "filters": 32, "strides": [1, 1], "bias_initializer": {"class_name": "Zeros", "config": {}}, "kernel_constraint": null, "data_format": "channels_last", "padding": "same", "trainable": false, "kernel_size": [1, 1], "dilation_rate": [1, 1]}}, {"name": "block_4_project_BN", "class_name": "BatchNormalization", "inbound_nodes": [[["block_4_project", 0, 0, {}]]], "config": {"name": "block_4_project_BN", "epsilon": 0.001, "gamma_regularizer": null, "moving_variance_initializer": {"class_name": "Ones", "config": {}}, "moving_mean_initializer": {"class_name": "Zeros", "config": {}}, "momentum": 0.999, "beta_initializer": {"class_name": "Zeros", "config": {}}, "gamma_constraint": null, "beta_regularizer": null, "axis": -1, "beta_constraint": null, "gamma_initializer": {"class_name": "Ones", "config": {}}, "center": true, "trainable": false, "scale": true}}, {"name": "block_4_add", "class_name": "Add", "inbound_nodes": [[["block_3_project_BN", 0, 0, {}], ["block_4_project_BN", 0, 0, {}]]], "config": {"name": "block_4_add", "trainable": false}}, {"name": "block_5_expand", "class_name": "Conv2D", "inbound_nodes": [[["block_4_add", 0, 0, {}]]], "config": {"name": "block_5_expand", "use_bias": false, "activity_regularizer": null, "bias_constraint": null, "activation": "linear", "kernel_regularizer": null, "kernel_initializer": {"class_name": "VarianceScaling", "config": {"distribution": "uniform", "mode": "fan_avg", "scale": 1.0, "seed": null}}, "bias_regularizer": null, "filters": 192, "strides": [1, 1], "bias_initializer": {"class_name": "Zeros", "config": {}}, "kernel_constraint": null, "data_format": "channels_last", "padding": "same", "trainable": false, "kernel_size": [1, 1], "dilation_rate": [1, 1]}}, {"name": "block_5_expand_BN", "class_name": "BatchNormalization", "inbound_nodes": [[["block_5_expand", 0, 0, {}]]], "config": {"name": "block_5_expand_BN", "epsilon": 0.001, "gamma_regularizer": null, "moving_variance_initializer": {"class_name": "Ones", "config": {}}, "moving_mean_initializer": {"class_name": "Zeros", "config": {}}, "momentum": 0.999, "beta_initializer": {"class_name": "Zeros", "config": {}}, "gamma_constraint": null, "beta_regularizer": null, "axis": -1, "beta_constraint": null, "gamma_initializer": {"class_name": "Ones", "config": {}}, "center": true, "trainable": false, "scale": true}}, {"name": "block_5_expand_relu", "class_name": "ReLU", "inbound_nodes": [[["block_5_expand_BN", 0, 0, {}]]], "config": {"name": "block_5_expand_relu", "max_value": 6.0, "threshold": 0.0, "trainable": false, "negative_slope": 0.0}}, {"name": "block_5_depthwise", "class_name": "DepthwiseConv2D", "inbound_nodes": [[["block_5_expand_relu", 0, 0, {}]]], "config": {"name": "block_5_depthwise", "activity_regularizer": null, "depthwise_regularizer": null, "bias_constraint": null, "activation": "linear", "data_format": "channels_last", "depthwise_constraint": null, "bias_regularizer": null, "use_bias": false, "strides": [1, 1], "depthwise_initializer": {"class_name": "VarianceScaling", "config": {"distribution": "uniform", "mode": "fan_avg", "scale": 1.0, "seed": null}}, "bias_initializer": {"class_name": "Zeros", "config": {}}, "depth_multiplier": 1, "padding": "same", "trainable": false, "kernel_size": [3, 3], "dilation_rate": [1, 1]}}, {"name": "block_5_depthwise_BN", "class_name": "BatchNormalization", "inbound_nodes": [[["block_5_depthwise", 0, 0, {}]]], "config": {"name": "block_5_depthwise_BN", "epsilon": 0.001, "gamma_regularizer": null, "moving_variance_initializer": {"class_name": "Ones", "config": {}}, "moving_mean_initializer": {"class_name": "Zeros", "config": {}}, "momentum": 0.999, "beta_initializer": {"class_name": "Zeros", "config": {}}, "gamma_constraint": null, "beta_regularizer": null, "axis": -1, "beta_constraint": null, "gamma_initializer": {"class_name": "Ones", "config": {}}, "center": true, "trainable": false, "scale": true}}, {"name": "block_5_depthwise_relu", "class_name": "ReLU", "inbound_nodes": [[["block_5_depthwise_BN", 0, 0, {}]]], "config": {"name": "block_5_depthwise_relu", "max_value": 6.0, "threshold": 0.0, "trainable": false, "negative_slope": 0.0}}, {"name": "block_5_project", "class_name": "Conv2D", "inbound_nodes": [[["block_5_depthwise_relu", 0, 0, {}]]], "config": {"name": "block_5_project", "use_bias": false, "activity_regularizer": null, "bias_constraint": null, "activation": "linear", "kernel_regularizer": null, "kernel_initializer": {"class_name": "VarianceScaling", "config": {"distribution": "uniform", "mode": "fan_avg", "scale": 1.0, "seed": null}}, "bias_regularizer": null, "filters": 32, "strides": [1, 1], "bias_initializer": {"class_name": "Zeros", "config": {}}, "kernel_constraint": null, "data_format": "channels_last", "padding": "same", "trainable": false, "kernel_size": [1, 1], "dilation_rate": [1, 1]}}, {"name": "block_5_project_BN", "class_name": "BatchNormalization", "inbound_nodes": [[["block_5_project", 0, 0, {}]]], "config": {"name": "block_5_project_BN", "epsilon": 0.001, "gamma_regularizer": null, "moving_variance_initializer": {"class_name": "Ones", "config": {}}, "moving_mean_initializer": {"class_name": "Zeros", "config": {}}, "momentum": 0.999, "beta_initializer": {"class_name": "Zeros", "config": {}}, "gamma_constraint": null, "beta_regularizer": null, "axis": -1, "beta_constraint": null, "gamma_initializer": {"class_name": "Ones", "config": {}}, "center": true, "trainable": false, "scale": true}}, {"name": "block_5_add", "class_name": "Add", "inbound_nodes": [[["block_4_add", 0, 0, {}], ["block_5_project_BN", 0, 0, {}]]], "config": {"name": "block_5_add", "trainable": false}}, {"name": "block_6_expand", "class_name": "Conv2D", "inbound_nodes": [[["block_5_add", 0, 0, {}]]], "config": {"name": "block_6_expand", "use_bias": false, "activity_regularizer": null, "bias_constraint": null, "activation": "linear", "kernel_regularizer": null, "kernel_initializer": {"class_name": "VarianceScaling", "config": {"distribution": "uniform", "mode": "fan_avg", "scale": 1.0, "seed": null}}, "bias_regularizer": null, "filters": 192, "strides": [1, 1], "bias_initializer": {"class_name": "Zeros", "config": {}}, "kernel_constraint": null, "data_format": "channels_last", "padding": "same", "trainable": false, "kernel_size": [1, 1], "dilation_rate": [1, 1]}}, {"name": "block_6_expand_BN", "class_name": "BatchNormalization", "inbound_nodes": [[["block_6_expand", 0, 0, {}]]], "config": {"name": "block_6_expand_BN", "epsilon": 0.001, "gamma_regularizer": null, "moving_variance_initializer": {"class_name": "Ones", "config": {}}, "moving_mean_initializer": {"class_name": "Zeros", "config": {}}, "momentum": 0.999, "beta_initializer": {"class_name": "Zeros", "config": {}}, "gamma_constraint": null, "beta_regularizer": null, "axis": -1, "beta_constraint": null, "gamma_initializer": {"class_name": "Ones", "config": {}}, "center": true, "trainable": false, "scale": true}}, {"name": "block_6_expand_relu", "class_name": "ReLU", "inbound_nodes": [[["block_6_expand_BN", 0, 0, {}]]], "config": {"name": "block_6_expand_relu", "max_value": 6.0, "threshold": 0.0, "trainable": false, "negative_slope": 0.0}}, {"name": "block_6_pad", "class_name": "ZeroPadding2D", "inbound_nodes": [[["block_6_expand_relu", 0, 0, {}]]], "config": {"name": "block_6_pad", "padding": [[0, 1], [0, 1]], "trainable": false, "data_format": "channels_last"}}, {"name": "block_6_depthwise", "class_name": "DepthwiseConv2D", "inbound_nodes": [[["block_6_pad", 0, 0, {}]]], "config": {"name": "block_6_depthwise", "activity_regularizer": null, "depthwise_regularizer": null, "bias_constraint": null, "activation": "linear", "data_format": "channels_last", "depthwise_constraint": null, "bias_regularizer": null, "use_bias": false, "strides": [2, 2], "depthwise_initializer": {"class_name": "VarianceScaling", "config": {"distribution": "uniform", "mode": "fan_avg", "scale": 1.0, "seed": null}}, "bias_initializer": {"class_name": "Zeros", "config": {}}, "depth_multiplier": 1, "padding": "valid", "trainable": false, "kernel_size": [3, 3], "dilation_rate": [1, 1]}}, {"name": "block_6_depthwise_BN", "class_name": "BatchNormalization", "inbound_nodes": [[["block_6_depthwise", 0, 0, {}]]], "config": {"name": "block_6_depthwise_BN", "epsilon": 0.001, "gamma_regularizer": null, "moving_variance_initializer": {"class_name": "Ones", "config": {}}, "moving_mean_initializer": {"class_name": "Zeros", "config": {}}, "momentum": 0.999, "beta_initializer": {"class_name": "Zeros", "config": {}}, "gamma_constraint": null, "beta_regularizer": null, "axis": -1, "beta_constraint": null, "gamma_initializer": {"class_name": "Ones", "config": {}}, "center": true, "trainable": false, "scale": true}}, {"name": "block_6_depthwise_relu", "class_name": "ReLU", "inbound_nodes": [[["block_6_depthwise_BN", 0, 0, {}]]], "config": {"name": "block_6_depthwise_relu", "max_value": 6.0, "threshold": 0.0, "trainable": false, "negative_slope": 0.0}}, {"name": "block_6_project", "class_name": "Conv2D", "inbound_nodes": [[["block_6_depthwise_relu", 0, 0, {}]]], "config": {"name": "block_6_project", "use_bias": false, "activity_regularizer": null, "bias_constraint": null, "activation": "linear", "kernel_regularizer": null, "kernel_initializer": {"class_name": "VarianceScaling", "config": {"distribution": "uniform", "mode": "fan_avg", "scale": 1.0, "seed": null}}, "bias_regularizer": null, "filters": 64, "strides": [1, 1], "bias_initializer": {"class_name": "Zeros", "config": {}}, "kernel_constraint": null, "data_format": "channels_last", "padding": "same", "trainable": false, "kernel_size": [1, 1], "dilation_rate": [1, 1]}}, {"name": "block_6_project_BN", "class_name": "BatchNormalization", "inbound_nodes": [[["block_6_project", 0, 0, {}]]], "config": {"name": "block_6_project_BN", "epsilon": 0.001, "gamma_regularizer": null, "moving_variance_initializer": {"class_name": "Ones", "config": {}}, "moving_mean_initializer": {"class_name": "Zeros", "config": {}}, "momentum": 0.999, "beta_initializer": {"class_name": "Zeros", "config": {}}, "gamma_constraint": null, "beta_regularizer": null, "axis": -1, "beta_constraint": null, "gamma_initializer": {"class_name": "Ones", "config": {}}, "center": true, "trainable": false, "scale": true}}, {"name": "block_7_expand", "class_name": "Conv2D", "inbound_nodes": [[["block_6_project_BN", 0, 0, {}]]], "config": {"name": "block_7_expand", "use_bias": false, "activity_regularizer": null, "bias_constraint": null, "activation": "linear", "kernel_regularizer": null, "kernel_initializer": {"class_name": "VarianceScaling", "config": {"distribution": "uniform", "mode": "fan_avg", "scale": 1.0, "seed": null}}, "bias_regularizer": null, "filters": 384, "strides": [1, 1], "bias_initializer": {"class_name": "Zeros", "config": {}}, "kernel_constraint": null, "data_format": "channels_last", "padding": "same", "trainable": false, "kernel_size": [1, 1], "dilation_rate": [1, 1]}}, {"name": "block_7_expand_BN", "class_name": "BatchNormalization", "inbound_nodes": [[["block_7_expand", 0, 0, {}]]], "config": {"name": "block_7_expand_BN", "epsilon": 0.001, "gamma_regularizer": null, "moving_variance_initializer": {"class_name": "Ones", "config": {}}, "moving_mean_initializer": {"class_name": "Zeros", "config": {}}, "momentum": 0.999, "beta_initializer": {"class_name": "Zeros", "config": {}}, "gamma_constraint": null, "beta_regularizer": null, "axis": -1, "beta_constraint": null, "gamma_initializer": {"class_name": "Ones", "config": {}}, "center": true, "trainable": false, "scale": true}}, {"name": "block_7_expand_relu", "class_name": "ReLU", "inbound_nodes": [[["block_7_expand_BN", 0, 0, {}]]], "config": {"name": "block_7_expand_relu", "max_value": 6.0, "threshold": 0.0, "trainable": false, "negative_slope": 0.0}}, {"name": "block_7_depthwise", "class_name": "DepthwiseConv2D", "inbound_nodes": [[["block_7_expand_relu", 0, 0, {}]]], "config": {"name": "block_7_depthwise", "activity_regularizer": null, "depthwise_regularizer": null, "bias_constraint": null, "activation": "linear", "data_format": "channels_last", "depthwise_constraint": null, "bias_regularizer": null, "use_bias": false, "strides": [1, 1], "depthwise_initializer": {"class_name": "VarianceScaling", "config": {"distribution": "uniform", "mode": "fan_avg", "scale": 1.0, "seed": null}}, "bias_initializer": {"class_name": "Zeros", "config": {}}, "depth_multiplier": 1, "padding": "same", "trainable": false, "kernel_size": [3, 3], "dilation_rate": [1, 1]}}, {"name": "block_7_depthwise_BN", "class_name": "BatchNormalization", "inbound_nodes": [[["block_7_depthwise", 0, 0, {}]]], "config": {"name": "block_7_depthwise_BN", "epsilon": 0.001, "gamma_regularizer": null, "moving_variance_initializer": {"class_name": "Ones", "config": {}}, "moving_mean_initializer": {"class_name": "Zeros", "config": {}}, "momentum": 0.999, "beta_initializer": {"class_name": "Zeros", "config": {}}, "gamma_constraint": null, "beta_regularizer": null, "axis": -1, "beta_constraint": null, "gamma_initializer": {"class_name": "Ones", "config": {}}, "center": true, "trainable": false, "scale": true}}, {"name": "block_7_depthwise_relu", "class_name": "ReLU", "inbound_nodes": [[["block_7_depthwise_BN", 0, 0, {}]]], "config": {"name": "block_7_depthwise_relu", "max_value": 6.0, "threshold": 0.0, "trainable": false, "negative_slope": 0.0}}, {"name": "block_7_project", "class_name": "Conv2D", "inbound_nodes": [[["block_7_depthwise_relu", 0, 0, {}]]], "config": {"name": "block_7_project", "use_bias": false, "activity_regularizer": null, "bias_constraint": null, "activation": "linear", "kernel_regularizer": null, "kernel_initializer": {"class_name": "VarianceScaling", "config": {"distribution": "uniform", "mode": "fan_avg", "scale": 1.0, "seed": null}}, "bias_regularizer": null, "filters": 64, "strides": [1, 1], "bias_initializer": {"class_name": "Zeros", "config": {}}, "kernel_constraint": null, "data_format": "channels_last", "padding": "same", "trainable": false, "kernel_size": [1, 1], "dilation_rate": [1, 1]}}, {"name": "block_7_project_BN", "class_name": "BatchNormalization", "inbound_nodes": [[["block_7_project", 0, 0, {}]]], "config": {"name": "block_7_project_BN", "epsilon": 0.001, "gamma_regularizer": null, "moving_variance_initializer": {"class_name": "Ones", "config": {}}, "moving_mean_initializer": {"class_name": "Zeros", "config": {}}, "momentum": 0.999, "beta_initializer": {"class_name": "Zeros", "config": {}}, "gamma_constraint": null, "beta_regularizer": null, "axis": -1, "beta_constraint": null, "gamma_initializer": {"class_name": "Ones", "config": {}}, "center": true, "trainable": false, "scale": true}}, {"name": "block_7_add", "class_name": "Add", "inbound_nodes": [[["block_6_project_BN", 0, 0, {}], ["block_7_project_BN", 0, 0, {}]]], "config": {"name": "block_7_add", "trainable": false}}, {"name": "block_8_expand", "class_name": "Conv2D", "inbound_nodes": [[["block_7_add", 0, 0, {}]]], "config": {"name": "block_8_expand", "use_bias": false, "activity_regularizer": null, "bias_constraint": null, "activation": "linear", "kernel_regularizer": null, "kernel_initializer": {"class_name": "VarianceScaling", "config": {"distribution": "uniform", "mode": "fan_avg", "scale": 1.0, "seed": null}}, "bias_regularizer": null, "filters": 384, "strides": [1, 1], "bias_initializer": {"class_name": "Zeros", "config": {}}, "kernel_constraint": null, "data_format": "channels_last", "padding": "same", "trainable": false, "kernel_size": [1, 1], "dilation_rate": [1, 1]}}, {"name": "block_8_expand_BN", "class_name": "BatchNormalization", "inbound_nodes": [[["block_8_expand", 0, 0, {}]]], "config": {"name": "block_8_expand_BN", "epsilon": 0.001, "gamma_regularizer": null, "moving_variance_initializer": {"class_name": "Ones", "config": {}}, "moving_mean_initializer": {"class_name": "Zeros", "config": {}}, "momentum": 0.999, "beta_initializer": {"class_name": "Zeros", "config": {}}, "gamma_constraint": null, "beta_regularizer": null, "axis": -1, "beta_constraint": null, "gamma_initializer": {"class_name": "Ones", "config": {}}, "center": true, "trainable": false, "scale": true}}, {"name": "block_8_expand_relu", "class_name": "ReLU", "inbound_nodes": [[["block_8_expand_BN", 0, 0, {}]]], "config": {"name": "block_8_expand_relu", "max_value": 6.0, "threshold": 0.0, "trainable": false, "negative_slope": 0.0}}, {"name": "block_8_depthwise", "class_name": "DepthwiseConv2D", "inbound_nodes": [[["block_8_expand_relu", 0, 0, {}]]], "config": {"name": "block_8_depthwise", "activity_regularizer": null, "depthwise_regularizer": null, "bias_constraint": null, "activation": "linear", "data_format": "channels_last", "depthwise_constraint": null, "bias_regularizer": null, "use_bias": false, "strides": [1, 1], "depthwise_initializer": {"class_name": "VarianceScaling", "config": {"distribution": "uniform", "mode": "fan_avg", "scale": 1.0, "seed": null}}, "bias_initializer": {"class_name": "Zeros", "config": {}}, "depth_multiplier": 1, "padding": "same", "trainable": false, "kernel_size": [3, 3], "dilation_rate": [1, 1]}}, {"name": "block_8_depthwise_BN", "class_name": "BatchNormalization", "inbound_nodes": [[["block_8_depthwise", 0, 0, {}]]], "config": {"name": "block_8_depthwise_BN", "epsilon": 0.001, "gamma_regularizer": null, "moving_variance_initializer": {"class_name": "Ones", "config": {}}, "moving_mean_initializer": {"class_name": "Zeros", "config": {}}, "momentum": 0.999, "beta_initializer": {"class_name": "Zeros", "config": {}}, "gamma_constraint": null, "beta_regularizer": null, "axis": -1, "beta_constraint": null, "gamma_initializer": {"class_name": "Ones", "config": {}}, "center": true, "trainable": false, "scale": true}}, {"name": "block_8_depthwise_relu", "class_name": "ReLU", "inbound_nodes": [[["block_8_depthwise_BN", 0, 0, {}]]], "config": {"name": "block_8_depthwise_relu", "max_value": 6.0, "threshold": 0.0, "trainable": false, "negative_slope": 0.0}}, {"name": "block_8_project", "class_name": "Conv2D", "inbound_nodes": [[["block_8_depthwise_relu", 0, 0, {}]]], "config": {"name": "block_8_project", "use_bias": false, "activity_regularizer": null, "bias_constraint": null, "activation": "linear", "kernel_regularizer": null, "kernel_initializer": {"class_name": "VarianceScaling", "config": {"distribution": "uniform", "mode": "fan_avg", "scale": 1.0, "seed": null}}, "bias_regularizer": null, "filters": 64, "strides": [1, 1], "bias_initializer": {"class_name": "Zeros", "config": {}}, "kernel_constraint": null, "data_format": "channels_last", "padding": "same", "trainable": false, "kernel_size": [1, 1], "dilation_rate": [1, 1]}}, {"name": "block_8_project_BN", "class_name": "BatchNormalization", "inbound_nodes": [[["block_8_project", 0, 0, {}]]], "config": {"name": "block_8_project_BN", "epsilon": 0.001, "gamma_regularizer": null, "moving_variance_initializer": {"class_name": "Ones", "config": {}}, "moving_mean_initializer": {"class_name": "Zeros", "config": {}}, "momentum": 0.999, "beta_initializer": {"class_name": "Zeros", "config": {}}, "gamma_constraint": null, "beta_regularizer": null, "axis": -1, "beta_constraint": null, "gamma_initializer": {"class_name": "Ones", "config": {}}, "center": true, "trainable": false, "scale": true}}, {"name": "block_8_add", "class_name": "Add", "inbound_nodes": [[["block_7_add", 0, 0, {}], ["block_8_project_BN", 0, 0, {}]]], "config": {"name": "block_8_add", "trainable": false}}, {"name": "block_9_expand", "class_name": "Conv2D", "inbound_nodes": [[["block_8_add", 0, 0, {}]]], "config": {"name": "block_9_expand", "use_bias": false, "activity_regularizer": null, "bias_constraint": null, "activation": "linear", "kernel_regularizer": null, "kernel_initializer": {"class_name": "VarianceScaling", "config": {"distribution": "uniform", "mode": "fan_avg", "scale": 1.0, "seed": null}}, "bias_regularizer": null, "filters": 384, "strides": [1, 1], "bias_initializer": {"class_name": "Zeros", "config": {}}, "kernel_constraint": null, "data_format": "channels_last", "padding": "same", "trainable": false, "kernel_size": [1, 1], "dilation_rate": [1, 1]}}, {"name": "block_9_expand_BN", "class_name": "BatchNormalization", "inbound_nodes": [[["block_9_expand", 0, 0, {}]]], "config": {"name": "block_9_expand_BN", "epsilon": 0.001, "gamma_regularizer": null, "moving_variance_initializer": {"class_name": "Ones", "config": {}}, "moving_mean_initializer": {"class_name": "Zeros", "config": {}}, "momentum": 0.999, "beta_initializer": {"class_name": "Zeros", "config": {}}, "gamma_constraint": null, "beta_regularizer": null, "axis": -1, "beta_constraint": null, "gamma_initializer": {"class_name": "Ones", "config": {}}, "center": true, "trainable": false, "scale": true}}, {"name": "block_9_expand_relu", "class_name": "ReLU", "inbound_nodes": [[["block_9_expand_BN", 0, 0, {}]]], "config": {"name": "block_9_expand_relu", "max_value": 6.0, "threshold": 0.0, "trainable": false, "negative_slope": 0.0}}, {"name": "block_9_depthwise", "class_name": "DepthwiseConv2D", "inbound_nodes": [[["block_9_expand_relu", 0, 0, {}]]], "config": {"name": "block_9_depthwise", "activity_regularizer": null, "depthwise_regularizer": null, "bias_constraint": null, "activation": "linear", "data_format": "channels_last", "depthwise_constraint": null, "bias_regularizer": null, "use_bias": false, "strides": [1, 1], "depthwise_initializer": {"class_name": "VarianceScaling", "config": {"distribution": "uniform", "mode": "fan_avg", "scale": 1.0, "seed": null}}, "bias_initializer": {"class_name": "Zeros", "config": {}}, "depth_multiplier": 1, "padding": "same", "trainable": false, "kernel_size": [3, 3], "dilation_rate": [1, 1]}}, {"name": "block_9_depthwise_BN", "class_name": "BatchNormalization", "inbound_nodes": [[["block_9_depthwise", 0, 0, {}]]], "config": {"name": "block_9_depthwise_BN", "epsilon": 0.001, "gamma_regularizer": null, "moving_variance_initializer": {"class_name": "Ones", "config": {}}, "moving_mean_initializer": {"class_name": "Zeros", "config": {}}, "momentum": 0.999, "beta_initializer": {"class_name": "Zeros", "config": {}}, "gamma_constraint": null, "beta_regularizer": null, "axis": -1, "beta_constraint": null, "gamma_initializer": {"class_name": "Ones", "config": {}}, "center": true, "trainable": false, "scale": true}}, {"name": "block_9_depthwise_relu", "class_name": "ReLU", "inbound_nodes": [[["block_9_depthwise_BN", 0, 0, {}]]], "config": {"name": "block_9_depthwise_relu", "max_value": 6.0, "threshold": 0.0, "trainable": false, "negative_slope": 0.0}}, {"name": "block_9_project", "class_name": "Conv2D", "inbound_nodes": [[["block_9_depthwise_relu", 0, 0, {}]]], "config": {"name": "block_9_project", "use_bias": false, "activity_regularizer": null, "bias_constraint": null, "activation": "linear", "kernel_regularizer": null, "kernel_initializer": {"class_name": "VarianceScaling", "config": {"distribution": "uniform", "mode": "fan_avg", "scale": 1.0, "seed": null}}, "bias_regularizer": null, "filters": 64, "strides": [1, 1], "bias_initializer": {"class_name": "Zeros", "config": {}}, "kernel_constraint": null, "data_format": "channels_last", "padding": "same", "trainable": false, "kernel_size": [1, 1], "dilation_rate": [1, 1]}}, {"name": "block_9_project_BN", "class_name": "BatchNormalization", "inbound_nodes": [[["block_9_project", 0, 0, {}]]], "config": {"name": "block_9_project_BN", "epsilon": 0.001, "gamma_regularizer": null, "moving_variance_initializer": {"class_name": "Ones", "config": {}}, "moving_mean_initializer": {"class_name": "Zeros", "config": {}}, "momentum": 0.999, "beta_initializer": {"class_name": "Zeros", "config": {}}, "gamma_constraint": null, "beta_regularizer": null, "axis": -1, "beta_constraint": null, "gamma_initializer": {"class_name": "Ones", "config": {}}, "center": true, "trainable": false, "scale": true}}, {"name": "block_9_add", "class_name": "Add", "inbound_nodes": [[["block_8_add", 0, 0, {}], ["block_9_project_BN", 0, 0, {}]]], "config": {"name": "block_9_add", "trainable": false}}, {"name": "block_10_expand", "class_name": "Conv2D", "inbound_nodes": [[["block_9_add", 0, 0, {}]]], "config": {"name": "block_10_expand", "use_bias": false, "activity_regularizer": null, "bias_constraint": null, "activation": "linear", "kernel_regularizer": null, "kernel_initializer": {"class_name": "VarianceScaling", "config": {"distribution": "uniform", "mode": "fan_avg", "scale": 1.0, "seed": null}}, "bias_regularizer": null, "filters": 384, "strides": [1, 1], "bias_initializer": {"class_name": "Zeros", "config": {}}, "kernel_constraint": null, "data_format": "channels_last", "padding": "same", "trainable": false, "kernel_size": [1, 1], "dilation_rate": [1, 1]}}, {"name": "block_10_expand_BN", "class_name": "BatchNormalization", "inbound_nodes": [[["block_10_expand", 0, 0, {}]]], "config": {"name": "block_10_expand_BN", "epsilon": 0.001, "gamma_regularizer": null, "moving_variance_initializer": {"class_name": "Ones", "config": {}}, "moving_mean_initializer": {"class_name": "Zeros", "config": {}}, "momentum": 0.999, "beta_initializer": {"class_name": "Zeros", "config": {}}, "gamma_constraint": null, "beta_regularizer": null, "axis": -1, "beta_constraint": null, "gamma_initializer": {"class_name": "Ones", "config": {}}, "center": true, "trainable": false, "scale": true}}, {"name": "block_10_expand_relu", "class_name": "ReLU", "inbound_nodes": [[["block_10_expand_BN", 0, 0, {}]]], "config": {"name": "block_10_expand_relu", "max_value": 6.0, "threshold": 0.0, "trainable": false, "negative_slope": 0.0}}, {"name": "block_10_depthwise", "class_name": "DepthwiseConv2D", "inbound_nodes": [[["block_10_expand_relu", 0, 0, {}]]], "config": {"name": "block_10_depthwise", "activity_regularizer": null, "depthwise_regularizer": null, "bias_constraint": null, "activation": "linear", "data_format": "channels_last", "depthwise_constraint": null, "bias_regularizer": null, "use_bias": false, "strides": [1, 1], "depthwise_initializer": {"class_name": "VarianceScaling", "config": {"distribution": "uniform", "mode": "fan_avg", "scale": 1.0, "seed": null}}, "bias_initializer": {"class_name": "Zeros", "config": {}}, "depth_multiplier": 1, "padding": "same", "trainable": false, "kernel_size": [3, 3], "dilation_rate": [1, 1]}}, {"name": "block_10_depthwise_BN", "class_name": "BatchNormalization", "inbound_nodes": [[["block_10_depthwise", 0, 0, {}]]], "config": {"name": "block_10_depthwise_BN", "epsilon": 0.001, "gamma_regularizer": null, "moving_variance_initializer": {"class_name": "Ones", "config": {}}, "moving_mean_initializer": {"class_name": "Zeros", "config": {}}, "momentum": 0.999, "beta_initializer": {"class_name": "Zeros", "config": {}}, "gamma_constraint": null, "beta_regularizer": null, "axis": -1, "beta_constraint": null, "gamma_initializer": {"class_name": "Ones", "config": {}}, "center": true, "trainable": false, "scale": true}}, {"name": "block_10_depthwise_relu", "class_name": "ReLU", "inbound_nodes": [[["block_10_depthwise_BN", 0, 0, {}]]], "config": {"name": "block_10_depthwise_relu", "max_value": 6.0, "threshold": 0.0, "trainable": false, "negative_slope": 0.0}}, {"name": "block_10_project", "class_name": "Conv2D", "inbound_nodes": [[["block_10_depthwise_relu", 0, 0, {}]]], "config": {"name": "block_10_project", "use_bias": false, "activity_regularizer": null, "bias_constraint": null, "activation": "linear", "kernel_regularizer": null, "kernel_initializer": {"class_name": "VarianceScaling", "config": {"distribution": "uniform", "mode": "fan_avg", "scale": 1.0, "seed": null}}, "bias_regularizer": null, "filters": 96, "strides": [1, 1], "bias_initializer": {"class_name": "Zeros", "config": {}}, "kernel_constraint": null, "data_format": "channels_last", "padding": "same", "trainable": false, "kernel_size": [1, 1], "dilation_rate": [1, 1]}}, {"name": "block_10_project_BN", "class_name": "BatchNormalization", "inbound_nodes": [[["block_10_project", 0, 0, {}]]], "config": {"name": "block_10_project_BN", "epsilon": 0.001, "gamma_regularizer": null, "moving_variance_initializer": {"class_name": "Ones", "config": {}}, "moving_mean_initializer": {"class_name": "Zeros", "config": {}}, "momentum": 0.999, "beta_initializer": {"class_name": "Zeros", "config": {}}, "gamma_constraint": null, "beta_regularizer": null, "axis": -1, "beta_constraint": null, "gamma_initializer": {"class_name": "Ones", "config": {}}, "center": true, "trainable": false, "scale": true}}, {"name": "block_11_expand", "class_name": "Conv2D", "inbound_nodes": [[["block_10_project_BN", 0, 0, {}]]], "config": {"name": "block_11_expand", "use_bias": false, "activity_regularizer": null, "bias_constraint": null, "activation": "linear", "kernel_regularizer": null, "kernel_initializer": {"class_name": "VarianceScaling", "config": {"distribution": "uniform", "mode": "fan_avg", "scale": 1.0, "seed": null}}, "bias_regularizer": null, "filters": 576, "strides": [1, 1], "bias_initializer": {"class_name": "Zeros", "config": {}}, "kernel_constraint": null, "data_format": "channels_last", "padding": "same", "trainable": false, "kernel_size": [1, 1], "dilation_rate": [1, 1]}}, {"name": "block_11_expand_BN", "class_name": "BatchNormalization", "inbound_nodes": [[["block_11_expand", 0, 0, {}]]], "config": {"name": "block_11_expand_BN", "epsilon": 0.001, "gamma_regularizer": null, "moving_variance_initializer": {"class_name": "Ones", "config": {}}, "moving_mean_initializer": {"class_name": "Zeros", "config": {}}, "momentum": 0.999, "beta_initializer": {"class_name": "Zeros", "config": {}}, "gamma_constraint": null, "beta_regularizer": null, "axis": -1, "beta_constraint": null, "gamma_initializer": {"class_name": "Ones", "config": {}}, "center": true, "trainable": false, "scale": true}}, {"name": "block_11_expand_relu", "class_name": "ReLU", "inbound_nodes": [[["block_11_expand_BN", 0, 0, {}]]], "config": {"name": "block_11_expand_relu", "max_value": 6.0, "threshold": 0.0, "trainable": false, "negative_slope": 0.0}}, {"name": "block_11_depthwise", "class_name": "DepthwiseConv2D", "inbound_nodes": [[["block_11_expand_relu", 0, 0, {}]]], "config": {"name": "block_11_depthwise", "activity_regularizer": null, "depthwise_regularizer": null, "bias_constraint": null, "activation": "linear", "data_format": "channels_last", "depthwise_constraint": null, "bias_regularizer": null, "use_bias": false, "strides": [1, 1], "depthwise_initializer": {"class_name": "VarianceScaling", "config": {"distribution": "uniform", "mode": "fan_avg", "scale": 1.0, "seed": null}}, "bias_initializer": {"class_name": "Zeros", "config": {}}, "depth_multiplier": 1, "padding": "same", "trainable": false, "kernel_size": [3, 3], "dilation_rate": [1, 1]}}, {"name": "block_11_depthwise_BN", "class_name": "BatchNormalization", "inbound_nodes": [[["block_11_depthwise", 0, 0, {}]]], "config": {"name": "block_11_depthwise_BN", "epsilon": 0.001, "gamma_regularizer": null, "moving_variance_initializer": {"class_name": "Ones", "config": {}}, "moving_mean_initializer": {"class_name": "Zeros", "config": {}}, "momentum": 0.999, "beta_initializer": {"class_name": "Zeros", "config": {}}, "gamma_constraint": null, "beta_regularizer": null, "axis": -1, "beta_constraint": null, "gamma_initializer": {"class_name": "Ones", "config": {}}, "center": true, "trainable": false, "scale": true}}, {"name": "block_11_depthwise_relu", "class_name": "ReLU", "inbound_nodes": [[["block_11_depthwise_BN", 0, 0, {}]]], "config": {"name": "block_11_depthwise_relu", "max_value": 6.0, "threshold": 0.0, "trainable": false, "negative_slope": 0.0}}, {"name": "block_11_project", "class_name": "Conv2D", "inbound_nodes": [[["block_11_depthwise_relu", 0, 0, {}]]], "config": {"name": "block_11_project", "use_bias": false, "activity_regularizer": null, "bias_constraint": null, "activation": "linear", "kernel_regularizer": null, "kernel_initializer": {"class_name": "VarianceScaling", "config": {"distribution": "uniform", "mode": "fan_avg", "scale": 1.0, "seed": null}}, "bias_regularizer": null, "filters": 96, "strides": [1, 1], "bias_initializer": {"class_name": "Zeros", "config": {}}, "kernel_constraint": null, "data_format": "channels_last", "padding": "same", "trainable": false, "kernel_size": [1, 1], "dilation_rate": [1, 1]}}, {"name": "block_11_project_BN", "class_name": "BatchNormalization", "inbound_nodes": [[["block_11_project", 0, 0, {}]]], "config": {"name": "block_11_project_BN", "epsilon": 0.001, "gamma_regularizer": null, "moving_variance_initializer": {"class_name": "Ones", "config": {}}, "moving_mean_initializer": {"class_name": "Zeros", "config": {}}, "momentum": 0.999, "beta_initializer": {"class_name": "Zeros", "config": {}}, "gamma_constraint": null, "beta_regularizer": null, "axis": -1, "beta_constraint": null, "gamma_initializer": {"class_name": "Ones", "config": {}}, "center": true, "trainable": false, "scale": true}}, {"name": "block_11_add", "class_name": "Add", "inbound_nodes": [[["block_10_project_BN", 0, 0, {}], ["block_11_project_BN", 0, 0, {}]]], "config": {"name": "block_11_add", "trainable": false}}, {"name": "block_12_expand", "class_name": "Conv2D", "inbound_nodes": [[["block_11_add", 0, 0, {}]]], "config": {"name": "block_12_expand", "use_bias": false, "activity_regularizer": null, "bias_constraint": null, "activation": "linear", "kernel_regularizer": null, "kernel_initializer": {"class_name": "VarianceScaling", "config": {"distribution": "uniform", "mode": "fan_avg", "scale": 1.0, "seed": null}}, "bias_regularizer": null, "filters": 576, "strides": [1, 1], "bias_initializer": {"class_name": "Zeros", "config": {}}, "kernel_constraint": null, "data_format": "channels_last", "padding": "same", "trainable": false, "kernel_size": [1, 1], "dilation_rate": [1, 1]}}, {"name": "block_12_expand_BN", "class_name": "BatchNormalization", "inbound_nodes": [[["block_12_expand", 0, 0, {}]]], "config": {"name": "block_12_expand_BN", "epsilon": 0.001, "gamma_regularizer": null, "moving_variance_initializer": {"class_name": "Ones", "config": {}}, "moving_mean_initializer": {"class_name": "Zeros", "config": {}}, "momentum": 0.999, "beta_initializer": {"class_name": "Zeros", "config": {}}, "gamma_constraint": null, "beta_regularizer": null, "axis": -1, "beta_constraint": null, "gamma_initializer": {"class_name": "Ones", "config": {}}, "center": true, "trainable": false, "scale": true}}, {"name": "block_12_expand_relu", "class_name": "ReLU", "inbound_nodes": [[["block_12_expand_BN", 0, 0, {}]]], "config": {"name": "block_12_expand_relu", "max_value": 6.0, "threshold": 0.0, "trainable": false, "negative_slope": 0.0}}, {"name": "block_12_depthwise", "class_name": "DepthwiseConv2D", "inbound_nodes": [[["block_12_expand_relu", 0, 0, {}]]], "config": {"name": "block_12_depthwise", "activity_regularizer": null, "depthwise_regularizer": null, "bias_constraint": null, "activation": "linear", "data_format": "channels_last", "depthwise_constraint": null, "bias_regularizer": null, "use_bias": false, "strides": [1, 1], "depthwise_initializer": {"class_name": "VarianceScaling", "config": {"distribution": "uniform", "mode": "fan_avg", "scale": 1.0, "seed": null}}, "bias_initializer": {"class_name": "Zeros", "config": {}}, "depth_multiplier": 1, "padding": "same", "trainable": false, "kernel_size": [3, 3], "dilation_rate": [1, 1]}}, {"name": "block_12_depthwise_BN", "class_name": "BatchNormalization", "inbound_nodes": [[["block_12_depthwise", 0, 0, {}]]], "config": {"name": "block_12_depthwise_BN", "epsilon": 0.001, "gamma_regularizer": null, "moving_variance_initializer": {"class_name": "Ones", "config": {}}, "moving_mean_initializer": {"class_name": "Zeros", "config": {}}, "momentum": 0.999, "beta_initializer": {"class_name": "Zeros", "config": {}}, "gamma_constraint": null, "beta_regularizer": null, "axis": -1, "beta_constraint": null, "gamma_initializer": {"class_name": "Ones", "config": {}}, "center": true, "trainable": false, "scale": true}}, {"name": "block_12_depthwise_relu", "class_name": "ReLU", "inbound_nodes": [[["block_12_depthwise_BN", 0, 0, {}]]], "config": {"name": "block_12_depthwise_relu", "max_value": 6.0, "threshold": 0.0, "trainable": false, "negative_slope": 0.0}}, {"name": "block_12_project", "class_name": "Conv2D", "inbound_nodes": [[["block_12_depthwise_relu", 0, 0, {}]]], "config": {"name": "block_12_project", "use_bias": false, "activity_regularizer": null, "bias_constraint": null, "activation": "linear", "kernel_regularizer": null, "kernel_initializer": {"class_name": "VarianceScaling", "config": {"distribution": "uniform", "mode": "fan_avg", "scale": 1.0, "seed": null}}, "bias_regularizer": null, "filters": 96, "strides": [1, 1], "bias_initializer": {"class_name": "Zeros", "config": {}}, "kernel_constraint": null, "data_format": "channels_last", "padding": "same", "trainable": false, "kernel_size": [1, 1], "dilation_rate": [1, 1]}}, {"name": "block_12_project_BN", "class_name": "BatchNormalization", "inbound_nodes": [[["block_12_project", 0, 0, {}]]], "config": {"name": "block_12_project_BN", "epsilon": 0.001, "gamma_regularizer": null, "moving_variance_initializer": {"class_name": "Ones", "config": {}}, "moving_mean_initializer": {"class_name": "Zeros", "config": {}}, "momentum": 0.999, "beta_initializer": {"class_name": "Zeros", "config": {}}, "gamma_constraint": null, "beta_regularizer": null, "axis": -1, "beta_constraint": null, "gamma_initializer": {"class_name": "Ones", "config": {}}, "center": true, "trainable": false, "scale": true}}, {"name": "block_12_add", "class_name": "Add", "inbound_nodes": [[["block_11_add", 0, 0, {}], ["block_12_project_BN", 0, 0, {}]]], "config": {"name": "block_12_add", "trainable": false}}, {"name": "block_13_expand", "class_name": "Conv2D", "inbound_nodes": [[["block_12_add", 0, 0, {}]]], "config": {"name": "block_13_expand", "use_bias": false, "activity_regularizer": null, "bias_constraint": null, "activation": "linear", "kernel_regularizer": null, "kernel_initializer": {"class_name": "VarianceScaling", "config": {"distribution": "uniform", "mode": "fan_avg", "scale": 1.0, "seed": null}}, "bias_regularizer": null, "filters": 576, "strides": [1, 1], "bias_initializer": {"class_name": "Zeros", "config": {}}, "kernel_constraint": null, "data_format": "channels_last", "padding": "same", "trainable": false, "kernel_size": [1, 1], "dilation_rate": [1, 1]}}, {"name": "block_13_expand_BN", "class_name": "BatchNormalization", "inbound_nodes": [[["block_13_expand", 0, 0, {}]]], "config": {"name": "block_13_expand_BN", "epsilon": 0.001, "gamma_regularizer": null, "moving_variance_initializer": {"class_name": "Ones", "config": {}}, "moving_mean_initializer": {"class_name": "Zeros", "config": {}}, "momentum": 0.999, "beta_initializer": {"class_name": "Zeros", "config": {}}, "gamma_constraint": null, "beta_regularizer": null, "axis": -1, "beta_constraint": null, "gamma_initializer": {"class_name": "Ones", "config": {}}, "center": true, "trainable": false, "scale": true}}, {"name": "block_13_expand_relu", "class_name": "ReLU", "inbound_nodes": [[["block_13_expand_BN", 0, 0, {}]]], "config": {"name": "block_13_expand_relu", "max_value": 6.0, "threshold": 0.0, "trainable": false, "negative_slope": 0.0}}, {"name": "block_13_pad", "class_name": "ZeroPadding2D", "inbound_nodes": [[["block_13_expand_relu", 0, 0, {}]]], "config": {"name": "block_13_pad", "padding": [[0, 1], [0, 1]], "trainable": false, "data_format": "channels_last"}}, {"name": "block_13_depthwise", "class_name": "DepthwiseConv2D", "inbound_nodes": [[["block_13_pad", 0, 0, {}]]], "config": {"name": "block_13_depthwise", "activity_regularizer": null, "depthwise_regularizer": null, "bias_constraint": null, "activation": "linear", "data_format": "channels_last", "depthwise_constraint": null, "bias_regularizer": null, "use_bias": false, "strides": [2, 2], "depthwise_initializer": {"class_name": "VarianceScaling", "config": {"distribution": "uniform", "mode": "fan_avg", "scale": 1.0, "seed": null}}, "bias_initializer": {"class_name": "Zeros", "config": {}}, "depth_multiplier": 1, "padding": "valid", "trainable": true, "kernel_size": [3, 3], "dilation_rate": [1, 1]}}, {"name": "block_13_depthwise_BN", "class_name": "BatchNormalization", "inbound_nodes": [[["block_13_depthwise", 0, 0, {}]]], "config": {"name": "block_13_depthwise_BN", "epsilon": 0.001, "gamma_regularizer": null, "moving_variance_initializer": {"class_name": "Ones", "config": {}}, "moving_mean_initializer": {"class_name": "Zeros", "config": {}}, "momentum": 0.999, "beta_initializer": {"class_name": "Zeros", "config": {}}, "gamma_constraint": null, "beta_regularizer": null, "axis": -1, "beta_constraint": null, "gamma_initializer": {"class_name": "Ones", "config": {}}, "center": true, "trainable": true, "scale": true}}, {"name": "block_13_depthwise_relu", "class_name": "ReLU", "inbound_nodes": [[["block_13_depthwise_BN", 0, 0, {}]]], "config": {"name": "block_13_depthwise_relu", "max_value": 6.0, "threshold": 0.0, "trainable": true, "negative_slope": 0.0}}, {"name": "block_13_project", "class_name": "Conv2D", "inbound_nodes": [[["block_13_depthwise_relu", 0, 0, {}]]], "config": {"name": "block_13_project", "use_bias": false, "activity_regularizer": null, "bias_constraint": null, "activation": "linear", "kernel_regularizer": null, "kernel_initializer": {"class_name": "VarianceScaling", "config": {"distribution": "uniform", "mode": "fan_avg", "scale": 1.0, "seed": null}}, "bias_regularizer": null, "filters": 160, "strides": [1, 1], "bias_initializer": {"class_name": "Zeros", "config": {}}, "kernel_constraint": null, "data_format": "channels_last", "padding": "same", "trainable": true, "kernel_size": [1, 1], "dilation_rate": [1, 1]}}, {"name": "block_13_project_BN", "class_name": "BatchNormalization", "inbound_nodes": [[["block_13_project", 0, 0, {}]]], "config": {"name": "block_13_project_BN", "epsilon": 0.001, "gamma_regularizer": null, "moving_variance_initializer": {"class_name": "Ones", "config": {}}, "moving_mean_initializer": {"class_name": "Zeros", "config": {}}, "momentum": 0.999, "beta_initializer": {"class_name": "Zeros", "config": {}}, "gamma_constraint": null, "beta_regularizer": null, "axis": -1, "beta_constraint": null, "gamma_initializer": {"class_name": "Ones", "config": {}}, "center": true, "trainable": true, "scale": true}}, {"name": "block_14_expand", "class_name": "Conv2D", "inbound_nodes": [[["block_13_project_BN", 0, 0, {}]]], "config": {"name": "block_14_expand", "use_bias": false, "activity_regularizer": null, "bias_constraint": null, "activation": "linear", "kernel_regularizer": null, "kernel_initializer": {"class_name": "VarianceScaling", "config": {"distribution": "uniform", "mode": "fan_avg", "scale": 1.0, "seed": null}}, "bias_regularizer": null, "filters": 960, "strides": [1, 1], "bias_initializer": {"class_name": "Zeros", "config": {}}, "kernel_constraint": null, "data_format": "channels_last", "padding": "same", "trainable": true, "kernel_size": [1, 1], "dilation_rate": [1, 1]}}, {"name": "block_14_expand_BN", "class_name": "BatchNormalization", "inbound_nodes": [[["block_14_expand", 0, 0, {}]]], "config": {"name": "block_14_expand_BN", "epsilon": 0.001, "gamma_regularizer": null, "moving_variance_initializer": {"class_name": "Ones", "config": {}}, "moving_mean_initializer": {"class_name": "Zeros", "config": {}}, "momentum": 0.999, "beta_initializer": {"class_name": "Zeros", "config": {}}, "gamma_constraint": null, "beta_regularizer": null, "axis": -1, "beta_constraint": null, "gamma_initializer": {"class_name": "Ones", "config": {}}, "center": true, "trainable": true, "scale": true}}, {"name": "block_14_expand_relu", "class_name": "ReLU", "inbound_nodes": [[["block_14_expand_BN", 0, 0, {}]]], "config": {"name": "block_14_expand_relu", "max_value": 6.0, "threshold": 0.0, "trainable": true, "negative_slope": 0.0}}, {"name": "block_14_depthwise", "class_name": "DepthwiseConv2D", "inbound_nodes": [[["block_14_expand_relu", 0, 0, {}]]], "config": {"name": "block_14_depthwise", "activity_regularizer": null, "depthwise_regularizer": null, "bias_constraint": null, "activation": "linear", "data_format": "channels_last", "depthwise_constraint": null, "bias_regularizer": null, "use_bias": false, "strides": [1, 1], "depthwise_initializer": {"class_name": "VarianceScaling", "config": {"distribution": "uniform", "mode": "fan_avg", "scale": 1.0, "seed": null}}, "bias_initializer": {"class_name": "Zeros", "config": {}}, "depth_multiplier": 1, "padding": "same", "trainable": true, "kernel_size": [3, 3], "dilation_rate": [1, 1]}}, {"name": "block_14_depthwise_BN", "class_name": "BatchNormalization", "inbound_nodes": [[["block_14_depthwise", 0, 0, {}]]], "config": {"name": "block_14_depthwise_BN", "epsilon": 0.001, "gamma_regularizer": null, "moving_variance_initializer": {"class_name": "Ones", "config": {}}, "moving_mean_initializer": {"class_name": "Zeros", "config": {}}, "momentum": 0.999, "beta_initializer": {"class_name": "Zeros", "config": {}}, "gamma_constraint": null, "beta_regularizer": null, "axis": -1, "beta_constraint": null, "gamma_initializer": {"class_name": "Ones", "config": {}}, "center": true, "trainable": true, "scale": true}}, {"name": "block_14_depthwise_relu", "class_name": "ReLU", "inbound_nodes": [[["block_14_depthwise_BN", 0, 0, {}]]], "config": {"name": "block_14_depthwise_relu", "max_value": 6.0, "threshold": 0.0, "trainable": true, "negative_slope": 0.0}}, {"name": "block_14_project", "class_name": "Conv2D", "inbound_nodes": [[["block_14_depthwise_relu", 0, 0, {}]]], "config": {"name": "block_14_project", "use_bias": false, "activity_regularizer": null, "bias_constraint": null, "activation": "linear", "kernel_regularizer": null, "kernel_initializer": {"class_name": "VarianceScaling", "config": {"distribution": "uniform", "mode": "fan_avg", "scale": 1.0, "seed": null}}, "bias_regularizer": null, "filters": 160, "strides": [1, 1], "bias_initializer": {"class_name": "Zeros", "config": {}}, "kernel_constraint": null, "data_format": "channels_last", "padding": "same", "trainable": true, "kernel_size": [1, 1], "dilation_rate": [1, 1]}}, {"name": "block_14_project_BN", "class_name": "BatchNormalization", "inbound_nodes": [[["block_14_project", 0, 0, {}]]], "config": {"name": "block_14_project_BN", "epsilon": 0.001, "gamma_regularizer": null, "moving_variance_initializer": {"class_name": "Ones", "config": {}}, "moving_mean_initializer": {"class_name": "Zeros", "config": {}}, "momentum": 0.999, "beta_initializer": {"class_name": "Zeros", "config": {}}, "gamma_constraint": null, "beta_regularizer": null, "axis": -1, "beta_constraint": null, "gamma_initializer": {"class_name": "Ones", "config": {}}, "center": true, "trainable": true, "scale": true}}, {"name": "block_14_add", "class_name": "Add", "inbound_nodes": [[["block_13_project_BN", 0, 0, {}], ["block_14_project_BN", 0, 0, {}]]], "config": {"name": "block_14_add", "trainable": true}}, {"name": "block_15_expand", "class_name": "Conv2D", "inbound_nodes": [[["block_14_add", 0, 0, {}]]], "config": {"name": "block_15_expand", "use_bias": false, "activity_regularizer": null, "bias_constraint": null, "activation": "linear", "kernel_regularizer": null, "kernel_initializer": {"class_name": "VarianceScaling", "config": {"distribution": "uniform", "mode": "fan_avg", "scale": 1.0, "seed": null}}, "bias_regularizer": null, "filters": 960, "strides": [1, 1], "bias_initializer": {"class_name": "Zeros", "config": {}}, "kernel_constraint": null, "data_format": "channels_last", "padding": "same", "trainable": true, "kernel_size": [1, 1], "dilation_rate": [1, 1]}}, {"name": "block_15_expand_BN", "class_name": "BatchNormalization", "inbound_nodes": [[["block_15_expand", 0, 0, {}]]], "config": {"name": "block_15_expand_BN", "epsilon": 0.001, "gamma_regularizer": null, "moving_variance_initializer": {"class_name": "Ones", "config": {}}, "moving_mean_initializer": {"class_name": "Zeros", "config": {}}, "momentum": 0.999, "beta_initializer": {"class_name": "Zeros", "config": {}}, "gamma_constraint": null, "beta_regularizer": null, "axis": -1, "beta_constraint": null, "gamma_initializer": {"class_name": "Ones", "config": {}}, "center": true, "trainable": true, "scale": true}}, {"name": "block_15_expand_relu", "class_name": "ReLU", "inbound_nodes": [[["block_15_expand_BN", 0, 0, {}]]], "config": {"name": "block_15_expand_relu", "max_value": 6.0, "threshold": 0.0, "trainable": true, "negative_slope": 0.0}}, {"name": "block_15_depthwise", "class_name": "DepthwiseConv2D", "inbound_nodes": [[["block_15_expand_relu", 0, 0, {}]]], "config": {"name": "block_15_depthwise", "activity_regularizer": null, "depthwise_regularizer": null, "bias_constraint": null, "activation": "linear", "data_format": "channels_last", "depthwise_constraint": null, "bias_regularizer": null, "use_bias": false, "strides": [1, 1], "depthwise_initializer": {"class_name": "VarianceScaling", "config": {"distribution": "uniform", "mode": "fan_avg", "scale": 1.0, "seed": null}}, "bias_initializer": {"class_name": "Zeros", "config": {}}, "depth_multiplier": 1, "padding": "same", "trainable": true, "kernel_size": [3, 3], "dilation_rate": [1, 1]}}, {"name": "block_15_depthwise_BN", "class_name": "BatchNormalization", "inbound_nodes": [[["block_15_depthwise", 0, 0, {}]]], "config": {"name": "block_15_depthwise_BN", "epsilon": 0.001, "gamma_regularizer": null, "moving_variance_initializer": {"class_name": "Ones", "config": {}}, "moving_mean_initializer": {"class_name": "Zeros", "config": {}}, "momentum": 0.999, "beta_initializer": {"class_name": "Zeros", "config": {}}, "gamma_constraint": null, "beta_regularizer": null, "axis": -1, "beta_constraint": null, "gamma_initializer": {"class_name": "Ones", "config": {}}, "center": true, "trainable": true, "scale": true}}, {"name": "block_15_depthwise_relu", "class_name": "ReLU", "inbound_nodes": [[["block_15_depthwise_BN", 0, 0, {}]]], "config": {"name": "block_15_depthwise_relu", "max_value": 6.0, "threshold": 0.0, "trainable": true, "negative_slope": 0.0}}, {"name": "block_15_project", "class_name": "Conv2D", "inbound_nodes": [[["block_15_depthwise_relu", 0, 0, {}]]], "config": {"name": "block_15_project", "use_bias": false, "activity_regularizer": null, "bias_constraint": null, "activation": "linear", "kernel_regularizer": null, "kernel_initializer": {"class_name": "VarianceScaling", "config": {"distribution": "uniform", "mode": "fan_avg", "scale": 1.0, "seed": null}}, "bias_regularizer": null, "filters": 160, "strides": [1, 1], "bias_initializer": {"class_name": "Zeros", "config": {}}, "kernel_constraint": null, "data_format": "channels_last", "padding": "same", "trainable": true, "kernel_size": [1, 1], "dilation_rate": [1, 1]}}, {"name": "block_15_project_BN", "class_name": "BatchNormalization", "inbound_nodes": [[["block_15_project", 0, 0, {}]]], "config": {"name": "block_15_project_BN", "epsilon": 0.001, "gamma_regularizer": null, "moving_variance_initializer": {"class_name": "Ones", "config": {}}, "moving_mean_initializer": {"class_name": "Zeros", "config": {}}, "momentum": 0.999, "beta_initializer": {"class_name": "Zeros", "config": {}}, "gamma_constraint": null, "beta_regularizer": null, "axis": -1, "beta_constraint": null, "gamma_initializer": {"class_name": "Ones", "config": {}}, "center": true, "trainable": true, "scale": true}}, {"name": "block_15_add", "class_name": "Add", "inbound_nodes": [[["block_14_add", 0, 0, {}], ["block_15_project_BN", 0, 0, {}]]], "config": {"name": "block_15_add", "trainable": true}}, {"name": "block_16_expand", "class_name": "Conv2D", "inbound_nodes": [[["block_15_add", 0, 0, {}]]], "config": {"name": "block_16_expand", "use_bias": false, "activity_regularizer": null, "bias_constraint": null, "activation": "linear", "kernel_regularizer": null, "kernel_initializer": {"class_name": "VarianceScaling", "config": {"distribution": "uniform", "mode": "fan_avg", "scale": 1.0, "seed": null}}, "bias_regularizer": null, "filters": 960, "strides": [1, 1], "bias_initializer": {"class_name": "Zeros", "config": {}}, "kernel_constraint": null, "data_format": "channels_last", "padding": "same", "trainable": true, "kernel_size": [1, 1], "dilation_rate": [1, 1]}}, {"name": "block_16_expand_BN", "class_name": "BatchNormalization", "inbound_nodes": [[["block_16_expand", 0, 0, {}]]], "config": {"name": "block_16_expand_BN", "epsilon": 0.001, "gamma_regularizer": null, "moving_variance_initializer": {"class_name": "Ones", "config": {}}, "moving_mean_initializer": {"class_name": "Zeros", "config": {}}, "momentum": 0.999, "beta_initializer": {"class_name": "Zeros", "config": {}}, "gamma_constraint": null, "beta_regularizer": null, "axis": -1, "beta_constraint": null, "gamma_initializer": {"class_name": "Ones", "config": {}}, "center": true, "trainable": true, "scale": true}}, {"name": "block_16_expand_relu", "class_name": "ReLU", "inbound_nodes": [[["block_16_expand_BN", 0, 0, {}]]], "config": {"name": "block_16_expand_relu", "max_value": 6.0, "threshold": 0.0, "trainable": true, "negative_slope": 0.0}}, {"name": "block_16_depthwise", "class_name": "DepthwiseConv2D", "inbound_nodes": [[["block_16_expand_relu", 0, 0, {}]]], "config": {"name": "block_16_depthwise", "activity_regularizer": null, "depthwise_regularizer": null, "bias_constraint": null, "activation": "linear", "data_format": "channels_last", "depthwise_constraint": null, "bias_regularizer": null, "use_bias": false, "strides": [1, 1], "depthwise_initializer": {"class_name": "VarianceScaling", "config": {"distribution": "uniform", "mode": "fan_avg", "scale": 1.0, "seed": null}}, "bias_initializer": {"class_name": "Zeros", "config": {}}, "depth_multiplier": 1, "padding": "same", "trainable": true, "kernel_size": [3, 3], "dilation_rate": [1, 1]}}, {"name": "block_16_depthwise_BN", "class_name": "BatchNormalization", "inbound_nodes": [[["block_16_depthwise", 0, 0, {}]]], "config": {"name": "block_16_depthwise_BN", "epsilon": 0.001, "gamma_regularizer": null, "moving_variance_initializer": {"class_name": "Ones", "config": {}}, "moving_mean_initializer": {"class_name": "Zeros", "config": {}}, "momentum": 0.999, "beta_initializer": {"class_name": "Zeros", "config": {}}, "gamma_constraint": null, "beta_regularizer": null, "axis": -1, "beta_constraint": null, "gamma_initializer": {"class_name": "Ones", "config": {}}, "center": true, "trainable": true, "scale": true}}, {"name": "block_16_depthwise_relu", "class_name": "ReLU", "inbound_nodes": [[["block_16_depthwise_BN", 0, 0, {}]]], "config": {"name": "block_16_depthwise_relu", "max_value": 6.0, "threshold": 0.0, "trainable": true, "negative_slope": 0.0}}, {"name": "block_16_project", "class_name": "Conv2D", "inbound_nodes": [[["block_16_depthwise_relu", 0, 0, {}]]], "config": {"name": "block_16_project", "use_bias": false, "activity_regularizer": null, "bias_constraint": null, "activation": "linear", "kernel_regularizer": null, "kernel_initializer": {"class_name": "VarianceScaling", "config": {"distribution": "uniform", "mode": "fan_avg", "scale": 1.0, "seed": null}}, "bias_regularizer": null, "filters": 320, "strides": [1, 1], "bias_initializer": {"class_name": "Zeros", "config": {}}, "kernel_constraint": null, "data_format": "channels_last", "padding": "same", "trainable": true, "kernel_size": [1, 1], "dilation_rate": [1, 1]}}, {"name": "block_16_project_BN", "class_name": "BatchNormalization", "inbound_nodes": [[["block_16_project", 0, 0, {}]]], "config": {"name": "block_16_project_BN", "epsilon": 0.001, "gamma_regularizer": null, "moving_variance_initializer": {"class_name": "Ones", "config": {}}, "moving_mean_initializer": {"class_name": "Zeros", "config": {}}, "momentum": 0.999, "beta_initializer": {"class_name": "Zeros", "config": {}}, "gamma_constraint": null, "beta_regularizer": null, "axis": -1, "beta_constraint": null, "gamma_initializer": {"class_name": "Ones", "config": {}}, "center": true, "trainable": true, "scale": true}}, {"name": "Conv_1", "class_name": "Conv2D", "inbound_nodes": [[["block_16_project_BN", 0, 0, {}]]], "config": {"name": "Conv_1", "use_bias": false, "activity_regularizer": null, "bias_constraint": null, "activation": "linear", "kernel_regularizer": null, "kernel_initializer": {"class_name": "VarianceScaling", "config": {"distribution": "uniform", "mode": "fan_avg", "scale": 1.0, "seed": null}}, "bias_regularizer": null, "filters": 1280, "strides": [1, 1], "bias_initializer": {"class_name": "Zeros", "config": {}}, "kernel_constraint": null, "data_format": "channels_last", "padding": "valid", "trainable": true, "kernel_size": [1, 1], "dilation_rate": [1, 1]}}, {"name": "Conv_1_bn", "class_name": "BatchNormalization", "inbound_nodes": [[["Conv_1", 0, 0, {}]]], "config": {"name": "Conv_1_bn", "epsilon": 0.001, "gamma_regularizer": null, "moving_variance_initializer": {"class_name": "Ones", "config": {}}, "moving_mean_initializer": {"class_name": "Zeros", "config": {}}, "momentum": 0.999, "beta_initializer": {"class_name": "Zeros", "config": {}}, "gamma_constraint": null, "beta_regularizer": null, "axis": -1, "beta_constraint": null, "gamma_initializer": {"class_name": "Ones", "config": {}}, "center": true, "trainable": true, "scale": true}}, {"name": "out_relu", "class_name": "ReLU", "inbound_nodes": [[["Conv_1_bn", 0, 0, {}]]], "config": {"name": "out_relu", "max_value": 6.0, "threshold": 0.0, "trainable": true, "negative_slope": 0.0}}, {"name": "average_pooling2d_4", "class_name": "AveragePooling2D", "inbound_nodes": [[["out_relu", 0, 0, {}]]], "config": {"name": "average_pooling2d_4", "strides": [2, 2], "pool_size": [2, 2], "data_format": "channels_last", "padding": "valid", "trainable": true}}, {"name": "flatten_4", "class_name": "Flatten", "inbound_nodes": [[["average_pooling2d_4", 0, 0, {}]]], "config": {"name": "flatten_4", "trainable": true, "data_format": "channels_last"}}, {"name": "dropout_4", "class_name": "Dropout", "inbound_nodes": [[["flatten_4", 0, 0, {}]]], "config": {"name": "dropout_4", "noise_shape": null, "trainable": true, "rate": 0.5, "seed": null}}, {"name": "dense_8", "class_name": "Dense", "inbound_nodes": [[["dropout_4", 0, 0, {}]]], "config": {"name": "dense_8", "activity_regularizer": null, "units": 100, "bias_constraint": null, "activation": "relu", "kernel_constraint": null, "bias_regularizer": null, "use_bias": true, "kernel_regularizer": null, "bias_initializer": {"class_name": "Zeros", "config": {}}, "trainable": true, "kernel_initializer": {"class_name": "VarianceScaling", "config": {"distribution": "uniform", "mode": "fan_avg", "scale": 1.0, "seed": null}}}}, {"name": "dense_10", "class_name": "Dense", "inbound_nodes": [[["dense_8", 0, 0, {}]]], "config": {"name": "dense_10", "activity_regularizer": null, "units": 37, "bias_constraint": null, "activation": "softmax", "kernel_constraint": null, "bias_regularizer": null, "use_bias": true, "kernel_regularizer": null, "bias_initializer": {"class_name": "Zeros", "config": {}}, "trainable": true, "kernel_initializer": {"class_name": "VarianceScaling", "config": {"distribution": "uniform", "mode": "fan_avg", "scale": 1.0, "seed": null}}}}, {"name": "dense_9", "class_name": "Dense", "inbound_nodes": [[["dense_8", 0, 0, {}]]], "config": {"name": "dense_9", "activity_regularizer": null, "units": 4, "bias_constraint": null, "activation": "sigmoid", "kernel_constraint": null, "bias_regularizer": null, "use_bias": true, "kernel_regularizer": null, "bias_initializer": {"class_name": "Zeros", "config": {}}, "trainable": true, "kernel_initializer": {"class_name": "VarianceScaling", "config": {"distribution": "uniform", "mode": "fan_avg", "scale": 1.0, "seed": null}}}}, {"name": "concatenate_2", "class_name": "Concatenate", "inbound_nodes": [[["dense_10", 0, 0, {}], ["dense_9", 0, 0, {}]]], "config": {"name": "concatenate_2", "axis": -1, "trainable": true}}], "output_layers": [["concatenate_2", 0, 0]]}, "class_name": "Model", "backend": "tensorflow", "keras_version": "2.2.4"}